database/vectordb/b09231e8fd9fc61f61d6b142c8e9852a.npy (npy, 1664 bytes, 1 tensors)

array f4 [384]
-0.09677679 -0.08082988 -0.15372704 -0.02474597 0.07877039 0.025742898 -0.007967837 0.05065151
-0.04721404 0.039995782 -0.048709817 0.007888899 -0.06950377 -0.04191409 -0.05469383 -0.06358839
0.008930614 -0.012340801 -0.015506915 0.012950503 -0.0056731654 0.022779169 -0.03603184 -0.04311364
-0.020688036 0.0099032335 0.0154747125 -0.046242725 -0.063265376 -0.00095455645 -0.0039414223 0.10169
-0.02759099 -0.05442407 0.077827126 0.05146284 0.014791613 -0.028410716 0.010676642 -0.0124516785
-0.019201266 -0.05859368 -0.03319298 -0.03484093 0.010826329 0.024146741 0.0621194 0.013815964
-0.035680875 -0.015731473 -0.13124011 0.05429915 0.038056903 0.0062208255 -0.042015426 0.03668213
-0.01847614 0.0167656 0.058424305 -0.059457116 0.057818804 0.031912033 -0.045737095 -0.02010514
0.03660194 0.008611836 -0.011183542 -0.009340323 0.050379828 0.02041023 0.025295034 -0.004624612
-0.07044387 -0.049009662 0.043022934 -0.059012502 0.033332404 0.0058891554 0.026087053 -0.013029311
0.037189424 -0.012975481 0.04827609 -0.01092038 -0.00586613 -0.012738192 -0.033281524 -0.04232973
0.102284 0.02114234 0.014957293 -0.022884289 -0.025232015 0.03716227 0.09705235 0.014652547
0.014303492 -0.0031718756 0.005445662 0.082556404 0.048340764 -0.02606782 -0.023832813 0.027138157
0.025702553 -0.11638937 -0.015206542 0.007824766 0.009581435 0.0001378593 -0.009042552 -0.057310708
-0.03139765 -0.07223721 0.05264716 -0.0056622797 -0.0060863537 -0.068308994 0.012546325 -0.022019098
0.01661593 0.042937756 0.019006059 -0.017379804 0.081186324 0.0042412505 -0.08063688 5.375645e-33
-0.13961849 0.023888597 0.048630446 -0.02356733 -0.05127611 -0.04110764 -0.0889972 0.022745071
0.034250524 -0.017696757 0.12777258 0.15012759 0.03616495 0.04864708 0.009918066 -0.08531775
-0.022246137 -0.06382553 0.017796844 0.046231285 0.027666993 0.09648141 0.07726705 -0.09550672
-0.03704873 -0.0024449893 -0.030161364 0.05164548 0.04532653 0.051151775 0.06784775 0.047130704
-0.06518331 -0.024194064 -0.10351614 -0.05744653 -0.043421578 -0.08793965 -0.017321747 -0.052778706
-0.002485381 0.04219899 -0.023457738 0.0045543625 0.04803677 0.04336826 0.057690952 0.0652944
0.055419132 -0.029973937 -0.038135137 0.0384061 0.042189606 -0.09579288 -0.046338014 -0.04746517
-0.055392258 0.03975026 0.004308738 -0.098186925 -0.01758368 -0.008772393 0.035586983 0.02453609
-0.068969 0.09177578 -0.08109706 -0.0006344375 0.012793504 0.023995794 -0.08375949 0.043798603
0.041782565 -0.016657101 0.042309195 0.020955296 0.058074776 0.0498073 -0.049858727 0.023674766
-0.04443264 0.06006403 0.03475666 -0.007781657 -0.035096932 -0.034187134 -0.033595532 0.09097162
0.15265006 -0.034426887 -0.0062818793 -0.06309255 -0.059162945 -0.00064855564 -0.024926288 -8.1239105e-33
0.025354149 -0.02573034 -0.04164515 0.038648497 0.044582892 0.021432769 -0.03487626 -0.048657015
-0.02918356 -0.07142916 0.057444535 0.007579848 0.011074014 0.037514683 -0.012070337 -0.105432205
0.017254187 -0.09884172 -0.018999172 0.015030327 0.0833021 0.021134503 -0.067599416 0.014612764
-0.0033787242 0.02069871 0.008578584 0.002656265 -0.02972042 -0.062210973 0.038641777 0.036320664
00000000: e932 c6bd 238a a5bd 9f6a 1dbe 0fb8 cabc
00000010: 5f52 a13d c5e2 d23c 888b 02bc f577 4f3d
00000020: 8263 41bd 9ed2 233d f283 47bd 7140 013c
00000030: fe57 8ebd 1cae 2bbd a306 60bd a13a 82bd
00000040: b651 123c 1231 4abc b710 7ebc 592e 543c
00000050: f6e5 b9bb 619b ba3c 1f96 13bd ee97 30bd
00000060: f579 a9bc 2c41 223c a689 7d3c 0369 3dbd
00000070: 4791 81bd 333b 7aba 0c27 81bb d942 d03d
00000080: 8006 e2bc c6eb 5ebd d463 9f3d b3ca 523d
00000090: 8658 723c 97bd e8bc 15ed 2e3c 2002 4cbc
000000a0: f94b 9dbc edff 6fbd 5df5 07bd 5db5 0ebd
000000b0: ea60 313c 63cf c53c e970 7e3d 5a5c 623c
000000c0: 1c26 12bd 4adf 80bc cf63 06be c968 5e3d
000000d0: 8ee1 1b3d 11d8 cb3b 5e18 2cbd 0040 163d
000000e0: 465b 97bc 0358 893c 534e 6f3d 4e89 73bd
000000f0: 69d3 6c3d 31b6 023d d256 3bbd 89b3 a4bc
00000100: eaeb 153d a818 0d3c 2d3b 37bc 2708 19bc
00000110: 145b 4e3d 5b33 a73c 8837 cf3c 0f8a 97bb
00000120: e044 90bd 5bbe 48bd d138 303d 18b7 71bd
00000130: 8f87 083d d1f9 c03b 84b4 d53c e478 55bc
00000140: f053 183d 1d97 54bc 26bd 453d 65eb 32bc
00000150: aa38 c0bb dab3 50bc 3552 08bd f061 2dbd
00000160: 467a d13d b332 ad3c 6f0f 753c d577 bbbc
00000170: 5fb3 cebc 7737 183d 62c3 c63d 3d11 703c
00000180: 3259 6a3c 3edf 4fbb 8671 b23b 5513 a93d
00000190: f700 463d 2e8c d5bc 083d c3bc d750 de3c
000001a0: 298e d23c 8d5d eebd dc24 79bc 7333 003c
000001b0: 73fb 1c3c 538e 1039 3627 14bc a2be 6abd
000001c0: d29a 00bd 1af1 93bd 8ca4 573d a58a b9bb
000001d0: 0970 c7bb 96e5 8bbd 1a8f 4d3c 6561 b4bc
000001e0: 211e 883c 80df 2f3d 98b2 9b3c 1760 8ebc
000001f0: 0445 a63d 30fa 8a3b f324 a5bd aa4b df09
00000200: 26f8 0ebe 05b2 c33c b830 473d 4610 c1bc
00000210: e606 52bd 7c60 28bd 2a44 b6bd df53 ba3c
00000220: 474a 0c3d caf8 90bc d1d6 023e 0cbb 193e
00000230: b321 143d 2942 473d 627f 223c 13bb aebd
00000240: 883d b6bc f6b6 82bd b0ca 913c 045d 3d3d
00000250: e4a5 e23c 0c98 c53d 303e 9e3d 0799 c3bd
00000260: 69c0 17bd 1d3c 20bb f714 f7bc 368a 533d
00000270: 50a8 393d 8684 513d c3f3 8a3d 200c 413d
00000280: d47e 85bd a132 c6bc 4500 d4bd 0d4d 6bbd
00000290: d3da 31bd b419 b4bd 56e6 8dbc 7c2e 58bd
000002a0: c6e1 22bb d9d8 2c3d 712a c0bc c33c 953b
000002b0: 34c2 443d eba2 313d 594d 6c3d 12b9 853d
000002c0: 2cff 623d e78b f5bc 9733 1cbd b74f 1d3d
000002d0: 02cf 2c3d 0f2f c4bd eecc 3dbd d76a 42bd
000002e0: fee2 62bd 2bd1 223d 5030 8d3b 3a16 c9bd
000002f0: a60b 90bc 15ba 0fbc a8c3 113d e9ff c83c
00000300: 9e3f 8dbd f1f4 bb3d 3716 a6bd 6150 26ba
00000310: d89b 513c d492 c43c 188a abbd 2a66 333d
00000320: 3224 2b3d 7974 88bc 684c 2d3d 71aa ab3c
00000330: d1df 6d3d bd02 4c3d aa38 4cbd 95f1 c13c
00000340: 00ff 35bd b305 763d 005d 0e3d 45fd febb
00000350: cdc1 0fbd cf07 0cbd 789b 09bd 544f ba3d
00000360: 4c50 1c3e 3503 0dbd 39d8 cdbb ab36 81bd
00000370: d854 72bd d503 2aba 3732 ccbc 1eba 288a
00000380: 81b3 cf3c 6fc8 d2bc 1b94 2abd e34d 1e3d
00000390: 8d9c 363d c693 af3c 69da 0ebd 944c 47bd
000003a0: 5c12 efbc 7449 92bd f64a 6b3d 6060 f83b
000003b0: c86f 353c ffa8 193d aac2 45bc d7ec d7bd
000003c0: a758 8d3c 876d cabd 27a4 9bbc c341 763c
000003d0: 4b9a aa3d 4422 ad3c 9071 8abd 606a 6f3c
000003e0: 966d 5dbb 5790 a93c 308d 0c3c bb14 2e3b
000003f0: 3d78 f3bc efd0 7ebd d746 1e3d fac4 143d
