database/vectordb/b098866f920fdba9658411832f8c9177.npy (npy, 1664 bytes, 1 tensors)

array f4 [384]
-0.015647208 -0.017471142 -0.04692546 0.01821363 0.036666013 0.07725223 -0.060406625 0.044088032
-0.011739504 0.06606639 -0.019199003 0.057269555 -0.047394063 -0.055639725 -0.03915899 -0.012014036
-0.023678495 -0.039223213 -0.0019813431 -0.007647112 0.031724438 -0.07979239 0.03839586 -0.016965942
0.0243701 -0.027937187 0.030198835 -0.0796111 0.015643196 0.012574156 -0.0088383565 0.08265664
0.015851937 -0.046057228 0.049794465 0.05816618 0.09531003 0.052674677 -0.051017176 0.05842541
0.0043521165 -0.08943802 -0.08583606 -0.03180805 -0.0009879915 -0.0016570997 0.10414528 -0.0067443624
-0.10258715 0.0068362723 -0.0471917 0.017468687 0.033394102 -0.040962793 0.0012331472 0.0008563152
0.000542418 -0.0064588445 -0.020460026 -0.059120968 0.014982526 -0.0022045958 -0.073678225 0.016359875
0.06759963 -0.0032211563 -0.040753312 0.05933043 -0.09885795 -0.0017541795 0.064642794 -0.030826265
-0.015069844 -0.023316136 0.030089378 -0.10053825 0.084115796 0.02637796 0.021556383 0.005646399
0.036291808 -0.012400416 -0.076253615 0.0012904973 -0.072146736 -0.03188798 -0.028860794 -0.07494164
0.06079992 -0.007391238 0.0619438 -0.017500076 -0.09434143 0.01860168 0.09267861 0.03515823
-0.0024829227 -0.01879173 0.13415022 0.07693118 0.05307298 0.03296793 -0.009692701 -0.00015488286
0.015644806 -0.14000839 -0.08092221 -0.0059301285 0.081425205 0.011868004 -0.017019458 -0.031524025
0.07322733 0.045197368 0.058637418 -0.03905958 -0.019303424 -0.068962716 0.025315443 -0.0066099945
0.09018268 -0.01660192 -0.041104175 0.045243695 -0.035746668 0.046703223 -0.06063566 -4.0946596e-34
-0.079967976 -0.032000728 0.06419989 0.035963833 -0.13424143 0.026603999 -0.03766484 -0.022972768
-0.050887343 -0.025567792 0.010874747 0.13311839 0.043445747 -0.0052413023 0.08573157 -0.0106061995
-0.09711663 -0.028588368 0.06908216 -0.017154464 0.025743183 0.00076089514 0.07698783 -0.033373952
-0.024934785 -0.023965076 0.02113795 -0.04539489 0.00053980696 0.0076743346 0.047250748 0.012030604
-0.010992143 -0.01320454 -0.06774447 0.024958633 -0.07732009 -0.03214155 0.0153435 -0.06449772
-0.054406144 -0.005553149 0.013945732 0.041267358 0.047654584 0.03316769 0.09673816 -0.03555209
0.013437869 -0.011296947 -0.00040854348 -0.007406784 0.0224581 -0.161291 0.0039584725 0.011422372
-0.11661613 0.003317113 -0.01969199 -0.09819565 0.038484316 0.05649712 -0.026775757 0.052245446
-0.034276083 0.13432202 -0.07894181 -0.020303791 0.07384417 -0.015039414 0.0032546069 0.07142522
-0.0048494996 0.0018270231 -0.013986607 0.044899862 -0.058699746 0.07927556 0.03860534 -0.058083568
-0.075769626 0.031609826 -0.018168021 -0.015586348 0.012917651 -0.0032272935 0.04068559 0.0589351
0.10986963 -0.02913545 -0.04327084 -0.06443697 -0.080938324 0.013100557 0.033948764 -3.968089e-33
0.019813914 -0.063256584 0.005166585 0.036533467 0.114898615 0.005284905 -0.100279585 -0.038713586
0.08369522 -0.02053484 -0.007462632 -0.021377008 0.10700916 0.09058771 0.039517432 -0.090170786
-0.036009293 -0.04258371 -0.0055352724 -0.0028890036 -0.0066239797 -0.014800795 -0.017492378 -0.0037265997
-0.01989455 -0.007162767 -0.016747577 -0.06374015 -0.063316956 -0.015305215 -0.035383053 -0.017817566
00000000: 932e 80bc a41f 8fbc e934 40bd c034 953c
00000010: 1a2f 163d 6b36 9e3d f06c 77bd a795 343d
00000020: 0c57 40bc d14d 873d 3a47 9dbc 7b93 6a3d
00000030: 4720 42bd 7be6 63bd 2d65 20bd 85d6 44bc
00000040: 67f9 c1bc 85a8 20bd 6cd9 01bb a094 fabb
00000050: 7cf1 013d 316a a3bd fa44 1d3d 29fc 8abc
00000060: cea3 c73c 87dc e4bc 8c63 f73c 250b a3bd
00000070: 2926 803c d503 4e3c c1ce 10bc e247 a93d
00000080: ecdb 813c 81a6 3cbd 48f5 4b3d a93f 6e3d
00000090: e831 c33d 67c1 573d 63f7 50bd 7c4f 6f3d
000000a0: 339c 8e3b 482b b7bd d1ca afbd 2849 02bd
000000b0: 7e7f 81ba 0a33 d9ba 1f4a d53d d0ff dcbb
000000c0: 3619 d2bd cf02 e03b 164c 41bd 7e1a 8f3c
000000d0: 41c8 083d 9ac8 27bd 8ea1 a13a 577a 603a
000000e0: 0e31 0e3a b7a4 d3bb c99b a7bc d428 72bd
000000f0: 4579 753c fb7a 10bb 9ce4 96bd 2505 863c
00000100: ad71 8a3d 091a 53bb f2ec 26bd 7704 733d
00000110: 0976 cabd 7fec e5ba 7163 843d 5d87 fcbc
00000120: 82e7 76bc 7b01 bfbc 007e f63c ffe6 cdbd
00000130: e744 ac3d 9716 d83c 0397 b03c 6e05 b93b
00000140: b8a6 143d 1d2b 4bbc db2a 9cbd e725 a93a
00000150: abc1 93bd f89c 02bd 796d ecbc 017b 99bd
00000160: 5609 793d 3332 f2bb c8b8 7d3d 525c 8fbc
00000170: 1436 c1bd 8d62 983c 48ce bd3d 1402 103d
00000180: 88b8 22bb 1df1 99bc ad5e 093e 188e 9d3d
00000190: 0e63 593d 6109 073d 22ce 1ebc 0d68 22b9
000001a0: 8929 803c 5c5e 0fbe 8bba a5bd 8651 c2bb
000001b0: 42c2 a63d 0472 423c 646c 8bbc 561f 01bd
000001c0: 36f8 953d e020 393d ca2d 703d f0fc 1fbd
000001d0: 3722 9ebc 533c 8dbd 5562 cf3c a798 d8bb
000001e0: b2b1 b83d c000 88bc da5c 28bd 7451 393d
000001f0: 196b 12bd e14b 3f3d 195d 78bd 8311 0888
00000200: 40c6 a3bd 3213 03bd 3b7b 833d d04e 133d
00000210: 9676 09be a1f0 d93c 7346 1abd 6331 bcbc
00000220: 3f6f 50bd 8c73 d1bc ff2b 323c 3050 083e
00000230: 2bf4 313d 3bbf abbb 0994 af3d a0c5 2dbc
00000240: 15e5 c6bd 2732 eabc f37a 8d3d 8587 8cbc
00000250: 5ee3 d23c cf76 473a ccab 9d3d 20b3 08bd
00000260: 0944 ccbc 6852 c4bc 7e29 ad3c feef 39bd
00000270: d581 0d3a fc78 fb3b 008a 413d 031c 453c
00000280: 6418 34bc db57 58bc 9dbd 8abd 0c76 cc3c
00000290: ff59 9ebd dca6 03bd 4e63 7b3c 6117 84bd
000002a0: fad8 5ebd 31f7 b5bb a47c 643c f607 293d
000002b0: 7431 433d d8da 073d a81e c63d 119f 11bd
000002c0: 822a 5c3c d416 39bc c731 d6b9 9cb4 f2bb
000002d0: 0dfa b73c 7829 25be 13b6 813b e724 3b3c
000002e0: 70d4 eebd ec63 593b 1951 a1bc cd1a c9bd
000002f0: bba1 1d3d 8669 673d d558 dbbc 52ff 553d
00000300: 1465 0cbd b68b 093e 3eac a1bd 2354 a6bc
00000310: 9d3b 973d e067 76bc 3e4b 553b 6347 923d
00000320: 8de8 9ebb b978 ef3a 1528 65bc ebe8 373d
00000330: 256f 70bd 3a5b a23d a220 1e3d 09e9 6dbd
00000340: 1b2d 9bbd 4e79 013d 1ad5 94bc e25d 7fbc
00000350: 8ea4 533c 0081 53bb efa5 263d ee65 713d
00000360: 5403 e13d 78ad eebc c43c 31bd 88f7 83bd
00000370: fec2 a5bd b8a3 563c dc0d 0b3d f6d3 a489
00000380: ca50 a23c ab8c 81bd 754c a93b 1ea4 153d
00000390: f74f eb3d ff2c ad3b 625f cdbd 2392 1ebd
000003a0: 6668 ab3d ae38 a8bc 1889 f4bb d61e afbc
000003b0: 9e27 db3d 0d86 b93d 08dd 213d 76ab b8bd
000003c0: 7b7e 13bd 426c 2ebd 3b61 b5bb 7055 3dbb
000003d0: f80d d9bb 097f 72bc 2d4c 8fbc f839 74bb
000003e0: e5f9 a2bc a5b5 eabb 3732 89bc 328a 82bd
000003f0: 52ac 81bd b9c2 7abc d2ed 10bd 25f6 91bc
