database/vectordb/b13bd0da2244052140b2b5b6d28538f4.npy (npy, 1664 bytes, 1 tensors)

array f4 [384]
000000 90 88 87 bc 68 e3 11 3d bb 50 ed bc d1 c6 02 bd
       -0.01654461 0.035617262 -0.02896916 -0.031927887
000010 21 84 1f 3c 33 ce 4f 3d 1f cb 1d 3d c4 1f 3d 3c
       0.009736092 0.050733756 0.03852379 0.011543218
000020 0c 99 e0 bc 62 4e a5 3d d6 83 e5 3c 4c f6 69 3c
       -0.027416728 0.08071591 0.028016966 0.014279913
000030 32 13 30 bd a6 95 97 bc aa 5f 0d bb d9 54 51 bc
       -0.042987056 -0.018503975 -0.0021571913 -0.012776577
000040 95 8e 37 bc 95 33 00 bd c4 c3 eb 3c 1e 7f 73 3d
       -0.011203428 -0.031299192 0.028779872 0.0594474
000050 64 07 20 3d b8 40 b0 3d c5 5f 09 3c ae 1f 6c 3d
       0.03906955 0.08606094 0.00838465 0.0576474
000060 27 83 49 3c 7b 39 13 3d b9 63 8e bb 3c 05 65 bd
       0.012299336 0.03594349 -0.004345384 -0.055913195
000070 f2 57 97 3c 7b 52 80 3d a7 79 29 bd ba 67 22 bd
       0.018474553 0.06265732 -0.041375782 -0.039649703
000080 69 3b 76 3d da a8 29 bc c2 1d 5a 3d e6 8e 84 3c
       0.06011525 -0.010355199 0.053251036 0.01618142
000090 a8 8c 5f 3d c3 56 ec 3c f3 74 4f 3d e6 cc 33 bd
       0.0545775 0.028849965 0.05064864 -0.04389658
0000a0 8a cd e0 bc cf 08 78 bd 0f fa 07 bd af f4 1d bd
       -0.027441759 -0.060555276 -0.03319746 -0.038563427
0000b0 a8 e3 03 bd 7c 6f 95 bb 88 f3 29 3d 40 af a1 3d
       -0.03219953 -0.004560409 0.041492015 0.078947544
0000c0 58 7f 10 bb 2b 30 c9 3b fe 54 9a bd d3 55 33 bd
       -0.002204856 0.0061397753 -0.07535742 -0.04378302
0000d0 5c 4a 95 3b 79 2b 6f bd 40 a4 0a 3d 8e d4 14 bd
       0.0045559835 -0.058391068 0.033848047 -0.03633552
0000e0 7d 06 5c 3d 89 91 81 3d bf 89 69 bd b9 5d 2a bd
       0.053717125 0.06326587 -0.05701613 -0.041593287
0000f0 55 61 15 bd a9 ba 3c bd 9d 3b 70 bc 02 01 98 3c
       -0.036469776 -0.04607645 -0.01466265 0.018555168
000100 ec 4e 9c 3d c5 90 da bb 7a 9a 91 3c 1e 34 10 3d
       0.07632241 -0.00667009 0.017773855 0.035205953
000110 77 66 85 bd 32 f3 bb 3d f7 58 82 3b 7d f3 63 3b
       -0.06513684 0.09177245 0.0039778906 0.0034782581
000120 10 2b fb 3c 2a ad a5 3c 3d f8 ea bc 90 b3 5a bd
       0.030660182 0.020224173 -0.028682822 -0.0533939
000130 36 38 b9 3c 09 ce c9 bc 41 f5 31 bd c7 b8 26 bd
       0.022609811 -0.024634378 -0.043446783 -0.04070356
000140 60 19 3a 3d f0 9f 86 bb 21 d5 8d bb f8 36 d7 bb
       0.045434356 -0.0041084215 -0.0043283855 -0.006567832
000150 65 56 c7 bd 5a 35 a6 bd a8 99 62 bd e1 7c 32 bd
       -0.09733275 -0.08115645 -0.05532232 -0.043576125
000160 45 3d 7b 3d 49 86 9d bd 1c e2 aa bc 32 9e af bd
       0.061337728 -0.076916285 -0.02085977 -0.08575095
000170 17 b2 84 bd e1 fe 50 3b 18 6c 31 3d c6 a7 b5 bb
       -0.064792804 0.00318902 0.043315977 -0.005543682
000180 65 7d de bd 8b 29 19 3d 1e 0b 18 bd a9 bb 0c 3d
       -0.10863761 0.037393134 -0.037119977 0.034358654
000190 18 5f db 3c 8b bc 3d ba e2 d3 1b bd 3c 53 a1 bc
       0.026778743 -0.0007237873 -0.038043864 -0.01969301
0001a0 f8 fd 41 3c 78 14 03 be d3 34 53 bd 5d 3d 09 bd
       0.011840336 -0.12800777 -0.05156405 -0.033505786
0001b0 8f 45 0c bd 8c 3b 09 3c af 29 c5 bd 36 d5 a9 3c
       -0.034246024 0.0083760135 -0.09627091 0.02073155
0001c0 af f2 d6 3b b8 9f 82 3d 32 5c 8b 3d c7 59 df bc
       0.006559692 0.0637812 0.06804694 -0.027264489
0001d0 33 b7 c0 3c 52 ed 39 bd 92 b3 28 bd ad db 20 3d
       0.023524856 -0.045392342 -0.041186877 0.039272
0001e0 99 37 41 3d 1d 09 b3 bc 27 66 d3 bc c1 68 28 3d
       0.047172163 -0.021854931 -0.025805546 0.041115526
0001f0 c0 24 37 3d bf 1a 9c bd 6c 85 05 bb 71 fd ee 08
       0.044712782 -0.07622289 -0.0020373715 1.4383688e-33
000200 a8 e8 36 3c 6d 54 7b 3d 1b 62 10 3d e8 ee f7 3d
       0.011163868 0.06135981 0.03524981 0.121061146
000210 6e 38 2b bd 0c 63 22 3d 38 f6 2c bc 12 91 53 bc
       -0.041801862 0.03964524 -0.01055675 -0.012913005
000220 c7 ec 69 3d 9f f9 ad bd e0 62 b4 3c 41 67 ab 3c
       0.057110574 -0.08494877 0.022019804 0.020923259
000230 0e 58 68 3c 4b 8b 7a 3d ab 73 71 bb 97 26 63 bd
       0.01418115 0.061167996 -0.0036842625 -0.055456724
000240 91 1e 6a bd 4e 83 42 ba 18 dc 6e 3d c3 98 ce bd
       -0.057158057 -0.00074200786 0.058315367 -0.10087731
000250 c4 44 ac 3c f3 56 d2 3d 66 46 6e 3d 62 14 68 bd
       0.021028884 0.102704905 0.058172606 -0.056660064
000260 57 fa 8f bb 94 7f 4d bd 0a bc 0e 3d 3e 82 fb bc
       -0.0043938565 -0.050170496 0.034847297 -0.030701753
000270 58 8a 15 3d d0 2c 1b 3d 29 dc af 3b 1e 61 17 3d
       0.036508888 0.037884533 0.0053668213 0.036957853
000280 30 68 74 bd ea 20 84 3d 3b 8f 35 3d 7f 65 91 bc
       -0.059669673 0.0645159 0.04432605 -0.017748592
000290 22 d2 83 bc 6e 2a a4 bd 84 2e 2a 3d 99 e2 48 bc
       -0.01609141 -0.08015905 0.041548267 -0.012261056
0002a0 64 f9 90 3c 13 f5 ff 3c ac 48 b0 3d ae ce 97 bc
       0.017697044 0.03124479 0.08607611 -0.01853117
0002b0 d7 4f 26 3b 5b 5a 96 3d b6 a5 aa 3c c5 89 a8 3c
       0.0025377178 0.07341453 0.02083097 0.020573506
0002c0 ba 99 20 3c 4e b9 e2 3c dc 92 bf 3c b5 64 82 bc
       0.009802276 0.02767625 0.023385458 -0.015917161
0002d0 14 7c 96 3d 01 7e d6 bd 73 83 1b 3b 7e d2 9b bd
       0.07347885 -0.10473252 0.0023729473 -0.076085076
0002e0 fb 1f 1f bd 58 d3 38 3b c8 9f 96 bd 0d 4a 00 be
       -0.03884886 0.0028202143 -0.073546946 -0.12528248
0002f0 e6 30 94 3c 13 7e 85 3d ee dd 8e 3c ea 23 bf bc
       0.018089723 0.065181874 0.017439809 -0.023332555
000300 7d 50 11 bd 21 b7 a1 3d 13 c9 e2 bd 13 29 86 3a
       -0.03547715 0.07896257 -0.11073508 0.001023563
000310 5c e6 2c bd f3 a5 5f 3d 21 47 29 3d 02 f3 18 3a
       -0.042211875 0.05460162 0.0413276 0.0005834551
000320 a8 85 9b bd f2 f2 30 3d 8d 27 8e bb f1 4d 8d 3d
       -0.07593852 0.04320044 -0.004338211 0.06899632
000330 60 b4 98 39 49 1e f0 3c 8e c2 7d bc 22 df 48 bd
       0.0002912609 0.029311316 -0.01548828 -0.04904092
000340 d2 67 73 bd 8d bc 80 bd a0 78 cc 3b bd 2f 96 bd
       -0.059425183 -0.06285963 0.0062399656 -0.07333324
000350 00 1b 01 3a 64 df 1a 3c ab 59 09 3d 85 33 f8 3b
       0.0004924983 0.009452675 0.03353278 0.007574501
000360 3f 79 20 3e db d2 00 3d 5e 90 20 bd 96 21 c3 bc
       0.15671252 0.031451087 -0.03920018 -0.023819726
000370 d5 06 27 bd 74 8a 31 bd 70 ff 03 be d0 68 c1 89
       -0.040778 -0.04334493 -0.1289041 -4.6561625e-33
000380 13 d2 fd bd e4 16 4d 3b b7 ef 77 bc e3 43 22 3e
       -0.12393584 0.0031294161 -0.015132836 0.15846209
000390 96 fc c6 bc 91 34 b5 3c 4f 85 8c bd b0 57 a5 3c
       -0.024290364 0.022119792 -0.06861364 0.020183414
0003a0 5f 2e 1d bc 28 5d 33 bd 22 55 3d 3d 14 12 86 bd
       -0.009593575 -0.043790013 0.046223767 -0.06546417
0003b0 7c 64 a8 3d 50 fd 2c 3d 37 da 2f 3d d3 8e 11 3d
       0.08222291 0.042233765 0.042932715 0.0355366
0003c0 ae f3 05 3d bd 18 92 bd 77 07 c0 3b f3 88 82 bd
       0.032703094 -0.07133625 0.005860265 -0.06373777
0003d0 97 9e 39 3d 15 87 2c bd 4b 0d d6 bd 8e bc ec bc
       0.04531726 -0.04212101 -0.10451754 -0.028898504
0003e0 a6 91 d3 bc ea ff 08 bc cc d8 f3 3c 6f 27 33 bd
       -0.025826287 -0.008361796 0.029766463 -0.04373878
0003f0 e2 8f 83 3c e3 da 95 bb 7b 50 13 bd 80 7c d4 3c
       0.01605982 -0.0045732125 -0.035965424 0.025938272
