database/vectordb/b1735e1a3f015bdabdb969afad9fb42c.npy (npy, 1664 bytes, 1 tensors)

array f4 [384]
000000 bf 36 aa 3c 89 ca ba 3d e2 05 ad bb db 5d d9 3a
       0.020778058 0.09120662 -0.0052802423 0.0016583757
000010 7b 8f 90 3c 5a 71 41 3d 0d 7b 90 3d 0c b9 69 bd
       0.017646542 0.04722724 0.0705472 -0.05706124
000020 fe ba 3c bd 8a 94 f3 bc a0 f8 23 3c 0d 6e f0 bc
       -0.046076767 -0.029733915 0.010008007 -0.029349351
000030 d4 9f 28 bc 69 d3 9b bd 2c 51 81 bd c9 d0 1e 3a
       -0.010292012 -0.07608683 -0.063143104 0.0006058333
000040 03 41 70 3c 00 d0 ab 3c 03 f7 5e 3c c7 c2 dd 3d
       0.0146639375 0.020973206 0.013608697 0.108281665
000050 38 fe 69 3b 6d aa f9 bd 70 86 ac 3d 58 78 d6 3c
       0.0035704505 -0.12190709 0.084240794 0.026180431
000060 0e 3b 3a bd 8c b9 20 3d b0 5b 76 bb ac 5f 97 3c
       -0.045466475 0.03923945 -0.003759127 0.018478237
000070 e1 0c a5 3b 8c 3e cb bb 3a 27 67 bd 64 d3 79 3a
       0.0050369357 -0.0062025245 -0.056433894 0.0009530096
000080 a3 47 2d 3c 7e 57 ad 3c dc 7c 1b bd a3 3e b7 3d
       0.010576162 0.021159884 -0.037960872 0.08947494
000090 22 21 9e 3d c8 98 a9 bb e6 1e 50 3d 6c 7e 81 3d
       0.07721163 -0.0051756836 0.050810717 0.06322941
0000a0 dc 4c 16 bd 02 5f f6 bc 4d 01 a9 bd c4 d3 0d bd
       -0.036694393 -0.0300746 -0.08252201 -0.034625784
0000b0 a4 4d d2 3c 97 c4 25 bc a0 b9 af bc 54 b8 aa 3d
       0.025671788 -0.010117671 -0.021450818 0.08335939
0000c0 13 74 93 bd a1 74 00 bd 0c c1 cc 3c 86 94 1e bd
       -0.07199874 -0.031361226 0.024994396 -0.03871586
0000d0 ef d7 8b bd 4c e8 c8 bd d8 09 ba 3b 16 21 53 bd
       -0.068282954 -0.09809932 0.005677443 -0.051545225
0000e0 48 13 88 3c b9 d3 91 bd 7a 01 91 3d 1d bf 06 bb
       0.016610757 -0.07120461 0.0708036 -0.002056069
0000f0 e8 45 5b 3d c9 47 00 3d 7d 25 98 3c 76 2b 47 3d
       0.053533465 0.03131846 0.018572563 0.048625432
000100 86 f1 bc ba 3e c7 80 bc 58 40 9d bc 08 48 31 3d
       -0.0014415241 -0.015720006 -0.01919572 0.043281585
000110 3f 9e 1b bd a1 43 03 3d e4 fb 0a 3c e0 7b e9 bc
       -0.037992712 0.032046918 0.008482907 -0.028501451
000120 ce 36 34 bc a9 3c e1 bc 27 d4 25 bc 56 e0 8e bc
       -0.010999395 -0.027494745 -0.010121382 -0.017440956
000130 86 29 33 bd c4 79 6f bd 38 d0 69 bd 63 d5 bd bd
       -0.04374077 -0.058465734 -0.05708334 -0.09269216
000140 0c 14 5b 3d 60 d5 5a bd bb 2a fb 3c f7 b6 a1 3d
       0.053485915 -0.053426147 0.030660024 0.07896226
000150 37 e4 d7 3c f2 6d 07 3d e8 04 12 bc 2d 7f 88 bd
       0.026353939 0.033063836 -0.008912303 -0.06664882
000160 3b a9 47 bc 4a ce 75 3b 40 8d ae bd 9a de 9d 3c
       -0.012186344 0.003750699 -0.08523035 0.019271184
000170 a2 18 c7 3c da 50 48 3c 39 e1 8c 3c ca 4f ae bc
       0.024303738 0.012226308 0.017197238 -0.02127828
000180 17 77 07 bd d0 eb 58 3d db 28 65 bd 04 d5 b4 3d
       -0.033072557 0.052959263 -0.055947166 0.08829692
000190 d6 7e 13 3d db 4f 64 3d 48 c8 73 3d 3c da 62 3c
       0.036009632 0.05574022 0.059517175 0.013845976
0001a0 4f fd 58 bd 1e 06 04 bd 2a 5f 45 bd c0 38 99 bd
       -0.05297595 -0.032232396 -0.04818646 -0.07481527
0001b0 b7 db aa bd db 76 58 3d 6f 4c 76 bc 95 a6 87 bd
       -0.083426885 0.052847724 -0.015032872 -0.0662357
0001c0 bb ea cc bd 06 cf 58 bd 2b 8c e6 3c 39 fc 08 3d
       -0.10005709 -0.052931808 0.02814301 0.033443663
0001d0 2e fa 30 bd 10 71 46 bd 58 98 b1 bc 72 33 24 bd
       -0.04320734 -0.04844767 -0.021679088 -0.040088125
0001e0 cc 21 5e bc 3b f8 be bc 2c ac 7a bc cf aa 2b 3c
       -0.0135578625 -0.023311725 -0.015299838 0.010477736
0001f0 18 b0 c3 bb 6f a4 13 3b 11 da b2 bd 3c 4e 37 09
       -0.0059719197 0.002252843 -0.08732999 2.206461e-33
000200 a1 cc 08 3b 5b 9e 59 3d 6d c7 67 3d 76 7d 81 3d
       0.0020873921 0.053129535 0.05658667 0.06322758
000210 4c 8b 3c 3d 7d 51 a2 bb ef 91 ae bc fd 8f 1e bd
       0.04603128 -0.004953562 -0.021309821 -0.038711537
000220 55 cd 20 3d ac 2d 8d bc d2 02 1e bb 2e 03 41 bc
       0.03925832 -0.017233692 -0.0024110568 -0.011780543
000230 07 a1 23 bd d4 da 4f 3d 70 de 30 3b 5b 75 12 bd
       -0.03994849 0.0507458 0.0026988052 -0.03575645
000240 40 e2 58 3d 3d 95 e2 bc c9 04 a0 bc 4d 00 ee bc
       0.052950144 -0.027659053 -0.019533532 -0.029052878
000250 89 a3 1e 3d 66 a5 9f 3d d0 c0 a4 bd 57 24 c2 3c
       0.038730178 0.07795219 -0.080445886 0.023698969
000260 99 18 e9 bc a9 2f db 3d 7b a4 b3 bc 9c be 80 3d
       -0.028454112 0.1070245 -0.021929016 0.06286356
000270 5f 95 34 bd 2a 3d 30 3d bb 35 fe 3c 44 24 8a bc
       -0.044087764 0.04302708 0.03103148 -0.016862996
000280 e8 3b ae 3b 30 8a 57 bd 48 73 9f 3c 5c fa e9 bc
       0.0053172 -0.05262202 0.01946415 -0.028561763
000290 7f f5 10 3d 60 92 51 bd c3 7f 31 3d 85 06 df 3c
       0.035390373 -0.051164985 0.043334734 0.027224788
0002a0 f2 91 f7 3c 88 fe 93 bd d2 b2 52 3d 02 67 d3 3a
       0.03022096 -0.07226282 0.051440068 0.0016128721
0002b0 77 c3 d3 bb c6 5d c2 3d 52 40 6e 3d d5 80 be 3c
       -0.00646251 0.09490542 0.05816681 0.023254791
0002c0 6a b5 c7 3d 54 5b 8b 3d cf 67 cc bd 8a 44 af 3c
       0.09751399 0.06804529 -0.099807374 0.021394987
0002d0 21 bd 48 bd 60 f0 ce b7 f8 53 38 3d b8 4a 38 3d
       -0.049008492 -2.4669047e-05 0.045001954 0.044993132
0002e0 2b 51 8a bd d4 64 9d 3a 0a 33 2d bd 3a 5e b9 bd
       -0.06753763 0.0012008199 -0.042285003 -0.090511754
0002f0 82 e2 9a 3d 84 96 18 3d d5 58 db 3c 1d 47 0e 3d
       0.07562734 0.037252918 0.026775757 0.034735788
000300 ef de 28 bd c5 ee 9c 3d 3a f1 54 bd 31 97 78 3b
       -0.04122823 0.07662729 -0.051987864 0.0037931914
000310 c1 0c 8c 3d b3 ac 24 3d 06 b4 02 be fb 61 e5 3d
       0.0683837 0.04020376 -0.12763986 0.11200329
000320 21 d1 cc 3d 1b 3d b2 3c 80 da 5b 3d ec 02 04 3e
       0.10000826 0.021757653 0.053675175 0.1289174
000330 12 3a 2a 3c 57 d6 80 bc 09 74 66 bd df 4c 62 3c
       0.010389822 -0.015727205 -0.056263003 0.013812273
000340 19 ea 91 bd 0e e9 75 bd 7e a9 00 bd d3 66 94 bc
       -0.07124729 -0.06003671 -0.03141164 -0.018115437
000350 cf dc aa bc 04 88 bc bc 38 fa f8 3d 2a 92 3f bd
       -0.020857243 -0.023014076 0.121571004 -0.046770252
000360 aa 65 f6 3c 17 b7 9d 3d 82 43 5e bd 4a 68 09 bd
       0.030077774 0.07700937 -0.0542636 -0.033546723
000370 32 8e 7a bd 71 8b 4c bd 1f 27 e8 bd ff 0b cf 89
       -0.061170764 -0.04993767 -0.11335587 -4.984472e-33
000380 74 4d 26 3d b9 a6 85 3d a1 b7 98 3b c6 68 9d 3c
       0.04060121 0.065259404 0.004660562 0.019214999
000390 ff 86 40 3d 81 33 38 bd c6 ae 70 bd 73 69 d8 3b
       0.047003742 -0.044970993 -0.058760427 0.0066043674
0003a0 11 48 af 3c 7a f1 a9 3d bc 2e 33 bc f7 36 0d be
       0.021396669 0.08298011 -0.010936435 -0.13790499
0003b0 c5 95 ae 3c dd 5a 56 bd 5a 2c ed 3c 92 08 7a bd
       0.02131165 -0.052332748 0.028951813 -0.06104333
0003c0 eb fa 12 3d a3 ea 88 bd 59 65 7a bd 5f 27 78 bd
       0.035883825 -0.066853784 -0.06113181 -0.060584422
0003d0 f8 b5 d3 bd 95 e2 1a 3d 36 83 33 bc 2b 96 e5 bd
       -0.10337442 0.03781374 -0.010956576 -0.11210283
0003e0 7b 38 80 bd 58 d9 8e 3d 6d 66 a7 3d 87 65 ff bd
       -0.06260773 0.06975049 0.08173833 -0.12470537
0003f0 7b 91 34 3c 7a a7 7e 3d 14 11 66 bc b4 7d 77 bd
       0.011021013 0.062171437 -0.014042158 -0.060422614
