database/vectordb/b1d03e0ee9698132a5387d9339cc5f7c.npy (npy, 1664 bytes, 1 tensors)

array f4 [384]
0.04182152 0.04431318 -0.08319263 0.027738804 0.013515661 0.056383673 0.08657928 -0.023221774
-0.00081451325 -0.00042312423 0.05074864 -0.004266167 0.0056733284 0.018990118 0.030193327 -0.05821748
-0.023910725 0.055700462 -0.14003979 0.09915796 0.029796053 -0.047984794 -0.010157742 -0.012605001
-0.04523702 -0.04211069 0.026778264 0.015493626 0.0548034 -0.051752415 0.13529566 0.032896042
0.011886044 -0.03678757 0.0010663039 0.05933688 0.04238558 -0.0043189535 0.050120648 -0.013554767
-0.023789948 -0.0015058644 -0.03282398 -0.046972547 0.0008629828 -0.05548339 0.013079044 -0.053882077
-0.09405982 -0.044396415 -0.029207105 0.07621986 -0.05411394 -0.03620023 0.031595264 0.038437095
-0.01668594 -0.04820197 0.009001536 -0.044980593 -0.029531777 -0.027975876 0.012086504 -0.0020060576
0.069891304 -0.032609 0.0030548493 0.02049809 -0.073374026 0.019836443 -0.012321638 -0.01938289
-0.045933187 -0.0017032392 0.030051405 -0.032490164 0.031172065 -0.008640248 -0.011797987 0.025318764
0.04385247 0.081786625 -0.034382585 0.04442389 -0.11847977 -0.014393147 -0.04374225 0.024390323
0.096653014 0.03915746 -0.015647022 0.01761063 0.015169487 -0.025194906 0.0735417 -0.062173408
-0.01278504 -0.06775016 0.002091668 0.005147363 -0.01922603 -0.024283428 0.030868644 0.03267774
0.021217002 -0.05624823 -0.028551674 0.016618744 -0.01852747 0.044807244 -0.04878985 -0.05288247
-0.009798335 0.006949297 0.039521325 -0.05365336 -0.12068289 -0.034684103 0.067431286 -0.0396324
0.012400185 -0.03665134 0.082782865 0.013124367 0.03982375 -0.038173817 0.018084565 6.715007e-33
-0.06364425 -0.05044485 -0.010067453 0.027824387 -0.018490572 -0.02298366 -0.045961738 -0.013422791
-0.03348231 0.035119228 -0.00034802718 0.09306848 0.020657811 0.047588494 0.10057227 0.057147812
0.017936686 0.031689707 0.06013932 0.043370523 0.066082016 0.06477937 0.0009329859 -0.04468883
-0.013449496 -0.12916414 -0.006602606 -0.0069502834 -0.07312624 0.019431448 -0.023212368 0.109727725
-0.069387816 -0.033545956 0.06658768 -0.021472499 -0.14342245 0.013510154 -0.009163053 0.0037171945
-0.048041336 0.0015523895 0.0766227 0.036490235 -0.03234991 0.0826683 0.06275222 0.02955739
-0.13346158 0.04137297 -0.06343933 0.06767566 0.0011205053 -0.153611 0.0025243498 -0.017521694
-0.100746445 0.09610608 -0.0066246735 -0.03147542 -0.12959166 -0.042483777 0.0047234427 0.00747528
0.08191929 -0.023816062 -0.004021486 -0.08012897 -0.00054583215 -0.0036012598 -0.055346143 0.018931894
-0.030908216 -0.015182562 -0.008747251 0.03325443 0.07172665 -0.034928232 -0.052404672 0.002011014
-0.06463803 0.07020145 0.028212175 -0.018967928 0.078893736 -0.04098239 0.021711348 -0.015975753
0.08039391 0.019217325 0.032316945 0.020376647 -0.08929689 -0.04851295 -0.074429095 -7.658489e-33
-0.02352981 -0.06137126 -0.06318789 -0.061181 0.06441482 0.03580319 -0.045281973 -0.027249996
-0.028992325 -0.07622688 -0.08271649 -0.02603214 0.03393698 0.022200717 -0.07290723 -0.020524008
-0.017279133 -0.017206147 -0.018980356 0.009651852 -0.026805166 0.055634536 -0.056641348 -0.030465072
-0.0028956602 0.044757247 -0.09926874 0.028555827 -0.03279279 0.021108741 0.0343639 0.06030197
00000000: 0b4d 2b3d bd81 353d e660 aabd 7d3c e33c
00000010: ca70 5d3c 91f2 663d 7a50 b13d 973b bebc
00000020: 0f85 55ba c6d6 ddb9 cedd 4f3d 34cb 8bbb
00000030: 54e7 b93b 2a91 9b3c ff57 f73c 7475 6ebd
00000040: 6de0 c3bc 2b26 643d 9766 0fbe 5413 cb3d
00000050: da16 f43c b48b 44bd a86c 26bc 3585 4ebc
00000060: 744a 39bd 427c 2cbd 175e db3c fad8 7d3c
00000070: 8879 603d 57fa 53bd f28a 0a3e 00be 063d
00000080: afbd 423c 90ae 16bd 39c3 8b3a 3a0b 733d
00000090: 809c 2d3d 0286 8dbb 4f4b 4d3d d014 5ebc
000000a0: 23e3 c2bc 6d60 c5ba 7072 06bd 4966 40bd
000000b0: cc39 623a 8d42 63bd 7d49 563c 74b3 5cbd
000000c0: 6fa2 c0bd 04d9 35bd bd43 efbc 2819 9c3d
000000d0: 94a6 5dbd b146 14bd 096a 013d 3770 1d3d
000000e0: f4b0 88bc 6e6f 45bd 2e7b 133c 923d 38bd
000000f0: a0ec f1bc aa2d e5bc 7906 463c 1078 03bb
00000100: 2c23 8f3d 0491 05bd de33 483b 9ceb a73c
00000110: 1f45 96bd 0980 a23c b2e0 49bc dec8 9ebc
00000120: 7024 3cbd 393f dfba 5d2e f63c 6814 05bd
00000130: 8f5c ff3c d48f 0dbc 584c 41bc 4c69 cf3c
00000140: a69e 333d bf7f a73d c1d4 0cbd d3f5 353d
00000150: 86a5 f2bd 3cd1 6bbc 132b 33bd 37ce c73c
00000160: 04f2 c53d 9363 203d 2f2e 80bc 2b44 903c
00000170: 7189 783c 8c65 cebc 089d 963d 8ba9 7ebd
00000180: 5878 51bc 99c0 8abd 5e14 093b 36ab a83b
00000190: e87f 9dbc 0aee c6bc 3de0 fc3c 18d9 053d
000001a0: 47cf ad3c 8b64 66bd 33e5 e9bc 0824 883c
000001b0: ecc6 97bc cd87 373d ded7 47bd 4a9b 58bd
000001c0: 3289 20bc eeb6 e33b 1de1 213d a0c3 5bbd
000001d0: 9728 f7bd eb10 0ebd 6a19 8a3d 9555 22bd
000001e0: 252a 4b3c b71f 16bd 108a a93d 9607 573c
000001f0: 3a1e 233d 265c 1cbd 1526 943c 1a77 0b0a
00000200: eb57 82bd 429f 4ebd f5f1 24bc f8ef e33c
00000210: 8a79 97bc 3b48 bcbc 6042 3cbd 44eb 5bbc
00000220: bf24 09bd 2ed9 0f3d 6b77 b6b9 b09a be3d
00000230: 923a a93c 27ec 423d d6f8 cd3d d313 6a3d
00000240: f5ef 923c 11cd 013d a654 763d 4aa5 313d
00000250: 0256 873d 0cab 843d a093 743a a20b 37bd
00000260: 465b 5cbc 9b43 04be ac5a d8bb 34bf e3bb
00000270: 36c3 95bd b32e 9f3c dd27 bebc eeb8 e03d
00000280: 331b 8ebd 7c67 09bd 1f5f 883d 18e7 afbc
00000290: 56dd 12be b159 5d3c a120 16bc 2d9c 733b
000002a0: fec6 44bd 8c79 cb3a 5dec 9c3d c976 153d
000002b0: 5781 04bd ff4d a93d 3c84 803d 5722 f23c
000002c0: 27aa 08be b476 293d 7bec 81bd 8999 8a3d
000002d0: ebdd 923a 344c 1dbe 906f 253b a889 8fbc
000002e0: 2754 cebd 44d3 c43d ca13 d9bb 5fec 00bd
000002f0: adb3 04be 7803 2ebd 1cc7 9a3b 32f3 f43b
00000300: 4dc5 a73d e719 c3bc abc6 83bb a81a a4bd
00000310: 2d16 0fba 1d03 6cbb a3b2 62bd 0f17 9b3c
00000320: 3a33 fdbc 48c0 78bc a150 0fbc cc35 083d
00000330: 6ce5 923d e810 0fbd 48a6 56bd 37cb 033b
00000340: f260 84bd c7c5 8f3d 381d e73c a162 9bbc
00000350: 0a93 a13d 27dd 27bd ffdb b13c 95df 82bc
00000360: 90a5 a43d a76d 9d3c c65e 043d edec a63c
00000370: 4ae1 b6bd 84b5 46bd 486e 98bd 830f 1f8a
00000380: 97c1 c0bc 6e60 7bbd a768 81bd ee98 7abd
00000390: ebeb 833d 5ea6 123d 9779 39bd 623b dfbc
000003a0: 5081 edbc d71c 9cbd 4367 a9bd 5b41 d5bc
000003b0: 8101 0b3d 47de b53c 6350 95bd f721 a8bc
000003c0: f88c 8dbc e8f3 8cbc b17c 9bbc cd22 1e3c
000003d0: 8296 dbbc 0ae1 633d c200 68bd e391 f9bc
000003e0: 1ec5 3dbb 6053 373d 694d cbbd e9ed e93c
000003f0: bc51 06bd 3dec ac3c 29c1 0c3d 33ff 763d
