database/vectordb/b2026de1546f3ad5dee18cd858eab90d.npy (npy, 1664 bytes, 1 tensors)

array f4 [384]
000000 fb e4 ac 3c 07 7a 91 3b 4d c1 f8 bd 4c 04 ac bc
       0.02110528 0.0044395956 -0.12146244 -0.020998143
000010 cc 09 db 3c 90 25 08 3c 15 ad c0 3c ad 0f 9d 3c
       0.02673807 0.008309737 0.023520032 0.019172514
000020 5c 51 de bc a7 58 ab 3c 6a 37 89 bd fc dc 4d bd
       -0.027138405 0.020916296 -0.067000225 -0.050259575
000030 76 23 e8 bc 36 8d 0a bd b4 8d 81 3b 3d ec 92 bd
       -0.028337222 -0.033826075 0.00395366 -0.07173965
000040 99 2d fc 3c 77 ff 10 bd b1 c8 02 3d c8 3b 6c 3b
       0.030783461 -0.03539988 0.031929675 0.0036046375
000050 09 67 2d 3d e3 d2 59 3c 99 77 15 bd be c8 c9 3c
       0.04233459 0.013294908 -0.03649101 0.024631854
000060 9f 9e 4e bd c5 e3 07 bb 93 b7 f9 3c 69 74 ab bd
       -0.05044424 -0.0020735126 0.030483043 -0.08371813
000070 3e 19 f4 bc 55 7c b7 bb cb 0f 86 bd 2a f5 89 3d
       -0.029797193 -0.0055995383 -0.06545981 0.067362145
000080 f5 f4 09 3b 1f 88 0b bd 0e 89 8c 3d b7 aa 05 3e
       0.0021050547 -0.034065362 0.068620786 0.13053404
000090 a9 22 34 bd bb 8f a4 3c 71 5a 0f bd dd a3 c0 bc
       -0.043978367 0.020088067 -0.03499836 -0.023515636
0000a0 02 8a be bc 45 b8 c7 bc c8 28 44 bd 4f 46 8e bc
       -0.023259167 -0.024379859 -0.047890455 -0.01736751
0000b0 ec 1d 8f bc e7 fb f4 bc 9e 2c bb bc e2 14 04 bd
       -0.017470323 -0.029905273 -0.022848424 -0.032246478
0000c0 7a 59 77 bd b7 d5 f0 ba be b4 fb bd 03 dc 63 3a
       -0.060388066 -0.0018374239 -0.12290333 0.0008692147
0000d0 96 d8 0f 3c 18 d1 cb bd 2e bc ad bd 40 07 00 bd
       0.008779665 -0.09951991 -0.08483158 -0.031256914
0000e0 a3 d5 e4 3b fb 88 7c 3c 57 03 1d 3d 83 e1 2e bd
       0.0069834753 0.015413518 0.038333263 -0.042695533
0000f0 57 69 07 bc 79 7c 8f 3d 2b 9a 1e bd ae 3b b7 bc
       -0.008264861 0.07006163 -0.038721245 -0.022367325
000100 b6 a9 1e 3d 11 5b 03 bc c9 e5 ea bc 64 ed 22 3d
       0.038736068 -0.008017317 -0.028674023 0.039777175
000110 3f 53 ba b8 18 14 ce 3d a4 36 ea 3d 2a c7 42 bc
       -8.884677e-05 0.10062426 0.11436203 -0.011888305
000120 63 76 37 bc 68 11 27 bd 30 39 d9 3d 9a f3 16 bd
       -0.011197659 -0.040788084 0.10606611 -0.03685341
000130 d8 16 ff 3c 38 98 0a 3d 65 5f 05 3d e3 e4 c2 bd
       0.031138822 0.033836573 0.03256168 -0.09516313
000140 6e 33 c2 3d 4c 10 71 3d d3 a1 22 3d f7 c3 f0 3c
       0.09482466 0.058853433 0.03970511 0.029390318
000150 9b 9e 8d 3c b2 8a 64 3d 3d bc 22 bd 7c d7 5d bd
       0.017287543 0.055796333 -0.0397303 -0.05416058
000160 5a 2a 07 3d 45 c6 b6 3c c0 e7 07 bd 08 f9 07 be
       0.032999374 0.02231134 -0.03318 -0.13278592
000170 ea f2 f7 3c 92 c8 66 3c 66 c2 c5 3d 3a 56 8b bc
       0.030267198 0.014085906 0.09656219 -0.01700889
000180 d5 56 9e bc 23 3f 19 3d 08 b1 1b 3d 82 26 f8 3c
       -0.019328514 0.037413727 0.038010627 0.0302918
000190 33 a4 84 bd 5c 8e 2e bd ea ce 26 bc 07 f4 9b bd
       -0.06476631 -0.042616233 -0.010181168 -0.07614904
0001a0 91 05 9a 3c 35 7b 79 bd 98 63 0f bd 7f 2f 7e bd
       0.018801482 -0.060908515 -0.03500709 -0.062057015
0001b0 af b0 7a 3d 21 45 0e bd d8 43 10 bd 67 e8 e5 bc
       0.061203655 -0.034733895 -0.03522095 -0.02806492
0001c0 73 37 00 bd cc 68 1e bd 8b 8e a5 3d fa 65 01 3c
       -0.03130288 -0.03867416 0.080838285 0.007897848
0001d0 92 81 fe b7 72 c5 5c bd eb 36 4f bd 0a 08 fd bc
       -3.0339495e-05 -0.053899236 -0.050589483 -0.030887622
0001e0 8b ed c9 3b ec b9 21 3c a7 7a dc 3d a0 d1 93 3c
       0.0061623505 0.009870987 0.107655816 0.018044293
0001f0 3f 8f 46 3d 5a 2e 75 bd 7a 6d c0 bd 56 4c d4 09
       0.048476454 -0.059858657 -0.09395881 5.110893e-33
000200 05 f2 73 bd 1c d1 2c bc 5c 06 6f 3d 65 fb 9d 3a
       -0.05955698 -0.010547902 0.058355674 0.0012053071
000210 d4 05 47 bd 5a 8a c3 bd f1 51 5f 3c 1e 5a 3d 3d
       -0.048589543 -0.09547873 0.013630376 0.04622852
000220 ad 81 99 3d 81 d5 4d 3c ff d5 cf 3d 61 d9 7d 3d
       0.07495437 0.01256311 0.101482384 0.061974887
000230 68 51 be 3c 92 e9 cb 3d 6c 7b 08 3d 6f 77 17 bd
       0.023232177 0.099566594 0.03332083 -0.036979135
000240 98 b2 dc bc 26 38 bc bb e2 7d 05 bc 99 20 02 bd
       -0.026940629 -0.005743998 -0.008147689 -0.03176937
000250 3f 50 87 bd 26 1a 26 3d 2a 4d c3 3c 20 eb 52 bd
       -0.066071026 0.04055228 0.023840506 -0.051493764
000260 b5 84 dd 3c 0a eb 47 bd 6d 54 f6 3c ff 21 8a 3c
       0.027040819 -0.048808135 0.030069554 0.016861914
000270 bc ad a5 bd 5d 1a 26 3d 0a cd 96 3c c8 81 0d bd
       -0.08089778 0.040552486 0.018408317 -0.034547597
000280 35 eb 37 bd 2e 02 08 3d 4c 48 de bc 40 67 8a bc
       -0.044902045 0.033205204 -0.027134083 -0.016894937
000290 d4 d6 f1 bb 48 f1 62 bd a9 69 82 3b 16 4d 1b bd
       -0.007380346 -0.055405885 0.003979881 -0.03791531
0002a0 61 f4 00 bd 16 ed 8b 3d 3a 6a 65 3c 1c 8d 10 3d
       -0.031483058 0.0683233 0.014002377 0.035290822
0002b0 2b 36 72 3d 46 30 0f 3d eb f1 59 3d 50 b2 a9 3c
       0.05913369 0.034958147 0.053209227 0.020714909
0002c0 e3 23 bd bc e3 46 20 3b ce fe f5 3b 90 4a 88 3d
       -0.023088401 0.0024456314 0.0075071817 0.06654847
0002d0 d3 42 1c 3e bd 24 aa bd a9 43 12 3b 9a 95 c2 bd
       0.15259866 -0.083077885 0.002231816 -0.095011905
0002e0 ed 09 0f 3d a6 d0 91 3d 9c 6d 7f 3d be 04 b1 bd
       0.034921575 0.07119875 0.06236039 -0.086434826
0002f0 16 75 1f 3d 6c a9 54 3b ca 3f a7 bd 41 37 cd 3d
       0.03893002 0.0032449616 -0.08166464 0.100203045
000300 32 e9 36 bd 68 3e e2 3d 98 7c f2 bb 50 1a ab bc
       -0.044655986 0.11047059 -0.0074001066 -0.02088657
000310 de e6 0b 3d 29 6e 04 bc d3 44 86 bd 42 a9 2a bd
       0.03415572 -0.008082905 -0.06556096 -0.041665323
000320 76 14 e8 bc db 00 19 bd 81 fb 04 bc b4 4f ee bc
       -0.028330069 -0.03735433 -0.008116604 -0.02909074
000330 02 6a 7d 3b 29 7f 77 3d 40 3c ff 3a 9a 14 cc 3c
       0.0038667922 0.060424004 0.0019472912 0.024912167
000340 54 85 98 bc 0a 9b 66 3d 68 ad 88 bc 43 d0 57 bd
       -0.018618263 0.0563002 -0.016684249 -0.05268885
000350 90 1f c1 bd d2 58 aa 3c 31 78 45 3d 2c e9 d7 3c
       -0.09429848 0.020794306 0.048210327 0.026356302
000360 ca 61 1c 3d 18 38 e2 3d e0 d9 07 bd 4d 57 ed bc
       0.038179196 0.11045855 -0.033166766 -0.028972292
000370 4c d8 39 bd 3c 05 ad 3c 49 d8 62 bd 5e 9f 16 8a
       -0.045372292 0.02112066 -0.055382047 -7.252211e-33
000380 49 c3 b3 bd 83 18 c7 bc 3a e1 f9 bc de ec 05 3d
       -0.08777482 -0.02430368 -0.030502904 0.032696597
000390 55 ff 45 3d 67 c4 af bb 50 cd 35 bc 14 94 89 bd
       0.048339207 -0.005363989 -0.011096314 -0.06717697
0003a0 01 be 3f bc 67 98 7e bd 94 74 00 3d 87 dd ec bc
       -0.011703015 -0.06215706 0.031361178 -0.028914226
0003b0 1a a3 a1 bd 86 65 a6 bc 82 58 da bb 2a 09 6e bd
       -0.07892437 -0.020312082 -0.006663383 -0.05811421
0003c0 45 43 2b bc 4b c7 44 bc c0 dc 2b bc c6 f1 42 3c
       -0.01045305 -0.012010406 -0.010489643 0.011898464
0003d0 4e ac 92 3d 4b 51 9e 3d a4 1c 3d bd 59 6e 8c bd
       0.07161771 0.07730349 -0.046169892 -0.06856985
0003e0 74 d2 bb bb 9c fe 64 3c ad 7b 8e bd 7f ff ad 3c
       -0.005731875 0.013976719 -0.06957183 0.021239994
0003f0 99 d5 78 ba ee fb 84 bd 7f 94 06 3d 5d 11 3d bd
       -0.0009492278 -0.06493364 0.03285646 -0.046159137
