database/vectordb/b2026de1546f3ad5dee18cd858eab90d.npy (npy, 1664 bytes, 1 tensors)

array f4 [384]
000000 fc e4 ac 3c 07 7a 91 3b 4e c1 f8 bd 4d 04 ac bc
       0.021105282 0.0044395956 -0.12146245 -0.020998145
000010 cd 09 db 3c 90 25 08 3c 16 ad c0 3c ae 0f 9d 3c
       0.026738072 0.008309737 0.023520034 0.019172516
000020 5d 51 de bc a8 58 ab 3c 6b 37 89 bd fd dc 4d bd
       -0.027138406 0.020916298 -0.06700023 -0.05025958
000030 77 23 e8 bc 36 8d 0a bd b4 8d 81 3b 3e ec 92 bd
       -0.028337223 -0.033826075 0.00395366 -0.07173966
000040 9a 2d fc 3c 77 ff 10 bd b2 c8 02 3d c9 3b 6c 3b
       0.030783463 -0.03539988 0.03192968 0.0036046377
000050 0a 67 2d 3d e4 d2 59 3c 9a 77 15 bd bf c8 c9 3c
       0.042334594 0.013294909 -0.036491014 0.024631856
000060 a0 9e 4e bd c6 e3 07 bb 94 b7 f9 3c 6a 74 ab bd
       -0.050444245 -0.0020735129 0.030483045 -0.083718136
000070 40 19 f4 bc 56 7c b7 bb cc 0f 86 bd 2b f5 89 3d
       -0.029797196 -0.005599539 -0.06545982 0.06736215
000080 f5 f4 09 3b 20 88 0b bd 0f 89 8c 3d b8 aa 05 3e
       0.0021050547 -0.034065366 0.06862079 0.13053405
000090 aa 22 34 bd bc 8f a4 3c 71 5a 0f bd de a3 c0 bc
       -0.04397837 0.02008807 -0.03499836 -0.023515638
0000a0 03 8a be bc 46 b8 c7 bc c9 28 44 bd 50 46 8e bc
       -0.023259168 -0.02437986 -0.04789046 -0.017367512
0000b0 ec 1d 8f bc e8 fb f4 bc 9f 2c bb bc e3 14 04 bd
       -0.017470323 -0.029905275 -0.022848425 -0.03224648
0000c0 7b 59 77 bd b8 d5 f0 ba bf b4 fb bd 04 dc 63 3a
       -0.06038807 -0.001837424 -0.12290334 0.00086921477
0000d0 97 d8 0f 3c 19 d1 cb bd 2f bc ad bd 41 07 00 bd
       0.008779666 -0.099519916 -0.08483159 -0.031256918
0000e0 a4 d5 e4 3b fc 88 7c 3c 58 03 1d 3d 84 e1 2e bd
       0.0069834758 0.015413519 0.038333267 -0.042695537
0000f0 57 69 07 bc 7a 7c 8f 3d 2b 9a 1e bd af 3b b7 bc
       -0.008264861 0.07006164 -0.038721245 -0.022367327
000100 b7 a9 1e 3d 12 5b 03 bc ca e5 ea bc 65 ed 22 3d
       0.03873607 -0.008017318 -0.028674025 0.03977718
000110 3f 53 ba b8 19 14 ce 3d a5 36 ea 3d 2b c7 42 bc
       -8.884677e-05 0.10062427 0.11436204 -0.011888306
000120 63 76 37 bc 69 11 27 bd 31 39 d9 3d 9b f3 16 bd
       -0.011197659 -0.040788088 0.106066115 -0.036853414
000130 d9 16 ff 3c 38 98 0a 3d 65 5f 05 3d e4 e4 c2 bd
       0.031138824 0.033836573 0.03256168 -0.09516314
000140 6f 33 c2 3d 4d 10 71 3d d4 a1 22 3d f8 c3 f0 3c
       0.094824664 0.058853436 0.039705113 0.02939032
000150 9b 9e 8d 3c b3 8a 64 3d 3e bc 22 bd 7d d7 5d bd
       0.017287543 0.055796336 -0.039730303 -0.054160584
000160 5b 2a 07 3d 46 c6 b6 3c c1 e7 07 bd 08 f9 07 be
       0.032999378 0.022311341 -0.033180002 -0.13278592
000170 ec f2 f7 3c 93 c8 66 3c 67 c2 c5 3d 3b 56 8b bc
       0.030267201 0.014085907 0.0965622 -0.017008891
000180 d5 56 9e bc 24 3f 19 3d 09 b1 1b 3d 83 26 f8 3c
       -0.019328514 0.03741373 0.03801063 0.030291801
000190 33 a4 84 bd 5d 8e 2e bd ea ce 26 bc 07 f4 9b bd
       -0.06476631 -0.042616237 -0.010181168 -0.07614904
0001a0 92 05 9a 3c 36 7b 79 bd 99 63 0f bd 80 2f 7e bd
       0.018801484 -0.06090852 -0.035007093 -0.06205702
0001b0 b1 b0 7a 3d 22 45 0e bd d9 43 10 bd 68 e8 e5 bc
       0.061203662 -0.0347339 -0.035220955 -0.028064921
0001c0 74 37 00 bd cd 68 1e bd 8c 8e a5 3d fb 65 01 3c
       -0.031302884 -0.038674165 0.08083829 0.007897849
0001d0 93 81 fe b7 73 c5 5c bd ec 36 4f bd 0b 08 fd bc
       -3.0339497e-05 -0.05389924 -0.050589487 -0.030887624
0001e0 8c ed c9 3b ec b9 21 3c a8 7a dc 3d a1 d1 93 3c
       0.006162351 0.009870987 0.10765582 0.018044295
0001f0 40 8f 46 3d 5b 2e 75 bd 7b 6d c0 bd 57 4c d4 09
       0.048476458 -0.05985866 -0.09395882 5.1108933e-33
000200 06 f2 73 bd 1c d1 2c bc 5d 06 6f 3d 65 fb 9d 3a
       -0.059556983 -0.010547902 0.058355678 0.0012053071
000210 d4 05 47 bd 5a 8a c3 bd f2 51 5f 3c 1f 5a 3d 3d
       -0.048589543 -0.09547873 0.013630377 0.046228524
000220 ae 81 99 3d 82 d5 4d 3c 00 d6 cf 3d 62 d9 7d 3d
       0.074954376 0.012563111 0.10148239 0.06197489
000230 69 51 be 3c 93 e9 cb 3d 6d 7b 08 3d 6f 77 17 bd
       0.023232179 0.0995666 0.033320833 -0.036979135
000240 99 b2 dc bc 26 38 bc bb e2 7d 05 bc 9a 20 02 bd
       -0.02694063 -0.005743998 -0.008147689 -0.031769373
000250 3f 50 87 bd 27 1a 26 3d 2b 4d c3 3c 21 eb 52 bd
       -0.066071026 0.040552285 0.023840507 -0.051493768
000260 b6 84 dd 3c 0b eb 47 bd 6e 54 f6 3c 00 22 8a 3c
       0.02704082 -0.04880814 0.030069556 0.016861916
000270 bd ad a5 bd 5e 1a 26 3d 0a cd 96 3c c8 81 0d bd
       -0.080897786 0.04055249 0.018408317 -0.034547597
000280 35 eb 37 bd 2f 02 08 3d 4e 48 de bc 40 67 8a bc
       -0.044902045 0.033205207 -0.027134087 -0.016894937
000290 d5 d6 f1 bb 49 f1 62 bd a9 69 82 3b 17 4d 1b bd
       -0.0073803463 -0.05540589 0.003979881 -0.037915315
0002a0 61 f4 00 bd 17 ed 8b 3d 3b 6a 65 3c 1d 8d 10 3d
       -0.031483058 0.06832331 0.014002378 0.035290826
0002b0 2c 36 72 3d 47 30 0f 3d ec f1 59 3d 51 b2 a9 3c
       0.059133694 0.03495815 0.05320923 0.02071491
0002c0 e4 23 bd bc e4 46 20 3b cf fe f5 3b 91 4a 88 3d
       -0.023088403 0.0024456317 0.007507182 0.066548474
0002d0 d4 42 1c 3e be 24 aa bd aa 43 12 3b 9b 95 c2 bd
       0.15259868 -0.08307789 0.0022318163 -0.09501191
0002e0 ee 09 0f 3d a6 d0 91 3d 9d 6d 7f 3d be 04 b1 bd
       0.03492158 0.07119875 0.062360395 -0.086434826
0002f0 17 75 1f 3d 6d a9 54 3b ca 3f a7 bd 42 37 cd 3d
       0.038930025 0.0032449618 -0.08166464 0.10020305
000300 33 e9 36 bd 69 3e e2 3d 99 7c f2 bb 51 1a ab bc
       -0.04465599 0.1104706 -0.007400107 -0.020886572
000310 df e6 0b 3d 2a 6e 04 bc d3 44 86 bd 42 a9 2a bd
       0.034155723 -0.008082906 -0.06556096 -0.041665323
000320 77 14 e8 bc dc 00 19 bd 81 fb 04 bc b5 4f ee bc
       -0.02833007 -0.037354335 -0.008116604 -0.029090742
000330 03 6a 7d 3b 2a 7f 77 3d 41 3c ff 3a 9a 14 cc 3c
       0.0038667924 0.060424007 0.0019472913 0.024912167
000340 55 85 98 bc 0b 9b 66 3d 68 ad 88 bc 44 d0 57 bd
       -0.018618265 0.056300204 -0.016684249 -0.052688852
000350 91 1f c1 bd d3 58 aa 3c 32 78 45 3d 2d e9 d7 3c
       -0.09429849 0.020794308 0.04821033 0.026356304
000360 cb 61 1c 3d 19 38 e2 3d e1 d9 07 bd 4e 57 ed bc
       0.0381792 0.11045856 -0.03316677 -0.028972294
000370 4d d8 39 bd 3d 05 ad 3c 4a d8 62 bd 5f 9f 16 8a
       -0.045372296 0.021120662 -0.05538205 -7.252212e-33
000380 49 c3 b3 bd 84 18 c7 bc 3b e1 f9 bc df ec 05 3d
       -0.08777482 -0.024303682 -0.030502906 0.0326966
000390 56 ff 45 3d 68 c4 af bb 50 cd 35 bc 14 94 89 bd
       0.04833921 -0.0053639896 -0.011096314 -0.06717697
0003a0 02 be 3f bc 68 98 7e bd 95 74 00 3d 88 dd ec bc
       -0.011703016 -0.062157065 0.03136118 -0.028914228
0003b0 1b a3 a1 bd 86 65 a6 bc 83 58 da bb 2b 09 6e bd
       -0.07892438 -0.020312082 -0.0066633835 -0.058114212
0003c0 46 43 2b bc 4c c7 44 bc c1 dc 2b bc c6 f1 42 3c
       -0.010453051 -0.012010407 -0.010489644 0.011898464
0003d0 4f ac 92 3d 4c 51 9e 3d a5 1c 3d bd 59 6e 8c bd
       0.071617715 0.0773035 -0.046169896 -0.06856985
0003e0 75 d2 bb bb 9d fe 64 3c ad 7b 8e bd 80 ff ad 3c
       -0.0057318755 0.01397672 -0.06957183 0.021239996
0003f0 9a d5 78 ba ee fb 84 bd 80 94 06 3d 5e 11 3d bd
       -0.00094922783 -0.06493364 0.032856464 -0.04615914
