database/vectordb/b2c79957b8eba02e9e9e32826511d301.npy (npy, 1664 bytes, 1 tensors)

array f4 [384]
-0.07102529 0.017143555 0.08144716 0.050498124 0.027462695 0.023022316 0.003134904 0.09908693
0.07789476 0.04801436 0.077516235 -0.119479835 -0.024407495 0.008158535 -0.014270381 -0.12807539
0.07962189 0.063973345 -0.07203081 0.08505393 0.103815414 -0.015261527 -0.025325585 0.044590373
-0.03794255 -0.07185357 -0.11078677 -0.06430739 0.023762017 -0.013985437 -0.0014353396 0.01787629
-0.0063855024 0.0056994692 -0.00681019 0.036924485 0.10034359 0.016302872 -0.05510591 0.044835195
-0.08134798 -0.034793887 -0.014267369 0.09014075 0.011696054 0.07487225 0.020286262 0.041065454
-0.046448693 0.03377901 -0.048897352 0.06475671 -0.01846911 0.07735421 0.020407133 -0.007432794
-0.047949754 -0.02841074 -0.060060333 -0.104447715 0.07743106 -0.008489366 -0.04161766 -0.0049310657
0.15312833 -0.006663712 0.020952227 -0.06391866 -0.028879616 0.10517019 -0.016220078 0.02030064
-0.089657195 0.09264381 0.02629757 0.023438497 0.04718501 -0.018498326 0.029087823 0.05749275
0.111346886 -0.021389032 -0.056739267 -0.0515811 -0.12723646 -0.019172277 -0.008959519 0.033670604
0.004537527 -0.06831686 0.013529894 -0.012290671 -0.02133536 -0.02970732 0.06174311 0.06749753
-0.028481597 0.027386822 0.12104626 0.021624222 5.42127e-05 -0.008086789 0.05095732 0.0766894
0.021036433 -0.052493542 0.00836913 -0.13912244 0.077696905 0.05051353 0.03755835 -0.042774037
-0.016286131 0.015941067 -0.031790864 0.045470163 0.0042727534 -0.010356446 -0.048050486 -0.033450305
-0.00034318573 0.057614006 -0.029747218 -0.044538878 0.009329773 -0.033612523 -0.028582815 3.5793498e-33
-0.06083286 -0.029376587 0.06652647 0.027116261 -0.037682414 -0.10764032 -0.12100651 0.03888964
0.06307358 0.07796777 -0.06883825 -0.044760045 0.034639873 -0.025773805 -0.010116617 0.011152978
-0.005749529 -0.017631665 0.11414234 -0.052068207 -0.020149415 -0.03509721 -0.003382976 0.030092642
-0.05511727 -0.013757976 -0.05904353 -0.03330487 -0.017536366 0.020301659 -0.04951212 -0.0005570237
-0.06712761 -0.05419712 -0.06123027 -0.012861471 -3.9003393e-05 0.0062090643 0.0074351053 -0.013272205
-0.067193314 0.017863028 -0.010130976 -0.03854805 0.082690656 -0.11744855 -0.0115164425 0.0025022614
-0.022538375 0.050280925 0.017017456 0.0034528354 0.03583559 -0.009096715 0.05252841 0.096942194
-0.015954774 0.014643295 -0.055918705 0.08826909 0.014873982 0.019640937 0.0065463455 0.009073068
-0.017102871 -0.036718458 -0.035800118 -0.02230013 -0.03336079 0.009424648 -0.0596833 -0.01578466
-0.096426636 -0.019817064 -0.0237552 -0.05378263 0.049979348 -0.013405538 0.03430186 0.020450544
0.0003649234 0.0492703 0.06041459 -0.048587155 -0.058262073 -0.016416041 0.030420791 -0.035545584
-0.09478776 -0.017326975 -0.041599784 -0.005019101 -0.038607273 -0.049106255 0.09191916 -6.273628e-33
-0.03246507 -0.003485025 -0.11019543 0.07102359 0.08257549 0.055433817 -0.061806146 -0.06206025
-0.06555401 -0.0562061 -0.023012929 0.031135688 0.013838925 0.051725257 0.03524959 0.037107084
0.015340665 -0.07356101 -0.097678915 0.025867237 0.05518596 -0.0024214606 0.009128094 -0.014640175
-0.04872116 -0.042007677 0.053953603 -0.023657309 -0.011322248 0.013723668 -0.0028120866 -0.025586931
00000000: b575 91bd a470 8c3c c5cd a63d 1fd7 4e3d
00000010: 72f9 e03c 4c99 bc3c f672 4d3b 17ee ca3d
00000020: 4a87 9f3d b5aa 443d d5c0 9e3d d8b1 f4bd
00000030: 3af2 c7bc 60ab 053c 51ce 69bc 3226 03be
00000040: cd10 a33d 7504 833d e484 93bd c130 ae3d
00000050: 2d9d d43d 7c0b 7abc 9a77 cfbc 65a4 363d
00000060: a669 1bbd f727 93bd 2de4 e2bd 98b3 83bd
00000070: 90a8 c23c 2d23 65bc 0122 bcba 4c71 923c
00000080: 7a3d d1bb 9dc2 ba3b 0428 dfbb 213e 173d
00000090: f180 cd3d 9a8d 853c bcb6 61bd 1ca5 373d
000000a0: c599 a6bd 0984 0ebd afc1 69bc b79b b83d
000000b0: cea0 3f3c 9f56 993d 602f a63c 4034 283d
000000c0: fc40 3ebd dc5b 0a3d 9748 48bd 2a9f 843d
000000d0: 884c 97bc e26b 9e3d dc2c a73c cc8e f3bb
000000e0: f666 44bd a4bd e8bc d301 76bd afe8 d5bd
000000f0: 2d94 9e3d fb16 0bbc 4877 2abd c794 a1bb
00000100: accd 1c3e 455b dabb 01a4 ab3c c9e7 82bd
00000110: f294 ecbc 7863 d73d f8df 84bc 874d a63c
00000120: 319e b7bd 0abc bd3d 006e d73c 1702 c03c
00000130: 1245 413d cd89 97bc 9649 ee3c 857d 6b3d
00000140: d609 e43d 0d38 afbc 6f67 68bd b446 53bd
00000150: 464a 02be 2e0f 9dbc f2ca 12bc 30ea 093d
00000160: 89af 943b b6e9 8bbd 7dac 5d3c cf5e 49bc
00000170: 7ec7 aebc c45c f3bc 58e6 7c3d 253c 8a3d
00000180: 3d52 e9bc 545a e03c 1ae7 f73d 4825 b13c
00000190: 7262 6338 747e 04bc 9fb8 503d 550f 9d3d
000001a0: 9954 ac3c 7803 57bd ad1e 093c 1d76 0ebe
000001b0: 8e1f 9f3d 46e7 4e3d c9d6 193d d433 2fbd
000001c0: 7e6a 85bc d796 823c 2337 02bd ec3e 3a3d
000001d0: 7402 8c3b 15ae 29bc 96d0 44bd 3003 09bd
000001e0: 9ced b3b9 aafc 6b3d 70b0 f3bc 666e 36bd
000001f0: e7db 183c 49ad 09bd 8226 eabc 2dae 9409
00000200: e12b 79bd 2ba7 f0bc 083f 883d ec22 de3c
00000210: e058 1abd 8772 dcbd 43d2 f7bd be4a 1f3d
00000220: b92c 813d 91ad 9f3d 12fb 8cbd 4f56 37bd
00000230: 8ae2 0d3d 9623 d3bc 2bc0 25bc fbba 363c
00000240: 8c66 bcbb 4870 90bc 76c3 e93d 7945 55bd
00000250: 6310 a5bc 18c2 0fbd ebb4 5dbb d884 f63c
00000260: a6c2 61bd 2269 61bc a1d7 71bd b06a 08bd
00000270: 6da8 8fbc aa4f a63c 39cd 4abd 3a05 12ba
00000280: 337a 89bd cdfd 5dbd 97cc 7abd ebb8 52bc
00000290: 9397 23b8 6875 cb3b 2fa2 f33b aa73 59bc
000002a0: a69c 89bd 7c55 923c 65fc 25bc 8fe4 1dbd
000002b0: b859 a93d de88 f0bd 76af 3cbc fbfc 233b
000002c0: 66a2 b8bc 5ff3 4d3d 3168 8b3c f748 623b
000002d0: 57c8 123d 630a 15bc 0828 573d a189 c63d
000002e0: 96b3 82bc 6eea 6f3c 030b 65bd 6dc6 b43d
000002f0: 01b2 733c 08e6 a03c ba82 d63b 35a7 143c
00000300: 521b 8cbc 1866 16bd 25a3 12bd c3ae b6bc
00000310: 53a5 08bd d769 1a3c 7a76 74bd d54e 81bc
00000320: 547b c5bd 6557 a2bc 449a c2bc 2d4b 5cbd
00000330: 25b7 4c3d e7a2 5bbc 1b80 0c3d e687 a73c
00000340: 3153 bf39 a7cf 493d 4a75 773d 5303 47bd
00000350: 36a4 6ebd ef7a 86bc 0635 f93c 3f98 11bd
00000360: 1620 c2bd 4df1 8dbc 8964 2abd 4577 a4bb
00000370: a922 1ebd a423 49bd 1d40 bc3d 544c 028a
00000380: 18fa 04bd 0465 64bb 24ae e1bd d174 913d
00000390: 571d a93d 920e 633d 7128 7dbd e432 7ebd
000003a0: 2e41 86bd 5e38 66bd 9c85 bcbc 4510 ff3c
000003b0: a9bc 623c dddd 533d e061 103d 99fd 173d
000003c0: 6a57 7b3c 28a7 96bd e20b c8bd 87e7 d33c
000003d0: ac0a 623d 5eb1 1ebb 008e 153c 58dd 6fbc
000003e0: d78f 47bd 3e10 2cbd 74fe 5c3d f9cc c1bc
000003f0: f380 39bc 3cd9 603c fc4a 38bb af9b d1bc
