database/vectordb/b2f139df946bdd4793b1f14cf501df74.npy (npy, 1664 bytes, 1 tensors)

array f4 [384]
-0.044883862 0.036116663 -0.084437706 0.017519224 0.09292898 0.12949984 0.036928594 0.0529731
-0.057361443 0.057348058 -0.03754253 0.0685186 0.0008237994 -0.06066105 -0.057978977 0.06983723
-0.085304454 0.010776589 0.024035618 0.03378382 -0.050515965 -0.017662808 -0.010078267 -0.020916587
0.04474058 0.027762678 0.056260902 -0.024901155 -0.024890887 0.06956427 0.04497929 -0.07132431
0.048746385 0.005623562 0.043818377 0.055002034 0.098543115 0.09166931 -0.020010643 0.020585308
0.024059527 -0.001959596 -0.120950796 -0.027261501 0.03947479 0.0007724282 0.033010058 -0.031136943
-0.07084159 -0.022034537 -0.084935635 -0.022812605 0.07856696 -0.043936357 0.01602102 -0.031190464
0.0333607 0.054576974 0.009849016 -0.020870082 -0.002122952 -0.07450198 0.009434856 -0.048992727
0.14193323 0.00063024455 -0.018632881 -0.00026040422 -0.062406335 0.08383925 0.029554142 -0.026353622
-0.05377003 -0.0373406 -0.07600672 -0.14411701 0.007066847 0.010626197 -0.04105777 -0.0039292458
0.042608816 0.004917413 -0.026851462 -0.023799196 -0.025380867 0.015945658 -0.021663196 0.013897905
0.11668435 0.0248604 -0.04290053 -0.06924514 -0.0068696514 0.024113405 0.11088914 -0.01817901
-0.050065853 0.08229963 -0.01315115 0.027524788 -0.0044037853 -0.0053288066 -0.04147804 0.007215571
0.029158855 -0.05253694 -0.0070300936 0.02772925 -0.060051326 0.030777257 -0.052346457 -0.0033297427
-0.014500657 -0.024986664 0.16710547 -0.055010263 -0.022395577 0.0009698269 0.016648754 -0.015249789
0.06413592 0.0696831 0.02693975 0.13506427 0.043293595 0.025059942 -0.033939905 6.798761e-33
-0.05590952 0.033207994 -0.07860203 0.041199353 -0.06831447 0.026077412 -0.0021234064 0.024689285
0.030991677 0.019920377 -0.027515901 0.020541135 0.03670179 0.010178525 -0.08980691 -0.058367196
-0.03668836 -0.022692276 0.09122808 -0.07188178 -0.03944408 0.006056539 -0.025524627 -0.04626043
-0.07546587 -0.042304862 0.0013721046 -0.025197975 -0.014492043 -0.014325994 0.05424127 0.098649524
-0.089962795 0.031663228 0.09082779 -0.029802034 0.0036181614 0.021247901 -0.016204517 -0.0281792
0.013934291 0.017289156 0.025014574 -0.016124543 0.05225342 0.04719611 0.011067653 -0.030294472
0.060097903 0.0041997777 -0.03039741 0.025511788 0.0738912 -0.077477485 -0.02814414 -0.02222566
-0.0312908 0.051238485 0.013753257 -0.058330692 -0.01659056 0.026429528 -0.037328962 -0.06548908
-0.033075217 -0.020367192 -0.057945486 -0.031095376 0.017009417 0.054813236 0.0041209846 0.042836834
-0.025381964 0.02065055 -0.0037239352 0.017813096 -0.09748982 0.0692291 -0.088636614 0.013424468
-0.05466455 -0.018351575 -0.05280799 -0.014036611 -0.029892249 0.027765617 0.047185045 0.012334966
0.062005084 0.05004216 0.023744715 -0.071818426 -0.02090546 -0.050112747 -0.111169055 -8.8207524e-33
-0.061360016 -0.0396232 -0.034107823 0.11337157 -0.014492739 0.028387142 -0.06262881 0.008387034
-0.025111925 -0.034594994 0.08592899 -0.07964969 0.08154332 0.044017047 0.04132801 -0.038032986
-0.060911976 -0.057170007 -0.027891546 -0.03756067 0.027132945 0.08435908 -0.07915198 -0.040482163
-0.030029777 0.036790635 0.070833966 0.015246594 0.020202737 0.029205866 -0.018321678 0.053602934
00000000: 24d8 37bd 11ef 133d aded acbd 7a84 8f3c
00000010: 8d51 be3d 9b9b 043e 7042 173d 52fa 583d
00000020: d5f3 6abd cce5 6a3d 32c6 19bd 7b53 8c3d
00000030: 3ef4 573a b977 78bd 5d7b 6dbd d206 8f3d
00000040: 1ab4 aebd 4a90 303c 58e6 c43c e760 0a3d
00000050: d4e9 4ebd 98b1 90bc 511f 25bc 4359 abbc
00000060: e641 373d 8e6e e33c d571 663d 82fd cbbc
00000070: f9e7 cbbc b677 8e3d 343c 383d 7b12 92bd
00000080: 4aaa 473d db45 b83b e67a 333d d049 613d
00000090: f9d0 c93d 1fbd bb3d 5ced a3bc 85a2 a83c
000000a0: 7c18 c53c 916c 00bb 0db5 f7bd 8353 dfbc
000000b0: 51b0 213d c77c 4a3a 8e35 073d e712 ffbc
000000c0: 6515 91bd c681 b4bc bcf2 adbd 80e1 babc
000000d0: b7e7 a03d 9cf6 33bd 843e 833c 2583 ffbc
000000e0: 3ba5 083d 1b8c 5f3d c45d 213c bcf7 aabc
000000f0: 3921 0bbb 7e94 98bd a794 1a3c 99ac 48bd
00000100: f256 113e ff36 253a fca3 98bc dd86 88b9
00000110: c99d 7fbd eab3 ab3d 871b f23c 8de3 d7bc
00000120: f73d 5cbd 75f2 18bd 69a9 9bbd 6993 13be
00000130: 0291 e73b 8019 2e3c 312c 28bd e7c0 80bb
00000140: 9586 2e3d 4022 a13b 99f7 dbbc 88f6 c2bc
00000150: 89eb cfbc 78a0 823c 0477 b1bc 0ab4 633c
00000160: 34f8 ee3d 0aa8 cb3c 77b8 2fbd 65d0 8dbd
00000170: d01a e1bb 7a89 c53c d819 e33d 26ec 94bc
00000180: da11 4dbd b58c a83d ec77 57bc aa7b e13c
00000190: a14d 90bb 459d aebb e1e4 29bd 9970 ec3b
000001a0: 8dde ee3c f930 57bd b35c e6bb 7428 e33c
000001b0: 61f8 75bd 9620 fc3c 3d69 56bd d037 5abb
000001c0: 2a94 6dbc d5b0 ccbc b21d 2b3e 7152 61bd
000001d0: ee76 b7bc fb3b 7e3a f862 883c 40da 79bc
000001e0: b159 833d 03b6 8e3d c0b0 dc3c 4a4e 0a3e
000001f0: a054 313d 824a cd3c 9204 0bbd 6a34 0d0a
00000200: 6101 65bd 1b05 083d 1afa a0bd a7c0 283d
00000210: 75e8 8bbd 4ca0 d53c d928 0bbb 2f41 ca3c
00000220: 42e2 fd3c 0f30 a33c 0769 e1bc e245 a83c
00000230: 9e54 163d d4c3 263c afec b7bd 7112 6fbd
00000240: 8946 16bd 27e5 b9bc cad5 ba3d c136 93bd
00000250: 1e90 21bd ee75 c63b 0619 d1bc 947b 3dbd
00000260: da8d 9abd dd47 2dbd 31d8 b33a fc6b cebc
00000270: 0970 6dbc 93b7 6abc 182c 5e3d c308 ca3d
00000280: 6a3e b8bd 4db1 013d ec03 ba3d 6523 f4bc
00000290: ad1e 6d3b 1410 ae3c 56bf 84bc 11d8 e6bc
000002a0: a74c 643c fda1 8d3c 5deb cc3c 9e17 84bc
000002b0: af07 563d b550 413d 1a55 353c 1d2c f8bc
000002c0: 3829 763d 4a9e 893b fd03 f9bc 19fe d03c
000002d0: 4554 973d 84ac 9ebd 8a8e e6bc 9612 b6bc
000002e0: c82a 00bd 72df 513d 5755 613c 2aec 6ebd
000002f0: ede8 87bc bd82 d83c 41e6 18bd 241f 86bd
00000300: e179 07bd 19d9 a6bc 3f58 6dbd bbbb febc
00000310: 5557 8b3c d883 603d 5309 873b ad75 2f3d
00000320: d6ed cfbc 582b a93c 440d 74bb c5ec 913c
00000330: bea8 c7bd fdc7 8d3d 1d87 b5bd 4df2 5b3c
00000340: efe7 5fbd 0b56 96bc 314d 58bd d0f9 65bc
00000350: 97e0 f4bc b874 e33c 1b45 413d 9918 4a3c
00000360: 0bf9 7d3d 02f9 4c3d 4784 c23c 8a15 93bd
00000370: ed41 abbc 0643 4dbd 9aac e3bd 2a33 378a
00000380: a454 7bbd f04b 22bd a5b4 0bbd 5b2f e83d
00000390: f472 6dbc 278c e83c 8943 80bd c569 093c
000003a0: 86b7 cdbc 7bb3 0dbd 8afb af3d 601f a3bd
000003b0: 2f00 a73d 384b 343d 8f47 293d 7ac8 1bbd
000003c0: d67e 79bd 192b 6abd d07c e4bc 38d9 19bd
000003d0: e945 de3c 74c4 ac3d 6f1a a2bd a0d0 25bd
000003e0: 0201 f6bc c7b1 163d 6611 913d dacc 793c
000003f0: 3680 a53c 2441 ef3c 5817 96bc c08e 5b3d
