database/vectordb/b38cce566a40841b5680c04f88d30a5e.npy (npy, 1664 bytes, 1 tensors)

array f4 [384]
0	0xbda6bc91	-0.08141435
1	0xba9aecf1	-0.0011819882
2	0x3c2229a4	0.009897623
3	0xbcbbe0f0	-0.022934407
4	0x3cbc6792	0.022998605
5	0x3ce8210f	0.028336076
6	0x3c8e8571	0.017397614
7	0xbc99d1b3	-0.01877675
8	0xbca1fbb8	-0.01977335
9	0x3d2e63b2	0.042575546
10	0xbd44b344	-0.048022524
11	0xbd8961fb	-0.067081414
12	0x3cb37bd5	0.021909634
13	0x3d6789a1	0.056527738
14	0x3d6cc054	0.057800606
15	0xbb306622	-0.0026916345
16	0x3c71ebe7	0.014765716
17	0x3daeb24e	0.08530103
18	0xbd827cb2	-0.0637144
19	0x3d326d09	0.043561015
20	0x3cd7c48f	0.026338844
21	0x3d2c9490	0.042133868
22	0x3cbe78d1	0.02325097
23	0xbd006567	-0.031346705
24	0xbe055448	-0.13020432
25	0x3c0529b4	0.008127619
26	0x3d074ed6	0.03303417
27	0xbde0a07a	-0.109681085
28	0x3d008f08	0.031386405
29	0x3b99d68b	0.004694765
30	0x3dc59ce2	0.09649064
31	0xbc20fdca	-0.009826133
32	0x3d9176a0	0.07102704
33	0x3c6bf825	0.014402424
34	0xbd80688e	-0.06269942
35	0x3cd179cf	0.025570778
36	0xbd158a05	-0.03650858
37	0xbd4b9b51	-0.04970867
38	0xbc8e83fb	-0.017396918
39	0xbd8d80b9	-0.069093175
40	0xbd1362a8	-0.035982758
41	0xbd0c8337	-0.034304824
42	0x3bc2650e	0.005932457
43	0xbc4995b5	-0.012303759
44	0x3d667ba8	0.05627027
45	0x3c45794d	0.012052846
46	0xb6878226	-4.038465e-06
47	0xbd16a39a	-0.036777116
48	0xbd97b53a	-0.07407613
49	0xbd145e89	-0.03622297
50	0xbdcf2586	-0.10114579
51	0xbcb37318	-0.021905467
52	0x3d002bb0	0.031291664
53	0x3d642503	0.05569936
54	0x3c839d46	0.016066205
55	0xbc848b54	-0.016179718
56	0xb7322908	-1.061918e-05
57	0x3ca017f0	0.019542664
58	0xbcf7c92e	-0.030247297
59	0xbda9bfb8	-0.082885206
60	0x3c9f0ff9	0.019416796
61	0xbda0fe42	-0.07860996
62	0xbcdfacd5	-0.027304092
63	0xbc71d6b9	-0.0147606665
64	0xbca35f19	-0.019942807
65	0x3d386a5f	0.04502332
66	0xbc83c70f	-0.01608613
67	0x3c7eb57d	0.0155462
68	0xbd8a91a6	-0.067660615
69	0x3d25e96a	0.040505804
70	0x3c9b90ca	0.01898994
71	0x3bf971b2	0.0076124305
72	0x3cea88f1	0.028629752
73	0x3c768514	0.015046377
74	0xbc8c56da	-0.017131258
75	0x3d87aa65	0.06624297
76	0x3c685db6	0.014182499
77	0xbc61135c	-0.013737526
78	0x3ce368d4	0.027759947
79	0xbde95b5d	-0.11394379
80	0xbbdeb87a	-0.0067968937
81	0xbcd443ed	-0.025911296
82	0x3d1d2ee9	0.038374815
83	0x3de6862e	0.112560615
84	0x3d894b61	0.067038305
85	0x3b115cff	0.0022180674
86	0xbb9eecad	-0.0048499913
87	0xbd72fbe1	-0.05932224
88	0x3df34b12	0.11879553
89	0x3d8e3530	0.069437385
90	0x3cf9f971	0.03051445
91	0x3bbb0098	0.005706858
92	0x3d8dceb0	0.06924188
93	0xbca1f0e5	-0.019768188
94	0x3d6920fd	0.056916226
95	0x3d93340e	0.07187663
96	0xbd351985	-0.04421379
97	0xbdf65396	-0.120276615
98	0xbd83af8a	-0.06429966
99	0x3d9d9db7	0.07696097
100	0xbcb5518a	-0.022133607
101	0x3dacbaee	0.084340915
102	0xbd613552	-0.05498249
103	0xbd06f340	-0.032946825
104	0x3d1f9624	0.038961545
105	0xbbee3112	-0.007269033
106	0xbc282a7b	-0.010264034
107	0xbc8b93a6	-0.017038178
108	0x3c206074	0.009788621
109	0x3bbc1903	0.0057402863
110	0xbce64db5	-0.028113225
111	0x3db41ebd	0.08794925
112	0xbb887bdf	-0.004165157
113	0xbc6b4d17	-0.014361641
114	0x3e01f03e	0.12689301
115	0x3c4a59cc	0.012350511
116	0xbb0bfc25	-0.0021360007
117	0x3d2c9659	0.04213557
118	0x3d92bd94	0.071650654
119	0x3bbbb718	0.0057286136
120	0x3b5ddbbe	0.00338529
121	0x3b38cf9d	0.002819992
122	0x3d21ad16	0.03947171
123	0x3dbcde6f	0.09222113
124	0x3d559376	0.052142583
125	0xbd5bfd3d	-0.053708304
126	0xbdadc8fe	-0.08485602
127	0x09939fdc	3.5539294e-33
128	0xbcdcd6ec	-0.026957951
129	0x3c56b3e1	0.01310441
130	0x3be48f68	0.006975103
131	0xbd3c13e3	-0.045917403
132	0x3d0fd4eb	0.035115164
133	0xbcc578e1	-0.024105491
134	0x3c4d30fa	0.012523884
135	0xbbeb4789	-0.0071801585
136	0x3b622086	0.0034504249
137	0x3cb5d656	0.02219693
138	0xbccb796c	-0.024838172
139	0xbbd4cab2	-0.0064938897
140	0xbcf11c86	-0.029432546
141	0x3e00781f	0.12545823
142	0x3c74401d	0.014907864
143	0x3cc567b5	0.024097303
144	0xbc634ceb	-0.013873319
145	0xbd026d34	-0.031842425
146	0xbcaa3008	-0.020774856
147	0xbd56b666	-0.052420042
148	0x3deed718	0.116621196
149	0x3d299993	0.041406225
150	0x3d5ff97a	0.05468128
151	0xbd665621	-0.056234483
152	0x3c3abd2c	0.011397641
153	0xbd9f9b2c	-0.077932686
154	0x3d18a7f9	0.037269566
155	0xbded8331	-0.115972884
156	0x3c856f38	0.016288385
157	0x3d0f831a	0.035037138
158	0xbd190849	-0.037361417
159	0xba8a94a3	-0.0010572862
160	0x3c2bddc7	0.010489888
161	0x3d4ecced	0.0504884
162	0xbd4c5505	-0.04988577
163	0x3b278f66	0.002556765
164	0xbdba9d3a	-0.0911202
165	0x3c90d5f4	0.017680146
166	0x3bd6e7ab	0.0065583787
167	0x3d09a2c1	0.03360248
168	0x3cad4264	0.021149822
169	0x3d836743	0.0641618
170	0x3da404db	0.080087386
171	0x3cbdd518	0.0231729
172	0x3cae3ff9	0.021270739
173	0xbd09b9ee	-0.033624582
174	0x3da51a3d	0.08061645
175	0xbd04cc41	-0.032421354
176	0xbcb8e113	-0.022568261
177	0xbc802b19	-0.01564555
178	0x3d353af4	0.044245675
179	0x3d72d45a	0.059284545
180	0x3d63a5e2	0.05557812
181	0xbd84ffc4	-0.06494096
182	0xbc912ed4	-0.017722525
183	0xbd0313e7	-0.032001402
184	0xbd0944f5	-0.03351303
185	0x3d477285	0.0486932
186	0xbdb80c23	-0.0898669
187	0xbd516801	-0.051124576
188	0x3cb25133	0.021767234
189	0xbce0c724	-0.027438708
190	0xbc598701	-0.013276816
191	0x3ccd552a	0.025065023
192	0xbd6922eb	-0.056918066
193	0xb9c1efaf	-0.00036990407
194	0xbd85f080	-0.06540012
195	0xbc5b96f9	-0.013402694
196	0x3c85b6fe	0.016322609
197	0xbd90f8ab	-0.0707868
198	0xbc29cd48	-0.010363884
199	0x3d95caad	0.07314048
200	0xbda09fac	-0.07842955
201	0xbd031838	-0.03200552
202	0xbd41e71a	-0.047339536
203	0x3b694b5d	0.0035597899
204	0x3df1f949	0.118151255
205	0xbd88f93e	-0.06688164
206	0x3dabc0cf	0.08386385
207	0xbcef81fa	-0.029236782
208	0xbd1cac64	-0.038250342
209	0x3a9c118c	0.0011907085
210	0x3d19068a	0.03735975
211	0x3bdcec80	0.00674206
212	0xbc2027a9	-0.009775081
213	0xbdd6d9ce	-0.10490762
214	0x3ad51596	0.0016257043
215	0xbacbf14f	-0.0015559586
216	0x3d4e533c	0.050372347
217	0x392bcb99	0.00016383677
218	0x3cb3eac9	0.02196254
219	0xbcf54852	-0.029941712
220	0x3c73b4c6	0.014874643
221	0x3d403015	0.046920855
222	0xbd1c89b9	-0.03821728
223	0x89e672b0	-5.5478338e-33
224	0xbd72e97e	-0.059304707
225	0xbdbfbca8	-0.09362155
226	0xbd1eee54	-0.038801506
227	0x3cfa3796	0.030544084
228	0xbc6c2fe0	-0.014415711
229	0xbc92b561	-0.017908754
230	0xbcb55c10	-0.022138625
231	0xbd68b220	-0.0568105
232	0x3c5f17b6	0.013616493
233	0xbd888ca0	-0.06667447
234	0xbd416381	-0.047214035
235	0xbd1cea50	-0.038309395
236	0x3de5a443	0.11212971
237	0x3b27d92a	0.0025611618
238	0x3dad1be7	0.084525876
239	0xbd1d3265	-0.038378138
240	0xbd13660a	-0.035985984
241	0xbbe57e12	-0.007003554
242	0x3d2cc591	0.0421806
243	0x3cac2153	0.021011984
244	0x3d94f36d	0.07272992
245	0x3df4f3aa	0.11960538
246	0xbdf62435	-0.12018625
247	0x3d58f923	0.05297197
248	0x3c69f4f5	0.014279594
249	0xbb17c4b6	-0.002315802
250	0xbd90bfd2	-0.07067837
251	0x3d4b2a7c	0.049601063
252	0x3d7dbf19	0.061949823
253	0x3d065093	0.032791685
254	0xbd991629	-0.0747493
255	0x3ccc6272	0.024949286
