database/vectordb/b3b1ea8fa62aa0f5a684e11d4b22cd9c.npy (npy, 1664 bytes, 1 tensors)

array f4 [384]
0	0xbcd0dab8	-0.025494918
1	0xbd461eea	-0.048369326
2	0x3ca519d5	0.02015392
3	0x3d24d6f2	0.04024405
4	0x3b20a3f0	0.0024511777
5	0xbcc0697f	-0.023487804
6	0x3ce7113f	0.028206466
7	0x3dd6c303	0.10486414
8	0x3d88049d	0.06641505
9	0x3cf3c9fc	0.0297594
10	0xbd7e30e6	-0.062058352
11	0x3dbb8432	0.09156074
12	0xbc9e2d60	-0.019308746
13	0xbbe71a6d	-0.0070527107
14	0x3c0f3fa4	0.0087432
15	0xbd40c82a	-0.04706589
16	0xbd4df793	-0.050284933
17	0xbc580c42	-0.013186516
18	0xbdcdf1ea	-0.10055907
19	0x3d8808d2	0.06642307
20	0xbdb48644	-0.08814672
21	0xbdc47929	-0.09593422
22	0xbd89a13c	-0.06720206
23	0xbd854f26	-0.06509237
24	0xbd0c2f61	-0.03422487
25	0xbd3e4394	-0.046451166
26	0xbd93a7e8	-0.0720976
27	0xbc4327f2	-0.011911379
28	0xbca897c6	-0.020580184
29	0xbcb81256	-0.02246968
30	0x3cb5cece	0.022193339
31	0x3cf05ab9	0.029340135
32	0xbcbf174a	-0.023326535
33	0xbd6ce1a1	-0.057832364
34	0xbd269e9d	-0.04067861
35	0x3d540a76	0.05176779
36	0xbc95c82a	-0.018283922
37	0x3d9f6fce	0.07784997
38	0xbc0810fb	-0.00830483
39	0x3d648a49	0.05579594
40	0xbd88f0e6	-0.06686573
41	0x3d083de7	0.03326216
42	0xbd0b3954	-0.03399022
43	0x3c73bbb1	0.014876292
44	0xbd150b94	-0.036387995
45	0xbd93a2cd	-0.07208786
46	0x3d64d12f	0.055863556
47	0x3c381a62	0.011236759
48	0xbcdc8eb0	-0.026923507
49	0xbd7b3cf0	-0.06133741
50	0xbc668db0	-0.014071867
51	0x3d4b7394	0.04967077
52	0xbc565a62	-0.013083072
53	0xbda2ee80	-0.079556465
54	0x3c5dd320	0.013539106
55	0x3d02146c	0.031757757
56	0xbd26cb21	-0.040721063
57	0x3d34f59f	0.044179555
58	0x3d190403	0.03735734
59	0x3d5fe735	0.054663856
60	0xbd2314de	-0.039814822
61	0xbd8c9a21	-0.06865335
62	0x3cca9a60	0.024731815
63	0xbd58890d	-0.052865077
64	0xbbae4bad	-0.00531908
65	0xbc67c26a	-0.014145473
66	0x3d91b02c	0.0711368
67	0x3d5a5850	0.053306878
68	0xbcd210e9	-0.025642829
69	0x3de6c913	0.112688206
70	0x3da84d31	0.08217848
71	0x3cacc4b6	0.021089893
72	0xbdca3785	-0.09873871
73	0xbd40be25	-0.047056336
74	0x3d278ec5	0.04090764
75	0xbb56c58f	-0.0032771563
76	0x3d858765	0.06519965
77	0x3ccf40c1	0.025299432
78	0x3d24a2a1	0.040194158
79	0x3b6d2566	0.0036185621
80	0x3d4bff6f	0.049804147
81	0xbd3c954a	-0.04604081
82	0xbbb0d1f3	-0.0053961216
83	0x3da5a981	0.08088971
84	0x3cd250b0	0.02567324
85	0xbcb2a2b7	-0.021806104
86	0x3d84f770	0.064925075
87	0xbb2fff4c	-0.002685505
88	0x3d83782a	0.06419404
89	0x3c968c67	0.018377496
90	0x3cd45260	0.025918186
91	0xbd99b746	-0.0750566
92	0xbdadc964	-0.08485678
93	0xbc9b3423	-0.01894576
94	0x3d57f8da	0.052727558
95	0x3d44533b	0.047930937
96	0xbdbc4f2f	-0.091947906
97	0xbd8db1aa	-0.06918652
98	0xbc8eed18	-0.01744704
99	0xbc1bbfe8	-0.009506203
100	0x3d6756b2	0.056479163
101	0xbd418e38	-0.04725477
102	0x3bc391d7	0.005968313
103	0xbc63ccd2	-0.013903813
104	0xba932fdf	-0.0011229477
105	0xbd9bb58b	-0.07602986
106	0xbd0278c5	-0.031853456
107	0x3d01bc8b	0.03167395
108	0x3d8cd5a5	0.06876687
109	0x3cc30d3f	0.023810027
110	0xbd132dbe	-0.035932295
111	0x3d22e507	0.0397692
112	0xbcb344fa	-0.021883477
113	0xbc9968d4	-0.018726744
114	0xbd8499fa	-0.06474681
115	0xbd2a3dfa	-0.04156301
116	0xbb576463	-0.0032866232
117	0xbdc1282e	-0.09431492
118	0xbd98ff05	-0.07470516
119	0x3ca359b3	0.019940233
120	0x3c110797	0.008851907
121	0x3d654ac8	0.05597952
122	0xbd43eee1	-0.047835235
123	0xbd25477d	-0.04035138
124	0xbd9f69bf	-0.07783841
125	0x3dbe72f5	0.0929927
126	0xbcd064c1	-0.025438668
127	0x09a3fe44	3.9479933e-33
128	0xbd21c0fb	-0.03949068
129	0xbd13d4c0	-0.036091566
130	0xbbf8cf8f	-0.0075931023
131	0xbc81814c	-0.015808724
132	0x3c3b390a	0.011427173
133	0xbc5c2ef5	-0.01343893
134	0xbd398c60	-0.045299888
135	0x3c4fc1be	0.012680469
136	0xbcd259e5	-0.02567763
137	0x3db7ce6f	0.08974921
138	0xbd9be49c	-0.07611963
139	0x3ba92287	0.0051615867
140	0xbd306505	-0.04306509
141	0xbb815024	-0.003946321
142	0x3d84fe4f	0.06493818
143	0xbbce4df0	-0.006295912
144	0xbd70469c	-0.05866109
145	0x3b53deae	0.0032328772
146	0x3dbb5f8f	0.09149086
147	0xbc43d5cd	-0.01195283
148	0x3d2992dd	0.041399825
149	0x3d532b46	0.05155494
150	0x3bd9ab92	0.006642767
151	0xbcdfe265	-0.027329633
152	0x3ca510ee	0.020149674
153	0xbd5c3920	-0.053765416
154	0xbcfe8757	-0.031070394
155	0xbca9d2ac	-0.020730339
156	0x3d92aed8	0.07162255
157	0xbcc1d21d	-0.02365976
158	0xbd885746	-0.06657271
159	0x3d04934c	0.032367036
160	0xbd20dd30	-0.03927344
161	0xbb806742	-0.0039185593
162	0x3d95c430	0.073128104
163	0x3bf312b3	0.0074180006
164	0xbba719a5	-0.0050994926
165	0xbc5e1115	-0.013553877
166	0xbb93415f	-0.004493877
167	0x3ce233eb	0.027612647
168	0xbd04f0fd	-0.032456387
169	0x3d18f9c3	0.037347566
170	0xbcb43050	-0.021995693
171	0x3d7c3d73	0.06158204
172	0xbc56f682	-0.0131202955
173	0x3d6af5ec	0.057363436
174	0xbbc400b2	-0.005981528
175	0x3b4d8976	0.003136245
176	0xbdd18694	-0.10230747
177	0xbb8e46a4	-0.004341917
178	0xbd699147	-0.057023313
179	0x3da2996c	0.07939419
180	0x3ba45f26	0.0050162254
181	0x3d09719c	0.033555612
182	0xbc2f6593	-0.0107053695
183	0x3c3f389b	0.011671211
184	0xbcc133bf	-0.023584245
185	0xbd960634	-0.07325402
186	0x3c9299de	0.017895635
187	0x3dd8918d	0.105746366
188	0x3cbfdde9	0.023421245
189	0x3cfb2867	0.030658914
190	0x3ca928d8	0.020649359
191	0x3c824525	0.015902111
192	0xbdde9688	-0.10868555
193	0x3d8ac69d	0.06776164
194	0x3d0b6d07	0.034039523
195	0xbca3890e	-0.019962814
196	0xbda2e0ae	-0.079530105
197	0xbd2a3d32	-0.041562267
198	0xbd04951d	-0.032368768
199	0x3d9b339d	0.07578204
200	0x3c36ed27	0.01116494
201	0xbdf87d04	-0.1213322
202	0xbc78af25	-0.015178476
203	0xbc97084c	-0.018436573
204	0xbc7d353b	-0.015454586
205	0x3d450bcd	0.048106957
206	0x3d7bb331	0.061450187
207	0x3d120f12	0.035658903
208	0xb879a8ca	-5.9523423e-05
209	0xbdae9b25	-0.08525685
210	0x3d49fbaa	0.04931227
211	0xbce8703f	-0.028373836
212	0x3cd80987	0.02637173
213	0xbd6399a8	-0.05556646
214	0xbd2af15e	-0.041734092
215	0xbdb87c86	-0.09008126
216	0x3c4d4435	0.012528469
217	0xbd8ddac6	-0.06926493
218	0xbd337bf1	-0.04381937
219	0x3c238cdb	0.009982313
220	0xbc110c08	-0.008852966
221	0xbc93b50b	-0.018030664
222	0x3d058585	0.032598037
223	0x8a28eaab	-8.133042e-33
224	0xbdc481a4	-0.095950395
225	0xbdbbea68	-0.09175569
226	0x3ce5aa5b	0.028035333
227	0x3d08ba5b	0.033380847
228	0xbaf17396	-0.0018421288
229	0x3d487a10	0.048944533
230	0xbd073bd1	-0.03301603
231	0xbd5e4397	-0.054263677
232	0x3c96dc34	0.018415548
233	0xbd07b8f2	-0.033135362
234	0xbdc26136	-0.09491198
235	0x3ddc8272	0.10767068
236	0x3c1e3525	0.009656225
237	0xbccdce4f	-0.02512279
238	0xbd2462a7	-0.040133145
239	0xbdb42dfc	-0.08797833
240	0x3c391bc1	0.011298121
241	0xbcb85fbd	-0.02250659
242	0x3d872c9c	0.066003054
243	0xbd6c3d53	-0.05767567
244	0x3a7ebd76	0.0009717563
245	0x3d1cbdef	0.038267072
246	0xbdac9798	-0.08427352
247	0x3def777b	0.11692711
248	0x3cc73876	0.024318915
249	0x3cc214ce	0.023691561
250	0xbd76b794	-0.060233667
251	0xbd21c209	-0.039491687
252	0x3d945930	0.07243574
253	0x3d284b96	0.04108771
254	0x3cf5ab6a	0.029988963
255	0x3cecd2f2	0.02890918
