database/vectordb/b3c53a009ff467a4d7b337a6513527f2.npy (npy, 1664 bytes, 1 tensors)

array f4 [384]
00000000: 19a2 3d3c 564d 543c 5cdd bc3b 8b90 c7bc
00000010: 8ee9 303d 7612 ae3d f01b d93a 8692 813d
00000020: 3b8e 693d bf42 7f3d 8481 593d 28c4 483d
00000030: 7494 11bd 97ca 8dbc c82e 5b3d b75b 153d
00000040: 7648 463d f1eb 5cbc 3efd 97bc 49ed 983c
00000050: 060f 973d df87 3fbd 2b73 8a3c 2d20 0a3c
00000060: aa2b 283c fbee b6bc b7a1 e3bb 928a 52bd
00000070: 637d 8c3a aa08 3f3d 0eaf b7bd 3e4c 103d
00000080: 9963 16bc 1279 17bc a403 993d 61bf 8c3d
00000090: 5deb a23d dd14 623d 22ca 6f3c 3663 37bc
000000a0: 92e2 9cbd ce7d d0bd e31d 60bd bcfc 733a
000000b0: c579 f43c ee11 9f3c fb90 263d 2b1f 95bc
000000c0: 5dc8 aabd 563e d3bb 81c8 e6bd 9b98 aebc
000000d0: 0154 81bc e5bd cdbd ec5e a63c 7230 053b
000000e0: d068 1e3d 8d72 1e3a 1204 8cbc 9566 c0bd
000000f0: c113 fcbc 1175 84bd aced 07bd 6e4f b53d
00000100: b70b 7e3d 4e13 0dbd 387d 4dbc 5c5d 143d
00000110: 72f3 efbd e971 f23c 8a6e aa3c ae8c 24bd
00000120: 7342 1f3c afaa aabc bbad edbb 1f0c 7ebd
00000130: 8c71 76bb f18c a13d 2c48 9e3c ec81 cdbd
00000140: 3aa2 603d 7caf 743c 5470 57bd 3166 7b3d
00000150: 233a 0cbe 0d4f 1ebc bdce e4bc 78d4 43bd
00000160: 8556 8e3d 7c93 0abd be29 96bb f5d7 6ebd
00000170: ce99 de3c 24cc 9d3c 8d12 eb3d ff79 e63c
00000180: 9c0d b8bc 3c79 5c3d 794d 273d e561 393d
00000190: 3c4e df3c 8425 db3c 7b87 07bd c525 39bc
000001a0: cb13 333c e712 c1bd b2c2 6cbd 2ab8 a9bd
000001b0: 63f6 f63c 1c0d 62bc 10e2 84bd 12c7 1cbd
000001c0: e978 25bd 0da0 ad3d b2f8 5c3d 159f c1bc
000001d0: 602a 98bc 717c 08bd ee6a 7c3c cfbd bbbc
000001e0: 803c 7d3d eb71 3d3d f42c 7dbd e1a4 263d
000001f0: 2d91 56bd 3c4c 403d a6bb a33c b3b3 a407
00000200: 0b5a 033c f252 253d b405 a9bc 2863 4c3d
00000210: 794e 62bd d2fa 7b3b d2a0 9fbc a6af 60b9
00000220: 9d38 953c 46fc 9bbc d5df a63c cc36 643d
00000230: a0da 7bbc 8c62 3d3d aca1 37bc c63f 2dbd
00000240: 66a7 22bd f876 273c b2f7 0dbc 88c2 32bb
00000250: 46b5 b7bc a26f 293d 7845 af3c 9f43 9cbd
00000260: 5feb 52bd ab44 513b 8f89 14bd f778 9fbd
00000270: f253 b0bb 4f5d 783b 14a3 333d c77e b23d
00000280: 16b6 c0bc 8c98 61bc a5d1 34bd cd62 08be
00000290: 21b2 fbbc f0db 70bd 2283 e53c bd51 e23b
000002a0: aba5 39bd 7f80 483c 4b44 013c 99d0 dcbc
000002b0: 0319 883d 4d08 973d a35e 4c3d 4ed0 b33d
000002c0: 94e5 06bd 0837 093c e208 bebc 516e c639
000002d0: e582 143c e95f f6bd b740 693d 31b6 5bbc
000002e0: 8fa3 93bd 2bd0 9dbc 7fdf abbd 6ccf 00be
000002f0: 44c6 a13c c7bc 0c3e 11b5 a63d 5513 193d
00000300: 1c98 32bd 7fef d93d 787e bebd e7d8 733c
00000310: 6080 b63d 84d6 85ba cffe 2bbd 3308 5c3d
00000320: b7cd a9bd 0e81 d93c dee5 cf3b a3bb 013c
00000330: 53e6 c8bc 43bf aabc bed4 36bd 547b 1ebc
00000340: 689f 33bd 092f 4ab8 408d 123d c109 59bd
00000350: afdd 8a3d 18c3 c43c 06bc 0c3d c28e d1bc
00000360: a3c6 f93d ea58 90bc 8ce6 42bd 869f abbd
00000370: d102 f3bd 9fbb 0fbd 9b26 25bd afc4 d289
00000380: 3527 c5bc 0ca0 89bc defc 2bbd d7bd 6d3d
00000390: 8f2f 93bc 53a3 bdbc f8be 183c f740 9dbd
000003a0: dd91 da3d f694 19bd 3867 d3bd 4819 67bd
000003b0: d7e8 3d3d db58 9f3d d2cb f73c 69fc f4bc
000003c0: c3ac 2ebd 402d 4fbd f5fd 9bbc 0780 1b3d
000003d0: f18a e53b 014f e7bc 0b29 81bd 24ad 423d
000003e0: 7517 023d 9c66 a83c 2887 0b3d c239 21bd
000003f0: c86f b0bd 7264 22bd 1b9a 6b3b 6f75 8ebc
0.011574292 0.012957891 0.005763693 -0.024360916 0.043191485 0.08499615 0.0016564112 0.06326775
0.057020407 0.062319513 0.05310203 0.049015194 -0.035541967 -0.017308516 0.05351141 0.03646442
0.048408948 -0.013483987 -0.018553372 0.018667834 0.07375912 -0.046760436 0.01690062 0.008430523
0.010264317 -0.022330752 -0.006946768 -0.051401682 0.001071852 0.046639122 -0.08968936 0.03522896
-0.009179019 -0.009245174 0.074713975 0.0687244 0.07955048 0.055195678 0.014635595 -0.011193087
-0.07660402 -0.10180245 -0.054716002 0.0009307375 0.02984322 0.01941773 0.040665608 -0.018203339
-0.083389975 -0.00644664 -0.11268712 -0.021313002 -0.015787126 -0.10045985 0.020308934 0.0020323065
0.038674176 0.0006044291 -0.017091785 -0.09394566 -0.030771138 -0.06467641 -0.033185646 0.08853041
0.06202289 -0.03444224 -0.0125420615 0.036221847 -0.117163554 0.029595332 0.020804662 -0.040173225
0.009720433 -0.020833341 -0.0072533763 -0.06202328 -0.00376043 0.078882106 0.019321524 -0.10034546
0.05484221 0.014934417 -0.05259736 0.061376754 -0.13694052 -0.009662402 -0.027930612 -0.047810048
0.06950096 -0.03383206 -0.004582613 -0.05831142 0.02717295 0.01926238 0.11478148 0.028134344
-0.022467427 0.053826556 0.040845368 0.045259375 0.027258985 0.026751287 -0.03308819 -0.011300509
0.010930012 -0.094274335 -0.057802863 -0.0828708 0.030146783 -0.013797071 -0.064884305 -0.038275786
-0.040398512 0.08477793 0.05394811 -0.023635427 -0.018574893 -0.0333218 0.015406353 -0.022917656
0.061825275 0.04625122 -0.06181045 0.040684585 -0.052384544 0.046947703 0.019986939 2.4781595e-34
0.008017073 0.040362306 -0.020632602 0.04989925 -0.05525062 0.003844906 -0.019485865 -0.00021427739
0.018215472 -0.019041192 0.020370403 0.05571632 -0.0153719485 0.04623656 -0.011207979 -0.042297147
-0.039710425 0.010221235 -0.008665012 -0.0027276594 -0.022425305 0.041366227 0.02139543 -0.07630085
-0.051494 0.0031931798 -0.036264 -0.07786744 -0.005381101 0.0037897413 0.043856695 0.08715587
-0.023524325 -0.01376928 -0.044145245 -0.1331894 -0.030724587 -0.0588035 0.02801663 0.0069067166
-0.04532401 0.012237667 0.0078898175 -0.026954936 0.066453956 0.0737463 0.04989494 0.08779965
-0.032933787 0.008374937 -0.023197595 0.00037847695 0.009064411 -0.12030012 0.056946483 -0.013410137
-0.07208931 -0.019264301 -0.08392238 -0.12579125 0.01974786 0.13743888 0.081400044 0.037371952
-0.043602094 0.106413834 -0.09301466 0.0148832565 0.08911204 -0.0010211025 -0.04199105 0.053718757
-0.0829119 0.026550796 0.006344541 0.007918271 -0.02452389 -0.020843154 -0.04463648 -0.009672958
-0.043853194 -4.8204358e-05 0.035779238 -0.052987818 0.06780564 0.02401881 0.034359 -0.025580768
0.1219609 -0.017620523 -0.047583148 -0.08380036 -0.118657716 -0.03509104 -0.04032002 -5.074062e-33
-0.024066547 -0.01679995 -0.0419892 0.058042374 -0.017967014 -0.023149168 0.009322874 -0.07678407
0.106723525 -0.037495576 -0.10322422 -0.056420594 0.04636463 0.0778062 0.030248556 -0.029905515
-0.042645227 -0.050580263 -0.019041995 0.037963893 0.0070050885 -0.028235914 -0.063066565 0.0475284
0.03176065 0.02055674 0.034064442 -0.039361723 -0.086150706 -0.039646573 0.0035950008 -0.017389981
