database/vectordb/b414ce49037b909f71d45ee55af9abaf.npy (npy, 1664 bytes, 1 tensors)

array f4 [384]
00000000: 4eca 343c 2a39 78bd 52ff ffbc 1917 12bd
00000010: ca0a 003d cab1 9b3b 4090 523d 0aa2 2a3d
00000020: dd26 ab3d 7897 edbc 7503 a9bc 631c a23a
00000030: e7a3 b4bc a751 2fbd e3a8 ac3c 27e0 7dbd
00000040: 6c69 533b 8e9c 62bd 006e 18bd f931 8c3d
00000050: fc87 923d f1e1 88bc c265 7b3c b20d 90ba
00000060: ba49 763d b6fd cd3a e42b 553c 5b2f 13bd
00000070: 5685 25bd 1ae9 5b3d 1f8a 1dbd aa22 e73d
00000080: 1286 903c a5e6 763c 75d9 623d a0c8 6b3d
00000090: 1672 673d 619f 28bb 7418 3d3d 478b 98bc
000000a0: 2074 debd cacb 32bd 94d1 5dbd 7e85 0f3d
000000b0: aaf7 7abd 9bd7 5cbd 29f2 d6bc 97c3 5b3d
000000c0: 3b62 72bd dd17 6f3d 5043 2fbe cd74 223d
000000d0: 7da4 1a3b 27d0 c43c 459b a43b 6cd5 893c
000000e0: 31fe b23b cdf3 8c3d 0c38 a23b ea10 ebbd
000000f0: bfbb 0cbd f918 e1bd ae33 32bb 280c 2e3d
00000100: 1d52 113c 70dd 2dbc 83b9 b9bc cea1 2f3c
00000110: 304a 67bd 6fc2 633d 48ff 4b3c 033c 84bd
00000120: 12b8 17bd aba2 193c d205 833c fa9a 5a3d
00000130: a2cf 6c3c 0736 48bc 5998 a9bd 5b9c 83bd
00000140: 06a9 a73c 11ab 2a3d 3d5e 4cbd b55c abbd
00000150: 1453 aebd ed92 f4bc ce32 92bb f9e2 63bd
00000160: ab05 0e3d 7a7f 39bc 8b6c da3c 7849 c9bd
00000170: 7033 1bbd 6195 d23c 2388 0b3e ce09 6c3d
00000180: bbb1 d8bc c466 5b3c 66b5 113d 2585 0b3d
00000190: b260 8f3d 71a8 6e3d a5f9 023c e323 86bc
000001a0: 4b59 42bd 44a5 9ebd dbc6 60bd de1c cdbc
000001b0: 4071 b8bd 0a85 1cbd a90c 9ebd 9730 a23c
000001c0: cb85 2fbd d02a 3d3d 8657 533d 52a4 743d
000001d0: c95b 173d 7dc8 dbbc d992 7b3d 16f2 25bc
000001e0: c298 2b3d 7f70 c23c 107f 56bd 04d9 833c
000001f0: fd02 8cbc dc81 fdbb 9cd9 06bd b926 320a
00000200: ac17 08bd c47e 973b f7fd b6bc a411 933d
00000210: dcc5 a13c f852 f93c f59c bcbd a8c0 26bd
00000220: 8cbf 90bc 36ff 70bc 8207 c1bc 2ad9 e23d
00000230: c2ad 393d 6229 22bd e5f9 a2bc 9117 39bd
00000240: c1db a5bb 54a5 f13b a547 9d3d f6b4 9fbd
00000250: 17d8 d33c 81c4 bd3d 8378 903d 7c06 14bd
00000260: db11 2dbb 2fe2 1fbd 2af5 1dbc 5ce5 27bd
00000270: fcab bb3d 5d5e 8f3c 15c6 4abd dcb7 9e3d
00000280: 5c46 6c3d 29ab 12bd 2da9 a63c 7555 35bd
00000290: b074 95bc f2e0 e8bd 53c8 bd3c 1a67 6dbc
000002a0: 8f9a 2cbd 437d 303d f93a 203c d0c3 08bc
000002b0: 7f7f a93c 9bfa 193d 67fb aebd d2bb 57bc
000002c0: d56e acbd 9ca0 c8bc b39c 493c 1645 9a3c
000002d0: 6ab7 563d ecb9 4dbd 840f aa3c f437 abbd
000002e0: a316 b4bc c130 b9bd 6226 10bd a8fc 87bd
000002f0: 99dd e73b e9b8 923d ae4a f03d ce8c e4bd
00000300: 236a 613d e3e3 bc3d be4a 36be 3dbf 103d
00000310: 20f1 b33b 714b 663d ff58 26bd dffe b43d
00000320: b8f5 79bd 3c37 993b 8331 983d 051a ce3c
00000330: 2cc0 efbb 932f d4bc fd1a 0f3c 291e 4b3d
00000340: c747 9abd d6a3 08bc 6e26 db3b a615 b1bc
00000350: 161a 84bc 523f 8cbb 16d9 15bd 7325 32bb
00000360: 4b8b ff3d 8659 033d 3215 4f3c 4a7e dd3b
00000370: 868e 28bc ab49 d8bd 9cf2 93bd 69fb 4c8a
00000380: 0ed8 87bd 3af8 163b 7e74 e8bc 567b 0f3e
00000390: affd 83bc 28c1 583d cd64 c73b 9574 c0bc
000003a0: 73c5 2a3d cbfc 38bd 3ad0 a03b 5ced 82bd
000003b0: 3d6c e73c 98c1 1dbd ab68 483d 1703 4cbb
000003c0: 31d7 583d 4933 3f3c 788c 223c 57f5 743d
000003d0: e557 9b3d 0da0 49bb c5ea babd a087 9ebd
000003e0: a72b 37bd 534d 6d3c 7115 01bd cefa dbbc
000003f0: f304 74bd fcbe c5bc 59ae 4e3c 9ad8 013d
0.011034561 -0.06060139 -0.031249676 -0.03566656 0.03126029 0.0047514187 0.0514071 0.04165844
0.08357022 -0.02900289 -0.020631531 0.0012368079 -0.022050811 -0.04280248 0.021076625 -0.061981346
0.0032258881 -0.055325083 -0.03721428 0.06845469 0.07154843 -0.0167093 0.015344085 -0.001099041
0.060128905 0.001571587 0.013010953 -0.035933834 -0.040410362 0.0536891 -0.0384618 0.112859085
0.017642055 0.015069638 0.055383164 0.057564378 0.056505285 -0.0025729763 0.0461659 -0.0186211
-0.10861993 -0.04365138 -0.054154947 0.035039417 -0.061271347 -0.053916555 -0.026238518 0.053653326
-0.05917571 0.058372367 -0.17115521 0.03966217 0.0023596578 0.024025036 0.0050233924 0.0168254
0.005462431 0.06882439 0.004950529 -0.114778355 -0.034358736 -0.10991091 -0.0027191448 0.04249206
0.008869675 -0.010611877 -0.022671467 0.01071973 -0.056467235 0.05560535 0.0124510005 -0.06456759
-0.037040778 0.009377162 0.015993986 0.053370453 0.0144538 -0.012219912 -0.08281011 -0.06426307
0.020466339 0.041667048 -0.04989456 -0.08367292 -0.0851194 -0.029855216 -0.004461623 -0.05563638
0.034673374 -0.011321897 0.026663085 -0.09828466 -0.03789085 0.025705995 0.13626151 0.057626538
-0.026451936 0.0133912 0.035573386 0.034062523 0.07000865 0.058266107 0.00799409 -0.016374534
-0.047448438 -0.07746366 -0.054877143 -0.025038179 -0.09005976 -0.038212813 -0.077172585 0.01979856
-0.042852204 0.046183407 0.05159714 0.05972702 0.036952768 -0.026828999 0.06141934 -0.010128519
0.041893728 0.023735283 -0.05236727 0.016094692 -0.017091269 -0.0077364277 -0.032922372 8.577671e-33
-0.0332257 0.004623266 -0.022337897 0.07181099 0.019747667 0.03043507 -0.09209625 -0.040711075
-0.017669462 -0.0147092845 -0.02356315 0.11076577 0.045331724 -0.039590247 -0.01989455 -0.04518849
-0.005061597 0.007374445 0.07679681 -0.077981874 0.025859876 0.09265996 0.07054236 -0.036138996
-0.0026408348 -0.039034065 -0.009640971 -0.04099022 0.09163663 0.01750105 -0.049505312 0.07749912
0.057684287 -0.035807762 0.020344341 -0.04427095 -0.018244117 -0.1137103 0.023166811 -0.014489913
-0.042139586 0.04308821 0.009779685 -0.008347467 0.020690678 0.03759251 -0.08544045 -0.013167338
-0.08419577 -0.024490647 0.012305426 0.01883177 0.05242101 -0.050226137 0.020759352 -0.083602816
-0.02198345 -0.09042502 -0.035192855 -0.06639987 0.007075977 0.07164175 0.11732994 -0.11159669
0.05503286 0.092231534 -0.1780195 0.03533863 0.005491391 0.05622429 -0.040612217 0.08837675
-0.06102535 0.004675774 0.074313186 0.025158891 -0.00731661 -0.025901591 0.008734462 0.04958931
-0.07533222 -0.008339843 0.006687931 -0.021616768 -0.01612572 -0.0042800093 -0.036583982 -0.0027182966
0.1247774 0.032067798 0.012639331 0.0067594396 -0.0102878865 -0.10560926 -0.072240084 -9.869528e-33
-0.06633006 0.0023036138 -0.02837586 0.14011893 -0.016112177 0.052918583 0.0060850144 -0.02349309
0.04169221 -0.045162957 0.004907635 -0.06392929 0.028249854 -0.038514704 0.048927944 -0.0031129771
0.052939598 0.011669942 0.009921186 0.059804287 0.07585124 -0.0030765564 -0.0912681 -0.07740712
-0.044719364 0.014483768 -0.03151459 -0.026852991 -0.059575032 -0.02413892 0.01261481 0.031700708
