database/vectordb/b41b774fdc3b553457bd939c65865014.npy (npy, 1664 bytes, 1 tensors)

array f4 [384]
-0.0061196545 -0.02262355 0.0024807495 0.0028685322 0.08546677 0.03837771 0.016156934 0.025369659
0.04670318 0.028048575 0.0020087806 -0.0067709633 -0.018643985 -0.033166163 0.024025097 -0.06834153
0.05256538 -0.035348378 -0.07117957 0.028795516 -0.05752557 -0.094035015 -0.012193438 -0.019095493
-0.079054505 -0.06750712 0.043902136 -0.015461745 0.010884878 -0.094163395 0.00919044 0.10640596
0.11674276 0.014082731 0.016917367 0.055479776 -0.019494563 -0.00926691 0.056722224 0.042564306
0.0008031763 -0.037661582 -0.089001134 -0.038541194 -0.03860025 -0.045659523 0.039901163 -0.0076318774
-0.042253703 0.02113868 -0.09288888 0.03777028 0.0016466492 -0.035136037 0.005448207 -0.026245814
-0.009232577 -0.01316515 0.017996399 -0.0023671796 0.069624744 -0.058529217 -0.025069086 -0.017611532
0.107419 -0.047550894 -0.061706565 0.006699814 -0.09531827 0.019818062 0.08325067 -0.03817313
-0.19152954 0.018692426 0.022408696 0.0012985541 0.0075918203 0.03403504 0.023831815 -0.021437904
0.013323184 0.0055586714 -0.049752925 -0.04396905 -0.022247205 -0.054877702 -0.0015351654 -0.018051354
0.14316213 0.05416318 -0.004597311 -0.026315503 -0.08926638 0.008929093 0.027990557 0.07225337
-0.04975869 -0.06066086 0.10948785 0.034640294 0.049319934 0.032258622 0.030308304 -0.011933771
-0.04363622 -0.12531428 -0.0059410124 0.023974601 0.06844409 0.0057915854 -0.027005719 0.031575643
0.021844001 0.08016096 -0.047056828 -0.06287602 -0.121698685 0.060129743 -0.051282015 -0.0012967931
0.102599725 0.06667231 0.014826589 -0.006042667 0.007314968 0.039033115 -0.0017700711 6.4062025e-33
-0.069188125 -0.084608555 0.006116555 0.016250674 -0.03583266 0.03871821 -0.06609848 -0.015055135
0.0663324 -0.05872362 -0.0843034 0.067351885 0.026924143 0.05715119 0.033480078 0.0076039024
-0.047744565 0.039729923 0.046566356 -0.048414722 0.034987308 0.00821877 0.011329521 -0.08500647
-0.019437434 -0.05037218 -0.0014734692 0.04270165 -0.022667201 0.019408856 0.07065793 -0.010021962
-0.07518621 0.0077952365 -0.03165479 0.03454274 -0.07327642 -0.026031433 -0.025424313 -0.01952412
-0.12376492 0.03847393 -0.03978572 0.072430424 -0.017181443 -0.039749447 0.018396065 -0.00022571241
-0.07961321 -0.0023160465 0.011691743 -0.0043576206 0.08528496 -0.08571767 -0.016642444 -0.015445387
-0.060128745 0.00856991 -0.09188391 -0.030988643 0.036870714 0.034669217 -0.046944138 0.0858276
-0.030927991 0.11657755 0.061911173 0.008439979 0.002204307 -0.015661899 0.09323297 -0.0025588842
-0.01895876 -0.04657662 0.03074663 -0.046999972 -0.015928272 0.058380805 0.032684658 -0.03907252
-0.044270482 -0.03777946 -0.028770767 -0.0184083 -0.06815101 0.049975548 0.06095496 -0.052495584
0.0601678 0.06314644 0.014939083 0.012417914 -0.022307679 0.076776266 0.0689685 -8.6876526e-33
-0.028238596 -0.0472888 0.040586293 -0.038012225 -0.040012095 0.010829638 -0.043030184 -0.023592463
-0.09071672 -0.07012514 -0.06192745 0.032053903 0.046613473 0.056251317 -0.08769512 -0.053378746
0.16077644 0.057240777 -0.002465232 -0.040347893 0.048361097 0.025791537 -0.041996118 -0.026616372
-0.023858406 0.054239117 -0.074981235 0.029736554 -0.06653068 -0.039021492 -0.0013363458 0.06791147
00000000: 6287 c8bb 0655 b9bc 1294 223b fcfd 3b3b
00000010: 3409 af3d f231 1d3d 8c5b 843c 08d4 cf3c
00000020: d54b 3f3d 20c6 e53c bfa5 033b f5de ddbb
00000030: 45bb 98bc 3ed9 07bd 48d0 c43c a5f6 8bbd
00000040: cc4e 573d 76c9 10bd 98c6 91bd 93e4 eb3c
00000050: ef9f 6bbd 6e95 c0bd fcc6 47bc 276e 9cbc
00000060: 54e7 a1bd 2c41 8abd bad2 333d 4253 7dbc
00000070: 7d56 323c bdd8 c0bd 8093 163c 5eeb d93d
00000080: d416 ef3d 41bb 663c 4a96 8a3c c33e 633d
00000090: 10b3 9fbc 3dd4 17bc 9055 683d e957 2e3d
000000a0: 408c 523a 0843 1abd 3a46 b6bd 5fdd 1dbd
000000b0: 4c1b 1ebd 7b05 3bbd 676f 233d d414 fabb
000000c0: 3812 2dbd 062b ad3c 863c bebd 02b5 1a3d
000000d0: 61d4 d73a ceea 0fbd df86 b23b 7601 d7bc
000000e0: 3c44 17bc a4b2 57bc 2f6d 933c af22 1bbb
000000f0: 6b97 8e3d 55bc 6fbd af5d cdbc 0f46 90bc
00000100: 7efe db3d bac4 42bd 06c0 7cbd 1d8a db3b
00000110: 3a36 c3bd 7d59 a23c 547f aa3d 6e5b 1cbd
00000120: 5220 44be dc20 993c 7192 b73c 3f34 aa3a
00000130: cec4 f83b 5368 0b3d f03a c33c 8b9e afbc
00000140: 7c49 5a3c 8425 b63b b9c9 4bbd e418 34bd
00000150: c53f b6bc 71c7 60bd 9a37 c9ba 6fe0 93bc
00000160: 1899 123e 36da 5d3d 0aa5 96bb 9c93 d7bc
00000170: 4bd1 b6bd 554b 123c 744c e53c 93f9 933d
00000180: c5cf 4bbd 8677 78bd 2a3b e03d fbe2 0d3d
00000190: b303 4a3d 9e21 043d 1f49 f83c dd85 43bc
000001a0: e5bb 32bd 6352 00be d3ac c2bb 6266 c43c
000001b0: 6a2c 8c3d 57c7 bd3b 193b ddbc 7655 013d
000001c0: 31f2 b23c 6e2b a43d a9be 40bd 25c5 80bd
000001d0: 293d f9bd 9b4a 763d 170d 52bd 28f9 a9ba
000001e0: ce1f d23d 7e8b 883d 39eb 723c 9101 c6bb
000001f0: 66b2 ef3b 30e1 1f3d bb01 e8ba 370d 050a
00000200: 81b2 8dbd 4047 adbd 626d c83b 2220 853c
00000210: 44c5 12bd fc96 1e3d a45e 87bd d0a9 76bc
00000220: 48d9 873d 2e88 70bd 43a7 acbd c9ef 893d
00000230: 0590 dc3c 5e17 6a3d 6822 093d 282a f93b
00000240: ce8f 43bd d8bb 223d 5dbc 3e3d 844e 46bd
00000250: da4e 0f3d 05a8 063c 759f 393c df17 aebd
00000260: 413b 9fbc 0f53 4ebd 6c21 c1ba ede7 2e3d
00000270: 91b0 b9bc 52ff 9e3c 1bb5 903d 2833 24bc
00000280: 3afb 99bd 2f6f ff3b 74a8 01bd b07c 0d3d
00000290: f311 96bd df3f d5bc a646 d0bc 0cf1 9fbc
000002a0: 7678 fdbd d796 1d3d 5af6 22bd 6756 943d
000002b0: 19c0 8cbc 51d0 22bd 58b3 963c 37ad 6cb9
000002c0: 400c a3bd d0c8 17bb b98e 3f3c 5fca 8ebb
000002d0: e2a9 ae3d bf8c afbd bc55 88bc a60e 7dbc
000002e0: 8f49 76bd cf68 0c3c a22d bcbd e5db fdbc
000002f0: bf05 173d 4f01 0e3d 7f48 40bd 61c6 af3d
00000300: b35c fdbc 36c0 ee3d 9296 7d3d d647 0a3c
00000310: 2276 103b 624d 80bc edf0 be3d f4b2 27bb
00000320: 674f 9bbc 20c7 3ebd 5be0 fb3c 0b83 40bd
00000330: 027c 82bc b620 6f3d 59e0 053d 820a 20bd
00000340: f754 35bd a3be 1abd acb0 ebbc 01cd 96bc
00000350: c292 8bbd 29b3 4c3d e8ab 793d 9c05 57bd
00000360: 8372 763d ec52 813d 0ec3 743c 8274 4b3c
00000370: 98be b6bc e03c 9d3d 5b3f 8d3d 7c6f 348a
00000380: a154 e7bc e7b1 41bd d03d 263d b5b2 1bbd
00000390: b9e3 23bd cb6e 313c 6b40 30bd fb44 c1bc
000003a0: b0c9 b9bd c59d 8fbd a3a7 7dbd f44a 033d
000003b0: c5ed 3e3d c867 663d 8099 b3bd aca3 5abd
000003c0: 94a2 243e 4e75 6a3d bb8f 21bb d543 25bd
000003d0: 4916 463d c648 d33c 1f04 2cbd 940a dabc
000003e0: b472 c3bc d629 5e3d c38f 99bd 139a f33c
000003f0: 3d41 88bd 00d5 1fbd 5328 afba 2b15 8b3d
