database/vectordb/b4b418468ecf78579a79b149ab0d2f53.npy (npy, 1664 bytes, 1 tensors)

array f4 [384]
0	0xbd122165	-0.03567638
1	0x3cf630ff	0.03005266
2	0xbc8fcd4d	-0.01755395
3	0xbbe66a0a	-0.007031684
4	0x3d41502c	0.0471956
5	0x3d021f1e	0.031767957
6	0x3d50eab8	0.051005095
7	0x3a9464dd	0.0011321564
8	0x3ccc4030	0.02493295
9	0xb9c00ba3	-0.00036629764
10	0x3c41c7f6	0.01182746
11	0xbd6cbdb6	-0.05779811
12	0xbcd3a402	-0.025835041
13	0x3caac0ba	0.020843852
14	0xbb6b6b1d	-0.0035921999
15	0xba6fe5ff	-0.00091513986
16	0x3ce21e48	0.02760233
17	0x3c9fe29e	0.01951724
18	0xbdab4893	-0.08363452
19	0x3c3bf22f	0.011471315
20	0xbd30b73b	-0.043143492
21	0x3c71054b	0.014710735
22	0x3c8f827e	0.017518278
23	0x3d2af68b	0.041739028
24	0xbe010115	-0.12598069
25	0xbd8c2923	-0.06843784
26	0x3da011c1	0.07815886
27	0xbd68d576	-0.056844197
28	0xbd048c25	-0.032360215
29	0xbdc30640	-0.095226765
30	0x3dc0c57e	0.09412669
31	0xbdb2dec8	-0.087338984
32	0x3d8f5db3	0.070002936
33	0x3d039b0a	0.03213028
34	0xbd617d0a	-0.055050887
35	0x3d64abd3	0.055827927
36	0x3cb78307	0.022401346
37	0xbcce2dd3	-0.025168335
38	0x3d5f8400	0.054569244
39	0xbd586733	-0.052832793
40	0xbd26ad23	-0.04069246
41	0xbdec22df	-0.11530089
42	0xbcb151ae	-0.021645393
43	0xbcad58bf	-0.021160481
44	0x3d6a7258	0.057237953
45	0x3ccccf6c	0.02500125
46	0x3c1b14ee	0.009465439
47	0x3c3e2f87	0.011608011
48	0x3d06ebe0	0.03293979
49	0xbd7f81bf	-0.062379595
50	0xbd996e76	-0.07491772
51	0x3d4bf124	0.049790516
52	0xbd69550b	-0.05696587
53	0x3cbd0d51	0.023077639
54	0x3b2ea378	0.0026647728
55	0x3c030663	0.007997128
56	0x3cd26187	0.02568127
57	0xbd2f2285	-0.04275753
58	0xbc3d9272	-0.01157056
59	0x3d29dced	0.041470457
60	0x3da14987	0.07875352
61	0xbc3769de	-0.011194674
62	0x3d93a106	0.07208447
63	0x3d12e86c	0.035866186
64	0x3c4efa14	0.012632865
65	0x3df2de12	0.11858763
66	0xbd0b5b95	-0.034022886
67	0x3c06d294	0.008228917
68	0x3c9d8dda	0.01923268
69	0x3d176791	0.036964003
70	0x3d6a5feb	0.05722038
71	0xbbd2204b	-0.006412541
72	0x3c7aa070	0.01529704
73	0xbbfa5fa4	-0.007640796
74	0x3daa90b7	0.083283834
75	0xbd03afa1	-0.032149915
76	0xbc0c5ab7	-0.00856655
77	0xbca07284	-0.019585855
78	0x3d2b14f8	0.041768044
79	0x3bc4a29d	0.0060008303
80	0x3a57ca94	0.00082317856
81	0x3defe2a5	0.11713151
82	0x3d4780cc	0.048706815
83	0x3d5ed56a	0.054402746
84	0xbd9057d0	-0.07047999
85	0x3cc95881	0.024578335
86	0xbc0414bd	-0.008061585
87	0x3c55ae24	0.013042007
88	0x3b01d82c	0.0019812686
89	0xbcbabebf	-0.022796033
90	0xbd1bc381	-0.038028244
91	0xbd560853	-0.052254032
92	0x3d916f1f	0.07101273
93	0xbd9eb430	-0.07749212
94	0x3dd3de97	0.1034519
95	0xbd18825b	-0.03723369
96	0xbca345c8	-0.019930735
97	0xbd821db1	-0.063533194
98	0xbd6e9079	-0.05824325
99	0xbd0dddc0	-0.034635305
100	0xbd1dc678	-0.038519353
101	0xbcdf5996	-0.027264398
102	0xbc47e842	-0.012201371
103	0x3d0e2219	0.034700487
104	0xbc0da286	-0.008644706
105	0xbd1f8df0	-0.03895372
106	0xbc9e2713	-0.019305741
107	0xbd6ac316	-0.057314955
108	0x3c04efa2	0.008113774
109	0x3d0732a4	0.03300728
110	0xbc364730	-0.011125371
111	0xbc8d595e	-0.017254528
112	0xbdb85fa6	-0.090026185
113	0x3cb4f2b9	0.022088395
114	0x3dddedf8	0.108364046
115	0x3cfdc4df	0.030977665
116	0x3bdf71ee	0.0068190014
117	0x3d2f4cb1	0.042797748
118	0x3daccbaf	0.08437287
119	0xbd6106ac	-0.054938003
120	0xbc4fce31	-0.012683437
121	0xbd2e9be6	-0.042629145
122	0x3da1382c	0.07872042
123	0x3d743e69	0.05962983
124	0x3d3d6f01	0.04624844
125	0xb9b10a7e	-0.00033767888
126	0xbdf52ad7	-0.11971062
127	0x09db3a2b	5.2777033e-33
128	0xbd88bf72	-0.0667714
129	0x3da803cf	0.082038514
130	0x3d40defa	0.047087647
131	0x3ac6c5f8	0.00151652
132	0xbd71cf99	-0.05903587
133	0xbdb375cf	-0.087627046
134	0xbd1b6d2d	-0.037945915
135	0xbc7e289b	-0.015512611
136	0x3c00f98f	0.007871999
137	0x3dac215f	0.084048025
138	0xbb73a637	-0.003717793
139	0x3da4881a	0.08033772
140	0x3cd247d1	0.02566901
141	0x3c059620	0.008153468
142	0xbd49dd43	-0.049283277
143	0x3d2a9de5	0.041654486
144	0xbda83f10	-0.08215153
145	0xbcb12fd1	-0.021629246
146	0x3ca067c7	0.019580735
147	0x3c942ba0	0.018087208
148	0x3deb106b	0.11477741
149	0x3c83d83c	0.01609432
150	0xbcd31899	-0.025768565
151	0xbb1fb484	-0.002436907
152	0xbc34b441	-0.011029304
153	0xbcee3530	-0.029078096
154	0x3a910cfe	0.0011066494
155	0xbd9b51e3	-0.07583978
156	0x3c610b7c	0.013735648
157	0x3c9a8510	0.018862277
158	0xbc52b7f5	-0.012861242
159	0x3cd648d3	0.026157772
160	0x3bedebcb	0.0072607747
161	0x3d345b99	0.044032667
162	0xbc800766	-0.015628528
163	0x3d28cd0b	0.04121117
164	0xbd6ca39e	-0.057773225
165	0xbb591b48	-0.0033127833
166	0x3d34b06b	0.044113558
167	0xbd4ddebf	-0.050261255
168	0xba6b4f4b	-0.0008976354
169	0x3d912c09	0.07088477
170	0x3b30ebbb	0.0026995975
171	0x3d076173	0.03305192
172	0x3b6b2813	0.003588204
173	0xbb2ef9c9	-0.0026699177
174	0x3d067e48	0.032835275
175	0xbced7d3f	-0.028990386
176	0xbd8d6dce	-0.06905709
177	0x3c69a0c2	0.014259519
178	0xbcce1516	-0.025156539
179	0x3d90bdd2	0.07067455
180	0x3cec8227	0.028870655
181	0xbdb1df68	-0.086851895
182	0xbd97b632	-0.07407798
183	0xbd95f7ef	-0.0732268
184	0xbd992183	-0.07477095
185	0x3d056041	0.032562498
186	0xbc33936c	-0.010960441
187	0xbd4a2a43	-0.04935671
188	0xbb32b5fc	-0.0027269116
189	0xbc75e9b8	-0.015009336
190	0xbd55e8f7	-0.052224126
191	0x3d8ca175	0.06866733
192	0x3d6f84d8	0.0584763
193	0xbca77fa9	-0.020446615
194	0xbbbe2ae5	-0.0058034533
195	0xbdbff33d	-0.09372566
196	0x3d353f7e	0.044250004
197	0xbc883c1d	-0.016630227
198	0xbd6509f7	-0.055917706
199	0xbd513ee6	-0.051085375
200	0xbd63084f	-0.055427846
201	0xbd857cc8	-0.06517941
202	0xbd18f6b0	-0.037344635
203	0xbd9ac1bc	-0.07556483
204	0x3d774813	0.06037147
205	0xbd9e6f29	-0.07736046
206	0x3b1e7741	0.0024179968
207	0xbc1f460e	-0.009721292
208	0x3b9c66ce	0.0047729975
209	0x3d9b6874	0.07588282
210	0xbd1219c2	-0.035669096
211	0xbcb29334	-0.021798708
212	0xbbd147b7	-0.006386723
213	0xbdb5c39a	-0.08875199
214	0x3d36e06a	0.04464761
215	0xbc8983d4	-0.016786493
216	0x3bfc30fc	0.007696269
217	0x3cd3e478	0.025865778
218	0x3db0ffaf	0.08642518
219	0x3af06894	0.0018341714
220	0x3d01bdf1	0.031675283
221	0x3daeedda	0.0854146
222	0xbdff8f4c	-0.124785036
223	0x8a095023	-6.611382e-33
224	0x3c4f7a13	0.012663382
225	0xbd7f700d	-0.06236272
226	0xbd72bb28	-0.059260517
227	0x39e2ff02	0.00043296075
228	0x3d5294a8	0.0514113
229	0xbd360218	-0.04443559
230	0x3d3f7874	0.046745732
231	0xbc43ca28	-0.011950053
232	0xbb845472	-0.004038387
233	0xbc798f52	-0.015231924
234	0xbd0e0759	-0.034674976
235	0xbcc0889f	-0.023502646
236	0x3d9bc242	0.07605411
237	0x3d0fff3b	0.035155516
238	0xbc090daa	-0.008365074
239	0xbdaa4af3	-0.08315077
240	0x3c60f885	0.013731127
241	0xbaf21d6d	-0.0018471904
242	0xba8f61b4	-0.0010939152
243	0xbcec3cd0	-0.028837591
244	0x3bbb888a	0.005723064
245	0x3df31588	0.11869341
246	0xbd7d2531	-0.061803047
247	0x3c4b8aa5	0.012423192
248	0x3c700bba	0.014651233
249	0x3d8fd05a	0.07022162
250	0xbd361257	-0.044451084
251	0xbcb31ac8	-0.021863356
252	0x3c363c38	0.011122756
253	0xbda58bed	-0.08083329
254	0xbc3ff9a2	-0.011717232
255	0x3d6a8a47	0.057260778
