database/vectordb/b5cc2a05f4cc5b1cf58e43cb85c74ac4.npy (npy, 1664 bytes, 1 tensors)

array f4 [384]
00000000: f52c 5eba 021d 9cbc dc62 95bd ae3c 303b
00000010: d47e 423d 07d3 703d 72bb 533d 468b 013d
00000020: 0831 9f3c e2e0 c43d f684 c83c d6bb 97bb
00000030: 288e 213b 7165 1ebb caa4 493c f947 91bd
00000040: bd2a e13c a67d 13bb 3eee 6bbc d23f f93d
00000050: 7c49 eebc 602d 86bd a1c2 a6bc 01f1 babc
00000060: 2cb7 cdbc ae6b 5bbc a65c be3b a24c 81bd
00000070: a5dd 85bc 0ce0 423d d944 9a3d d7b0 91bc
00000080: a278 963d 795f f13c 727f 0cbb 5507 7b3c
00000090: dbcb 623d 089a 01bd 2438 5abc 3a93 783c
000000a0: 4b68 32bd b70a c3bd 06c5 e5bd 6f16 fdbc
000000b0: d206 86bb 0756 453c 9103 373d dc0b c2bc
000000c0: fbab fdbd f04b b1bd ab72 afbd 063c 533d
000000d0: 7af5 c2bb 92a1 4bbd 84c7 29bc 8350 5b3c
000000e0: 9404 3a3c 5a70 d63c 1107 cebd 0fd0 8bbc
000000f0: 95ef 90bc ec8d a1bd 5369 a7bd 3be7 86bc
00000100: 014b 873d dc84 453d ac45 75bd a5b8 f3bc
00000110: 1aad edbc 4a8f b83c 43d4 963d 46a5 96bd
00000120: ebb5 3b3a 6a68 c1bd 5891 ea3c 8cde 6fbd
00000130: bf3c 8a3d 095a ae3c 903c c93c 616e 87bd
00000140: 7b36 25bd 71d9 103c 6350 4cbd e450 8ebc
00000150: 96c3 f0bb b840 463d f96c 16bd f92c a83c
00000160: 6249 063d 5b5f b43c e494 c73c 6b57 bbbd
00000170: 586a 76bd b006 2f3d b73a e33d c78e 04bc
00000180: 0c01 2abc f049 fbba 3839 e93c 4f5d 6a3d
00000190: 9ef8 c53a 0904 9b3c 142c 58bd ccfd 213d
000001a0: 9802 df3c 41c9 abbd 9095 07bd cfa6 d4bb
000001b0: f2e1 503d 2bdf 31bc 58c8 d0bd cf64 1ebd
000001c0: 2fdf 023d 6578 1f3d a107 1d3c d800 64bd
000001d0: b5e0 eabb 112c e43c 231a 553d bd0a 5a3d
000001e0: 7799 8f3d 5c98 f2bc decb 8a3c 5356 953c
000001f0: fe1b 873d 5261 9c3d 6b12 40bd 7d38 f409
00000200: 1c7b 9dbd b49d 12bd 4478 b93c f9ee 4dbd
00000210: 4f95 dabc b3f5 2d3d 21a0 97bc a754 56bb
00000220: 8821 ca3d c60f 7f3a 254e e5bc d7d7 aa3d
00000230: 468a b43b d0dc 0d3e 3f75 5cbc ec54 b1bc
00000240: cad6 19be d686 433c 69c8 933d 830a 63bd
00000250: 588a 42bc b16e 133d d350 f73c 78dc 77bd
00000260: d5e1 a1bb f6a0 2abd 7171 53bd e8e3 463c
00000270: 7d6d 46bc bef4 293d 7b5c e03c 656b 923c
00000280: cf6f 82bd 68da 51bd 382d 70bd 71cc 9a3b
00000290: 64f9 f6bc ee6d 57bb 0406 a3bc 1f70 52bd
000002a0: 1a75 833b d575 f13c 0015 ce3c d664 e83c
000002b0: 9f4c 0ebc e8db ba3c 3124 533d 2567 7cbc
000002c0: 72f0 1ebd 28a0 02bc 3204 27bc b325 933c
000002d0: a802 ce3d 7f1b 26be db12 93bd c619 14bd
000002e0: 1aa3 4bbd 3d46 da3c 8c7f 31bd 38c2 90bd
000002f0: 4b25 63bb 301d 4bbb 7214 1e3d 9e98 84bd
00000300: ad70 883b 15e3 883d 20cf bebd 58cb 78bd
00000310: fc92 c9bc 855a af3c 412d 5a3c f773 7d3d
00000320: d6e4 fabc fa9c 5ebd 2152 263d dab0 2cbc
00000330: da58 5a3d 6dd6 273d e2e5 4bbd d09a a6bd
00000340: 09e3 adbc 4fdc c2bc eef8 be3c 1093 24bd
00000350: 8e62 163d c8ee c13d 70a3 5f3d b014 96bc
00000360: 09d8 8c3d 2976 86bc 9b88 c43c aa87 eabc
00000370: 84bd f73c caf5 bbbc 42ea fdbc e609 148a
00000380: d8ca e8bd 7154 07bd 2c63 8fbd 6945 a63d
00000390: 5d3f 96bb e750 b6bb 07eb 943c 4df8 c3bd
000003a0: 075a 58bc ab85 dfbc 652d a93c edbd 0f3c
000003b0: 094c 753d 63fa 903d fd71 22bd c0ca 9dbc
000003c0: 792a 123c 0518 d0bd deb5 fa3c 84a3 5dbd
000003d0: bad7 6c3c 6287 853d 424a 5cbd c6b0 53bc
000003e0: f2a8 45bd 649e fe3c e377 043a 9264 babc
000003f0: 9a41 f7bc 7395 87bd f9c4 943a d6d8 fa3c
-0.0008475327 -0.0190568 -0.072942466 0.0026891637 0.047484234 0.058795 0.051692434 0.031626962
0.01943256 0.096132055 0.024477463 -0.004630546 0.0024651382 -0.002416935 0.012307355 -0.07093806
0.0274862 -0.0022505312 -0.014400063 0.12170376 -0.029087774 -0.06551623 -0.020356478 -0.022819998
-0.025111757 -0.013392372 0.0058093844 -0.06313445 -0.01634104 0.04757695 0.07532663 -0.01778452
0.07347228 0.02946447 -0.0021438268 0.015321572 0.055370193 -0.031641036 -0.013319049 0.01517182
-0.043556493 -0.09523528 -0.1121922 -0.030894486 -0.0040901685 0.012044436 0.044681136 -0.023687296
-0.12386318 -0.08657062 -0.08566793 0.051570915 -0.0059496732 -0.049714632 -0.01036251 0.013385895
0.011353631 0.02617662 -0.100599416 -0.017066984 -0.017692367 -0.078883976 -0.08174386 -0.016467681
0.06606103 0.048222408 -0.059880897 -0.029751131 -0.029013205 0.022529263 0.073647045 -0.07355742
0.0007160592 -0.094437435 0.028633758 -0.058561847 0.06749868 0.021283166 0.024565011 -0.0661285
-0.04033516 0.008840905 -0.04988135 -0.017372556 -0.0073475344 0.048401564 -0.03672502 0.020529257
0.032784827 0.022018125 0.024362989 -0.09147533 -0.06016001 0.042730987 0.11095183 -0.008090681
-0.010376226 -0.0019171815 0.028469667 0.057217892 0.0015104001 0.018922823 -0.05277641 0.03954868
0.027222916 -0.083879955 -0.03310162 -0.0064896117 0.05099673 -0.01085643 -0.101944625 -0.038670357
0.031951126 0.038933177 0.009584338 -0.055664867 -0.0071679004 0.027853044 0.05202688 0.053232897
0.07011693 -0.029613666 0.016942915 0.01822964 0.06597136 0.0763575 -0.046892565 5.8793985e-33
-0.07689497 -0.03579493 0.022640355 -0.05027673 -0.026682524 0.042470645 -0.018508973 -0.0032704265
0.09869677 0.00097298285 -0.027991364 0.083419494 0.0055096475 0.13853765 -0.013455688 -0.02164694
-0.15023342 0.011934003 0.072159596 -0.055429947 -0.011873804 0.035994235 0.030189907 -0.06051299
-0.0049402514 -0.04165741 -0.051621858 0.012139298 -0.012111065 0.04149317 0.027387848 0.017873475
-0.06368982 -0.05123368 -0.058636874 0.0047240783 -0.030148216 -0.003287192 -0.01990033 -0.05137646
0.0040117623 0.029475132 0.025156498 0.028368395 -0.00868526 0.022809938 0.051548187 -0.015405451
-0.038803525 -0.007972755 -0.010193871 0.017962312 0.100591004 -0.16221426 -0.07181331 -0.036157392
-0.049716093 0.02664482 -0.04333453 -0.07068294 -0.003465968 -0.003099274 0.038593717 -0.06474422
0.0041638226 0.066839375 -0.0931685 -0.0607408 -0.02460622 0.021405468 0.013316453 0.06187817
-0.030626696 -0.054348923 0.040605668 -0.010540212 0.05330739 0.040975977 -0.04977978 -0.08134997
-0.021226423 -0.023786692 0.023312058 -0.040179312 0.036715083 0.09469372 0.054599226 -0.018320411
0.06877143 -0.016413765 0.02399092 -0.028629143 0.030241735 -0.02294435 -0.030995492 -7.1278025e-33
-0.113668144 -0.033039514 -0.070013374 0.08118708 -0.00458519 -0.0055638435 0.018178476 -0.09568844
-0.013205058 -0.027285418 0.020651529 0.008773309 0.059886966 0.070790075 -0.03965949 -0.019261718
0.008921259 -0.10160831 0.0306043 -0.05411102 0.01445573 0.06519963 -0.053781755 -0.012920564
-0.048256822 0.031081386 0.0005053265 -0.022753034 -0.030182648 -0.06620302 0.0011350206 0.030620974
