database/vectordb/b5dea1534af01ac9805acd856067b438.npy (npy, 1664 bytes, 1 tensors)

array f4 [384]
000000 e2 11 8f bd f8 f8 09 3d 07 29 df 3c 43 a4 e7 3c
       -0.06985833 0.0336847 0.027241243 0.028276568
000010 26 29 86 3d 9a f8 c1 bb 32 da 90 3d ec 91 ad 3c
       0.06550817 -0.005919528 0.070728675 0.021187745
000020 9f 4a 01 3d 18 23 bc 3c e9 62 ec 3c e2 f1 f3 bc
       0.031565305 0.022965953 0.028855758 -0.029778425
000030 7a d7 51 3d c8 4c c4 bd b7 f1 a1 bb 58 6f e9 3b
       0.051230885 -0.09584957 -0.0049421447 0.007123869
000040 1b 4b 2a bd f8 d6 82 bc a5 36 26 bd fb 5f 20 bb
       -0.041575532 -0.015971646 -0.040579457 -0.0024471271
000050 e5 d7 e5 bd 94 cd 05 3d 27 45 75 3c ac 85 8d 3d
       -0.11222819 0.032666758 0.0149701005 0.069102615
000060 a1 b1 41 bc ee 86 1c bd aa db de bc 90 aa ce 3c
       -0.011822135 -0.038214616 -0.027204353 0.025227815
000070 d1 7d 41 3d 91 3d 90 bc e9 f0 24 b9 d2 ee 3c 3d
       0.04723913 -0.017607482 -0.00015730005 0.046126194
000080 32 8e e5 3d 46 00 b3 bc 1d 60 00 3c 91 b3 21 bd
       0.11208762 -0.021850716 0.007835415 -0.03947789
000090 62 4f 0c 3d c8 0b 3a bd a4 1d c1 3d de c1 65 3d
       0.034255393 -0.04542139 0.094294816 0.05609309
0000a0 71 d7 62 3b e0 08 fd bc 08 40 ce 3c 4f 71 0c 3d
       0.0034613276 -0.030888021 0.025177017 0.034287747
0000b0 2b 37 86 3c 50 78 14 bc 0a a4 46 3b 36 1d 41 bd
       0.016383728 -0.009061888 0.0030310177 -0.047147
0000c0 cb 55 99 3d e1 f9 a0 bc 4c 4d 8c bc 18 d3 4c bd
       0.07487067 -0.019650402 -0.017126702 -0.050006002
0000d0 40 25 61 bb cd c6 64 ba 01 00 4e 3d d8 10 8b bd
       -0.0034354478 -0.00087271334 0.050292972 -0.06790322
0000e0 43 89 00 3d fb 0d 3f bd d2 6f 81 b9 5a 7e cb bb
       0.031380903 -0.046644192 -0.0002468811 -0.0062101306
0000f0 25 a8 3a bd 2e c6 ee 3c c6 86 ef bd 48 9b 04 3e
       -0.04557051 0.029147234 -0.11695628 0.1294986
000100 44 c8 a0 bd 0a 40 c6 bd 5b ca 97 bc 2d fc 11 3d
       -0.07850698 -0.09680183 -0.018529108 0.035640884
000110 9f 94 30 bd 0d 76 5e 3d 42 36 d5 3c 65 e1 5b 3c
       -0.043110486 0.0543118 0.026026849 0.013420437
000120 e6 98 9e 3d 39 35 03 3d 50 28 6d 3c 63 9f a4 3c
       0.07744007 0.03203318 0.014474943 0.020095533
000130 8e e4 bb 3c 41 31 25 bd 97 90 e8 ba 45 b6 f3 bc
       0.022936132 -0.040330175 -0.0017743286 -0.029749999
000140 25 e5 23 3e 2d 83 fa 3c bf a8 be bc ef b5 62 bd
       0.1600538 0.030580128 -0.023273824 -0.055349287
000150 80 37 d1 3c 63 8b dc bc 89 85 92 3d fc 2f c9 bc
       0.02553916 -0.026921934 0.07154376 -0.024559014
000160 6c c7 f3 bb 36 0b 0c 3d e9 bf f1 bc 47 91 10 bd
       -0.0074395444 0.03419038 -0.029510455 -0.035294797
000170 8b d8 30 3a 87 61 dd bb 10 10 45 bc 26 1d 80 3b
       0.00067461346 -0.006756011 -0.012027755 0.0039097248
000180 eb 53 a4 3c c6 fe cf 3c 73 83 ed 3c 2b 93 68 3e
       0.020059546 0.02539004 0.028993344 0.2271239
000190 b8 22 0d bc 0f 9c a7 bb 16 7a dd bb 9b 9d 47 bd
       -0.008614235 -0.005115039 -0.0067589385 -0.04873429
0001a0 33 ad 40 bb cb e8 7f 3c 86 29 90 bd b5 cb 91 bb
       -0.002940011 0.015619467 -0.0703917 -0.0044493326
0001b0 a5 ff 25 bd d4 13 58 bc fa be e0 bc a6 a2 22 bd
       -0.040527005 -0.013188321 -0.027434815 -0.039705895
0001c0 9e 65 d3 3d 7e ba 6e 3d 25 8d bf 3d 6e e0 a6 3a
       0.10322116 0.05828332 0.09353093 0.001273168
0001d0 59 76 22 bc 43 df a8 bc ae 1d 9c 3d 33 24 5b bd
       -0.009915912 -0.020614272 0.076228485 -0.05350132
0001e0 c6 2d 10 3c 35 0f 2b 3c 38 f7 56 bd 80 d7 58 3d
       0.008799976 0.010440637 -0.05248186 0.05293989
0001f0 e3 90 b4 bd b1 02 f3 bd c3 ca 70 3c fc 38 04 8a
       -0.088166974 -0.11865748 0.01469678 -6.3662864e-33
000200 52 29 b5 3c ab 40 be 3c 00 a0 6f 3d ec 65 86 bc
       0.02211443 0.023224195 0.058502197 -0.016406022
000210 aa 34 62 bc 79 5d b6 3c f5 de 91 3d 54 7f 07 bd
       -0.013806501 0.022261368 0.07122604 -0.033080414
000220 87 97 5f bd b2 29 f7 3d 8d fc da 3c 3e 29 82 3c
       -0.054587867 0.120684996 0.026731754 0.015888806
000230 e9 b5 67 bd c4 f2 c6 bd 15 1f 4a 3d 77 da 36 3d
       -0.056569967 -0.097142726 0.04934605 0.044641938
000240 97 31 66 bd f3 63 98 3d 9f 34 00 bd fd e6 33 bb
       -0.056199636 0.07440939 -0.031300183 -0.0027450912
000250 9a de 87 bc 22 d0 8c 3d 8b f8 74 bc 6a 9e 72 3d
       -0.016585637 0.06875636 -0.014951835 0.059233107
000260 9d 27 a8 bc bf 5d a4 bd 92 ea 06 bd ce 8f 40 bd
       -0.020526702 -0.08025693 -0.032938547 -0.047012143
000270 1a 89 aa bd 76 be 59 3d 1c c4 9c bd c9 a2 4c 3d
       -0.08326931 0.053160153 -0.076545924 0.04995993
000280 4a b7 44 bd 78 93 bc bc 63 43 be bc 10 5e 08 bd
       -0.04802636 -0.023019537 -0.023225492 -0.03329283
000290 83 66 2d ba a8 da b0 bc d1 d5 9c bd 03 4d a9 3c
       -0.00066147017 -0.021588638 -0.0765797 0.020666605
0002a0 69 4a d2 bb 21 d5 9f bb 8a 1f ab 3c 52 14 85 3c
       -0.006417562 -0.004877702 0.020889062 0.016245041
0002b0 e6 54 cc bc 5c 08 39 3d 73 5d 0f 3d 25 73 c9 3c
       -0.024942826 0.045173988 0.03500123 0.024591038
0002c0 84 89 74 ba 1f b9 03 3c e2 63 6d bc cf 05 59 bd
       -0.0009328353 0.008039742 -0.014489146 -0.052984055
0002d0 7f 5e a7 bd ce 99 0e bb 7a f6 af bc d5 4a 79 bc
       -0.081723206 -0.0021759155 -0.021479834 -0.015215595
0002e0 35 a9 95 3b a4 dd 89 bc 96 08 a1 3d 13 24 10 3d
       0.00456729 -0.01682932 0.07862966 0.035190653
0002f0 75 b0 b3 3d 44 5a 86 3d 07 99 0a bd cc 65 af 3d
       0.08773891 0.065601856 -0.033837344 0.08564338
000300 03 40 18 bd 24 42 bf bc 97 4f 9b 3b a4 b5 19 bd
       -0.03717042 -0.023346968 0.0047397125 -0.03752674
000310 fb 4e f0 3c 82 d2 00 bd 38 6f e5 bd 6c 61 71 bb
       0.029334536 -0.031450756 -0.11202854 -0.003683175
000320 7e 1a df 3d 40 06 38 3d 2f dd b9 bb 30 b3 f5 bc
       0.10893725 0.044927835 -0.005672119 -0.02999267
000330 2d cd 4f 3d ff 40 34 bd 7a a3 b4 bc f7 85 8e 3d
       0.05073278 -0.044007298 -0.022050608 0.069591455
000340 c2 7d cd bd 99 6e 81 bb a2 cf 0b bd 9a e6 87 3c
       -0.10033752 -0.003949952 -0.03413356 0.016589452
000350 11 78 60 3c 89 66 56 bb 3f de d0 3c d1 2a 64 bd
       0.013700501 -0.0032714924 0.0254966 -0.055704895
000360 c1 05 a6 3c a5 d7 2b 3d 7a ca 82 bd 44 a7 61 bc
       0.020266416 0.0419537 -0.063862756 -0.013772789
000370 41 5b df 3d aa c5 a6 bd 2b a9 69 bd 02 fc b8 09
       0.10906077 -0.0814317 -0.057046097 4.4533376e-33
000380 62 5c 8b bd b7 bb 2f 3d 18 1c c2 3c 3a ce e8 3c
       -0.0680473 0.04290363 0.023695037 0.028418649
000390 51 21 73 bd 9b bb 44 bc 69 03 4e 3c 06 bf bc 3d
       -0.059357945 -0.012007619 0.012574055 0.09216122
0003a0 29 13 8d bd cc d5 55 3d 51 81 00 bd e7 dd 9b bc
       -0.0688842 0.052205846 -0.031373326 -0.01902671
0003b0 d1 a6 33 bd 31 b5 3f bc 8f be 33 3d 44 f0 1d bb
       -0.04386026 -0.011700914 0.043882903 -0.0024099508
0003c0 92 0b a7 3d 77 05 bf bd 10 cf 00 bd 12 5b 3d bd
       0.08156504 -0.09327214 -0.03144747 -0.04622943
0003d0 cf a7 f6 bc af 40 97 bc 3b 27 58 3d 8a c0 83 bd
       -0.030109314 -0.01846346 0.052771788 -0.06433208
0003e0 3b 2d 1b bd 49 84 39 3d c4 ca 9f 3d a4 18 aa bc
       -0.037884932 0.045292173 0.07802346 -0.020763703
0003f0 87 cb 02 bd e8 b8 90 bc c6 5a af 3d 04 01 4b bd
       -0.03193238 -0.017666295 0.085622355 -0.049561515
