database/vectordb/b5f9a7d9294ffaad299e3b170df45948.npy (npy, 1664 bytes, 1 tensors)

array f4 [384]
00000000: 135d 103c e733 8c3d 5f67 c7bd eb08 4d3c
00000010: 2e86 683d 731b 6f3d b4a7 9c3c f1f8 843d
00000020: e2c2 6d3b b57d 0a3d 46d8 673d 63ee 28bd
00000030: c12c 143c 51cd a73d 26bd 83bc 9098 e53b
00000040: 121e aabc 90b1 bdbb 4be7 86bd 5654 063d
00000050: 75a1 babc a702 5cbc 2181 e13d 50cc 58bd
00000060: feb9 bebc 5f1e a8bb ad6a 953c 9155 c43b
00000070: e0f4 81bd 1a60 7f3d 8d10 d33c b60f e5bc
00000080: bd99 fd3c a8a4 3b3d 815d 1c3c ae7d 82bd
00000090: 4b41 ba3d 4413 9fbc 0e06 3bbd ac9a b5bd
000000a0: 6f85 15bd c3fc 6c3d eebf 60bd b6e0 c53c
000000b0: 47de a838 3897 f7bc b40f 94bd 4ced 6e3d
000000c0: bf42 efbd 0615 00bd 2597 b03c bb80 34bc
000000d0: 5476 12bd b857 013d d113 52bc 06a4 f4bd
000000e0: a90c 3d3b 721f 02bd 9d65 85bc ac7a 5ebd
000000f0: 2f4b 27bc 08ae 0abd 3b5d a83c 9b9d 49bd
00000100: 6b31 fdbb 11c7 c2bd fb63 a03d 7dfb 9fbc
00000110: e126 f03c 30ba e13d 9e52 80bb a61b efbc
00000120: 005b 963d cdba 92bc 55d0 5ebd 404a 4fbd
00000130: 5f76 2cbd 4a94 3d3d 007e fabc 9cce 4abd
00000140: c2e7 3b3d 7089 7f3c 48f7 be3d 471d 3b3d
00000150: 6366 963c 4b7d 37bc ea1f 1b3d 5f86 afbc
00000160: 1f5f 333d e427 213d 3645 61bc 6ae5 f8bb
00000170: 335c 983d 5d23 203c 6649 d13d 25a0 843a
00000180: 3553 4d3c 4d08 6d3d 6855 593d ff28 b5bc
00000190: ea31 053c 49b4 55bd 1af7 92bd 687d f3bc
000001a0: c757 043b 6d78 63bd 87b4 71bc 212a a63c
000001b0: dfe0 c5bd 4b4c 25bd 291a 92bd 9717 1b3d
000001c0: 356a b83b 4465 60bc 1284 0d3d d32b 0a3d
000001d0: 380a 093e 46db 8c3c 7438 d03c 8b07 ef3d
000001e0: 9e8d 553d 7919 0a3d bc93 c9bd 20dd 423d
000001f0: eabf 33bd 1aa1 993d 818a cebd 1013 b109
00000200: e5af ca3c 4d53 d8bd fc76 19bd 23ee e6bc
00000210: 6119 aebd 4d06 0abd 04a1 6fbd ba77 1f3d
00000220: a7b0 683d e9be 6a3d 223a 80bd 0a0a 08be
00000230: 7341 143d 7961 3f3d 961a a2bc 89fb 6fbd
00000240: 37ba 5bbd 09b1 8e3c 9774 533b 0839 e53c
00000250: dbef 30bc 3cee 203d 994d 773d ecd7 423d
00000260: b6fc 72bd 8d0a 0c3d f990 a4ba cb4c 233d
00000270: 1393 f03b 6452 71bc 59f2 a53d e222 64bd
00000280: 8017 21bd c524 03b9 7378 503c 93e9 453d
00000290: 52c7 133d 9202 2f3d 312e c33c a181 54bb
000002a0: 6286 293c 87cb 813d 045c aabd 790e 87bd
000002b0: e567 ca3d 1faf 8b3d ce18 aabd 2323 b93b
000002c0: 4216 93bd 5041 bd3d da3b f5bc 8a38 1e3d
000002d0: 0eb3 86bb 98a6 183d 95eb 1bbc 549c 0e3e
000002e0: 372c 003d 92ef 9f3d 81a4 c1bc 0555 a13c
000002f0: 3db7 4cbd 49b2 643d fe9b 6bbc d5d5 b13c
00000300: 11d5 26bb aca3 96bd c650 bb3c 5e75 06bd
00000310: 25ea 66bd 6921 0abc 5617 21bd 0037 743c
00000320: fd26 833d da44 db3c 8e15 74bd 6289 d23c
00000330: 5892 dc3d f147 ffbc e675 5cbd de8c 29bd
00000340: 4d2f e9bc 1d97 513d 3a01 0f3c d580 c3bd
00000350: fc45 90bc 83e0 53bc 5754 7bbd 38b5 83bd
00000360: 6da5 25bd 8cd1 953b 328c 943c fa26 f6bb
00000370: d824 18bc 4f97 97bd 46b6 fbbd 2ef2 d189
00000380: 8b32 1dbc 8618 f3ba f737 03be d164 d9bb
00000390: 45ac 6f3c a3fe 8d3d 4ea8 29be f128 77bd
000003a0: 1484 2fbd 2265 6c3c fea5 0dbb cc5b 98bb
000003b0: 1735 b43d b0ee 133e c605 36bd 36e1 00bd
000003c0: 7db1 183d 00ed 213c c0cf bf3c 5686 fc3c
000003d0: 87ce 173d e0db ad3d 146e 0fbd aa07 80bd
000003e0: 4c15 74bd 8790 6a3d 723d 753d 8581 9a3c
000003f0: 143c 51bb 1efc b2bb b97b 523d 2dd6 f0ba
0.008811253 0.06845837 -0.09736513 0.012514333 0.05676859 0.058375787 0.019122936 0.06492794
0.003627949 0.03381129 0.05660274 -0.04124297 0.009043873 0.08193458 -0.016081404 0.0070067123
-0.020766292 -0.0057889894 -0.065870844 0.032795273 -0.022782067 -0.013428367 0.110109575 -0.052929223
-0.023282047 -0.0051305736 0.018239344 0.0059916456 -0.06345534 0.06234751 0.025764728 -0.027961593
0.030957097 0.045811325 0.009543777 -0.06371628 0.09094485 -0.019418366 -0.04566007 -0.08867392
-0.036504205 0.05785824 -0.05487054 0.024155002 8.052267e-05 -0.030223474 -0.07229558 0.058331773
-0.11682653 -0.03127005 0.021556446 -0.01101702 -0.035757378 0.031577796 -0.012822107 -0.119453475
0.0028846657 -0.03176827 -0.016283805 -0.054316208 -0.010210796 -0.033857375 0.020552268 -0.04922257
-0.0077268383 -0.09510625 0.0783157 -0.019529099 0.029315414 0.110218406 -0.0039160987 -0.029187988
0.073415756 -0.01791134 -0.0543979 -0.05060792 -0.042105075 0.046283998 -0.03057766 -0.049513444
0.04587532 0.0155967325 0.09324509 0.045682218 0.018359369 -0.011199306 0.037872232 -0.021426378
0.043791886 0.039344683 -0.013749411 -0.0075957077 0.074394606 0.009774056 0.10219078 0.0010118528
0.012532045 0.057869244 0.053059965 -0.022114275 0.008129576 -0.052173886 -0.07176037 -0.029722884
0.002019392 -0.05553477 -0.014752514 0.02028376 -0.096620314 -0.04035596 -0.07133896 0.037864294
0.0056278952 -0.013696019 0.03454978 0.0337332 0.13382804 0.017194401 0.025417544 0.116713606
0.05213701 0.0337157 -0.09842631 0.047574162 -0.043884195 0.07501431 -0.10085011 4.2629126e-33
0.024742076 -0.10562763 -0.037466988 -0.028189724 -0.085009344 -0.033697415 -0.058503166 0.03893254
0.056809094 0.057310972 -0.06261088 -0.1328508 0.03619523 0.046723817 -0.019788068 -0.058589492
-0.053644385 0.017418401 0.0032265538 0.027981296 -0.0107993735 0.039289698 0.060376737 0.0475692
-0.059323035 0.03418975 -0.0012555412 0.039868157 0.0073417514 -0.014729116 0.08102865 -0.05569733
-0.039329052 -0.00012506831 0.01272403 0.048318457 0.03607876 0.04272706 0.023825737 -0.0032425898
0.010346981 0.06337648 -0.08318332 -0.06594557 0.098830976 0.06820511 -0.08305512 0.0056499406
-0.0718198 0.09240973 -0.029935766 0.03862814 -0.0041107005 0.03726825 -0.009516616 0.13926822
0.031292167 0.07809366 -0.023638012 0.01969386 -0.049979437 0.05583409 -0.014380453 0.021708408
-0.0025456587 -0.07355437 0.022865664 -0.032826774 -0.05637564 -0.008430817 -0.039328896 0.014905691
0.06403921 0.02676623 -0.05959087 0.025700275 0.107701 -0.031162234 -0.053823374 -0.041394107
-0.028464938 0.051169503 0.00872832 -0.09546057 -0.017611496 -0.012931946 -0.06135973 -0.06431049
-0.040440965 0.004572099 0.018133257 -0.0075119706 -0.009286128 -0.07401907 -0.12290625 -5.0542664e-33
-0.00959457 -0.0018546737 -0.12814318 -0.0066343327 0.014628475 0.06933334 -0.1656811 -0.06034178
-0.04285057 0.014428409 -0.0021613832 -0.004649615 0.087991886 0.14446521 -0.0444391 -0.031464778
0.03727864 0.009883165 0.023414493 0.030825775 0.037062194 0.084892035 -0.035017088 -0.06251462
-0.059590623 0.05726674 0.059873052 0.018860588 -0.0031926678 -0.0054621836 0.051387522 -0.0018374376
