database/vectordb/b6d9a2377b682b3665d3b9178c35d7fe.npy (npy, 1664 bytes, 1 tensors)

array f4 [384]
000000 53 8d 74 bd 08 5a fe bc 8f 78 2a bd a6 17 97 3d
       -0.05970509 -0.03104879 -0.04161888 0.073775575
000010 ab af f5 3b b0 33 00 bd 7e 6a e2 3b 5b e7 eb 3c
       0.007497748 -0.031299293 0.0069096675 0.028796842
000020 ba ce 40 3d 7f 7b 78 3b fc e7 2f bd b7 68 c2 3c
       0.04707215 0.0037915406 -0.042945847 0.023731573
000030 bb f7 dc 3b 03 0f be 3c 41 0c b0 bd c4 e4 74 bd
       0.006743399 0.023200518 -0.08596087 -0.05978848
000040 5a 80 88 bd 72 bb 13 bd ad 10 39 bd 0f 6c 94 bd
       -0.06665106 -0.036067434 -0.04518192 -0.07247173
000050 09 56 08 be b7 1e 0f bc 96 84 50 3d 72 b0 8c bd
       -0.1331407 -0.00873535 0.050907694 -0.06869592
000060 e8 3f dc 3d b7 c5 52 3d 57 3c 73 3c e2 5f 00 bd
       0.10754377 0.051458087 0.014845929 -0.03134144
000070 30 e2 5a bd 24 87 5e 3c f5 9b b3 3c 7a fb 0d 3d
       -0.053438365 0.013582025 0.021924952 0.034663655
000080 f9 92 52 3d b3 ac ca bc 04 4b 63 bc b1 d8 4f 3c
       0.051409695 -0.024740553 -0.013872866 0.012685941
000090 41 94 60 3b a0 27 87 3d 6c 8c 44 3c 53 89 c9 3c
       0.0034268054 0.06599355 0.01199637 0.024601614
0000a0 83 1c c0 bc 56 6f 65 bd 25 85 97 3b 8e 0a 6f 3d
       -0.023451095 -0.05601438 0.0046240264 0.058359675
0000b0 c4 bf 55 bd c2 e5 e6 bc 1d 20 b3 3d 4a d5 e1 bc
       -0.052184835 -0.028185729 0.087463595 -0.027567524
0000c0 ee 69 e5 bc b8 65 44 3d dc 13 f3 bd 9d b3 61 3d
       -0.028004613 0.04794857 -0.11869022 0.055102933
0000d0 c0 a1 98 3d 88 14 e7 bd 6e 52 79 3c 7b 6f 9d 3c
       0.07452726 -0.11283213 0.015217407 0.019218197
0000e0 72 70 29 3d 06 77 88 3c 9b d8 60 bc 29 cb 56 bd
       0.041367 0.016658317 -0.013723518 -0.052439842
0000f0 a7 f5 7e bd ef 12 05 be 72 7b 55 bd 0d 54 25 bd
       -0.06224599 -0.12995504 -0.05211968 -0.04036336
000100 90 da 6b 3c 73 df d6 3d f1 6b 5d bd 72 e7 59 3d
       0.014395371 0.10491838 -0.05405802 0.05319924
000110 07 68 6e bd 35 60 e8 3c 53 59 65 3c df 31 04 bc
       -0.058204677 0.028366188 0.013998347 -0.008068531
000120 cb e2 7c bd 49 85 e0 3b 15 e3 bb 3d 12 b3 88 bc
       -0.061739724 0.0068518263 0.09174172 -0.01668695
000130 fa 31 c1 3d 4f 18 70 3d 6a 2e 96 3d 03 63 13 3d
       0.094333604 0.058616932 0.073330715 0.035983097
000140 e4 aa de 3d 08 76 e2 bd ee b6 e5 bd 10 a7 3f 3d
       0.108724385 -0.11057669 -0.11216532 0.046790183
000150 fa 23 27 bd 4d c4 26 bd 28 6e 81 3d d5 26 4d 3b
       -0.040805794 -0.04071455 0.06319839 0.0031303663
000160 c0 92 c2 3d bb 08 9a bd 81 3b 87 3d b0 31 82 bd
       0.095006466 -0.075211965 0.06603146 -0.063571334
000170 b5 f6 b3 bc 41 73 a4 bd 84 2a 87 3d 6e 62 44 3d
       -0.021968225 -0.080297954 0.06599906 0.047945432
000180 38 a0 4b bd 9b 37 06 3c 66 0b 4d 3d ae b5 ed 3c
       -0.049713343 0.008191968 0.0500597 0.029017296
000190 f1 7d b2 3d fb 23 6a bd 43 2e 43 3c 36 8a b0 3d
       0.08715428 -0.05716322 0.011912885 0.08620112
0001a0 59 ce 29 bd ab 1e 03 bd b6 63 1b bd 1d cd 40 3d
       -0.041456554 -0.03201167 -0.03793689 0.04707061
0001b0 48 25 94 3d 15 d8 19 3c 5b 08 d7 bc b7 cd e7 3c
       0.07233673 0.009389897 -0.026249101 0.028296335
0001c0 fc a6 a2 bc 04 cf b8 3c c4 76 ff ba 3f d5 0c bd
       -0.019855015 0.02255965 -0.0019490351 -0.034383055
0001d0 35 f5 48 bd f8 ad 33 3d 19 df 40 3c 90 8f 48 3d
       -0.049061973 0.04386708 0.011771941 0.048965037
0001e0 67 b6 94 3b 18 c4 3b 3d 97 ba bc bd 5d 07 8b bd
       0.0045383456 0.045841306 -0.09215277 -0.06788514
0001f0 96 49 6e bd 23 e8 42 3d 54 60 64 bd 7f 74 a8 09
       -0.058175646 0.047584664 -0.05575593 4.055408e-33
000200 8e 20 13 bd 5b 88 5c 3c 5e 09 0d 3d 70 11 c6 bb
       -0.03591972 0.013460244 0.03443276 -0.006044559
000210 a8 fb 9c bc 5d 19 ad 3c 44 76 cf bd f7 9e dc 3c
       -0.019162968 0.021130258 -0.10129979 0.02693127
000220 fb a3 90 3c 48 1d 8a 3c a7 e9 af 3c 16 01 ff 3d
       0.017656317 0.016859666 0.021473719 0.12451379
000230 dc 5e f1 bc 2d fd a5 bb ff e7 44 3d bf 52 0a 3c
       -0.029464178 -0.0050655813 0.04807281 0.00844258
000240 bc fa 88 bd 27 1c 6d bd 80 95 4d 3d 3e 0c a3 3c
       -0.06688449 -0.057888176 0.050191402 0.019903298
000250 3e e1 83 3d fb d8 e6 3c 32 d1 fa bb 67 84 8f bd
       0.06439446 0.028179636 -0.0076543326 -0.070076756
000260 9f ee 28 3c e0 21 11 3d 21 62 32 bd 5f 3f 07 bd
       0.010310798 0.035432696 -0.043550614 -0.03301942
000270 82 1c fe 3d fc f9 62 bb 24 7c 22 bc 2f 43 91 3d
       0.12407781 -0.0034633866 -0.009917293 0.070928924
000280 8f 6b 97 bd a9 e1 02 bc dc 7a c0 3b 1e 36 f8 3c
       -0.07393562 -0.007988372 0.005874021 0.030299243
000290 cc 07 69 bd f7 41 53 bd 07 e3 8d 3c 4e 00 4c bc
       -0.0568922 -0.05157658 0.01732017 -0.0124512445
0002a0 5d 78 c5 bc c9 4d 3f 3c 58 f2 bf 3c ce 99 04 3b
       -0.024105245 0.01167626 0.023430988 0.0020233276
0002b0 e6 f1 40 bd ee 0f 39 3d 61 26 9e 3d 6b 90 2a bd
       -0.047105692 0.045181207 0.07722164 -0.041641634
0002c0 76 5f c3 3a d2 cd aa 3b 60 23 bd bd 1f a2 19 38
       0.0014905769 0.005212524 -0.09235263 3.662903e-05
0002d0 c8 bd 51 3c e6 e1 8a bd 1d 5a 0b 3d 4e f1 53 bc
       0.012801595 -0.06781368 0.034021486 -0.0129359495
0002e0 87 fb cc bc 8f bf 9d bc ba 5b 72 bd 9f 84 63 3c
       -0.025022281 -0.019256381 -0.05916951 0.0138866
0002f0 8f 35 a9 bc 8c e9 29 3d ef c2 34 3d 03 bb ef bc
       -0.020655422 0.041482493 0.044131216 -0.029263979
000300 56 15 0d be 60 72 29 3d 4e de 1f bc eb 96 94 3d
       -0.1377767 0.041368842 -0.009757591 0.07255348
000310 33 0d 02 bd 94 9f 81 3d 8a 80 92 3b cb c8 92 3d
       -0.03175087 0.06329265 0.0044708895 0.071672045
000320 0b 04 67 bd 78 51 8d bd 76 64 5d bb 6b ce 0d 3d
       -0.05640034 -0.069003046 -0.0033781803 0.034620684
000330 d9 9f 45 3c 02 7a 47 3c 4f 1d 01 bd 0d 21 3e bd
       0.012062036 0.012175085 -0.03152209 -0.04641824
000340 03 be 0a 3c 71 e5 7f bd 7f 6e 5f 3d cd c2 c8 3c
       0.008468154 -0.06247467 0.054548737 0.02450695
000350 18 42 94 3c dc 2f 14 3d 20 5d ec bb d5 75 1c bb
       0.018097922 0.036178455 -0.00721325 -0.0023873944
000360 b3 39 be 3c 81 2f 84 bd 36 64 7b bd 5e 8f 61 bd
       0.023220873 -0.06454373 -0.061374865 -0.055068366
000370 66 e0 cd ba b4 6b b0 3c f1 5b 29 bd 4a 95 1b 8a
       -0.0015707135 0.021535732 -0.041347448 -7.491057e-33
000380 c0 4b a2 bd 62 9e 69 bc 50 ff e2 3c 55 4d 99 3d
       -0.079246044 -0.014258953 0.027709633 0.07485453
000390 29 73 0a 3b da 30 21 bc 17 26 99 bb c9 4a b0 bd
       0.002112577 -0.009838307 -0.00467373 -0.08608014
0003a0 af 89 19 3d de b9 3e bc 21 74 39 bd 45 aa 91 3d
       0.03748482 -0.011640994 -0.045276765 0.071125545
0003b0 8e fc 35 3d 92 1b 11 3c 8f 8d f1 ba 20 1a 1a bc
       0.044430308 0.008856671 -0.0018429029 -0.009405643
0003c0 ce bf f1 bc 6a 0e a5 bd 56 05 76 bd 7e ce 64 bd
       -0.029510405 -0.0805939 -0.060063682 -0.05586099
0003d0 a9 5d 11 3d 8c 3f 86 3d 32 dd 38 bd 41 af 99 bc
       0.035489712 0.06555089 -0.045132823 -0.018760325
0003e0 26 6b 9d 3c b2 ed b5 3b bb b0 60 3c c9 67 cc bc
       0.019216131 0.005552017 0.013714011 -0.024951832
0003f0 40 8d 85 bd bd 06 17 3d d5 cd ed bc 2d e5 26 3d
       -0.06521082 0.03687166 -0.029028812 0.040745903
