database/vectordb/b719e79f174cc3e885522abb28e03a59.npy (npy, 1664 bytes, 1 tensors)

array f4 [384]
0.019472253 -0.052854672 0.015099326 0.027992122 0.10580339 0.071407154 0.006120816 0.069453545
0.03922632 -0.07208025 -0.06313849 -0.049921002 0.10528363 0.07073576 -0.054878194 -0.065951645
0.07763551 -0.0053730397 -0.11675468 -0.031412277 0.03874451 0.04832388 0.06507819 0.034752052
0.0015290842 -0.08622576 -0.037617244 -0.018741801 -0.00036546774 -0.0113525605 -0.02598363 0.021317331
0.066607594 0.00781086 -0.07386988 0.025426328 0.019679388 -0.020997943 0.010102057 -0.01070558
-0.060466032 -0.06244851 0.10286228 -0.02538089 0.06486734 -0.065218516 -0.0037422888 -0.029771244
-0.06900408 0.00064403604 -0.017610589 -0.01699118 0.03221256 0.07180749 -0.013307024 -0.012830488
-0.0057646963 0.013948162 -0.0425441 -0.008131097 -0.036204986 -0.06391606 -0.102450795 -0.046998627
-0.021230437 0.018764267 -0.049014445 0.032629397 -0.044217486 0.10225562 -0.0008897205 -0.059649374
0.015768861 -0.009004584 0.075288124 0.122105 -0.0013657704 -0.06531976 0.030908627 -0.047720265
0.0031311107 -0.05700887 0.060105056 -0.039443597 0.021655602 -0.021115342 0.053443685 0.015413638
0.07876857 0.0016783862 -0.06203632 0.030114822 0.025612408 0.023483494 0.035734184 0.054662764
-0.05147356 -0.056514237 -0.012398119 0.061208047 -0.02980584 0.062962264 -0.0028110864 -0.0839569
0.029149614 -0.046724442 -0.03986939 0.026146347 -0.0466982 -0.011696209 -0.04149532 0.10013574
0.0017817385 0.040943265 0.059757102 0.022972269 0.029335584 0.020346785 -0.05365379 0.026982713
0.04019356 0.0035448226 0.086344115 0.018215932 0.059526693 -0.0362957 -0.058982495 4.9019463e-33
0.081764236 0.04202096 0.0056241034 0.055096872 0.08507553 -0.021357642 -0.034833506 0.05136023
0.034788992 0.0011298149 -0.008406814 -0.016132524 0.043343615 0.029616604 0.06928488 0.05153926
-0.03735745 -0.0003946183 -0.11119824 0.022465946 0.07469693 -0.018953037 -0.039129373 -0.030176235
0.0036113863 0.03162312 0.019616386 -0.040952846 -0.060156904 0.020466607 -0.050438125 -0.00138875
-0.0026467366 0.008832142 -0.03336123 -0.012506441 -0.09684897 0.0125957765 0.06928502 -0.016961934
-0.025372969 0.016234728 0.031509817 0.0008233722 0.053234518 -0.020477992 -0.02025985 -0.039565098
-0.04531839 -0.026495384 0.010438305 0.03546495 0.09051958 0.04886944 -0.07783463 0.031124463
0.040366348 0.016279107 -0.060106974 -0.022227997 0.036245804 0.06688753 -0.021383002 -0.013565046
0.03886684 -0.06596564 -0.069422685 -0.056722138 0.04249446 -0.06880776 -0.0035455779 0.01654425
-0.010085747 -0.07400239 -0.008887225 -0.049346987 0.0718543 -0.024999077 0.11564369 -0.060067367
0.026741276 -0.07223712 -0.011247968 -0.087068945 0.011157939 -0.01949588 0.026876017 -0.06674481
-0.010742672 0.07729595 0.053713724 -0.030422049 -0.0016147686 0.031473264 -0.07454365 -3.627153e-33
-0.07189645 0.043903124 -0.089762546 0.09660197 -0.00819569 -0.046860296 0.065244585 -0.0037706469
-0.0011467397 -0.014870926 0.011276234 -0.0017117874 0.03827039 0.04647638 0.09421885 -0.10536371
0.028611323 -0.0032455483 0.030779935 -0.013505214 0.075776674 0.047042843 -0.071136214 0.026729891
-0.022914317 -0.015800947 -0.0335033 -0.04946324 0.0059590116 -0.031614367 -0.0013001147 0.08127276
00000000: 4684 9f3c 247e 58bd 2a63 773c bc4f e53c
00000010: 73af d83d ea3d 923d 2091 c83b a93d 8e3d
00000020: c7ab 203d cf9e 93bd c14e 81bd f779 4cbd
00000030: f29e d73d e9dd 903d f5c7 60bd a811 87bd
00000040: 5eff 9e3d 5310 b0bb 141d efbd 29aa 00bd
00000050: 90b2 1e3d 43ef 453d b747 853d 2b58 0e3d
00000060: 8d6b c83a 2297 b0bd 8a14 1abd 6888 99bc
00000070: 409c bfb9 1700 3abc 9fdb d4bc afa1 ae3c
00000080: 9069 883d 3ef2 ff3b 1749 97bd e04a d03c
00000090: ab36 a13c e103 acbc 1983 253c 7566 2fbc
000000a0: 3bab 77bd 02ca 7fbd 76a9 d23d 96eb cfbc
000000b0: 2bd9 843d 4991 85bd 3041 75bb d3e2 f3bc
000000c0: 0352 8dbd 87d4 283a 1544 90bc 1631 8bbc
000000d0: 51f1 033d ce0f 933d b405 5abc f836 52bc
000000e0: c7e5 bcbb d586 643c b942 2ebd 4b38 05bc
000000f0: ae4b 14bd 6ce6 82bd b9d1 d1bd a281 40bd
00000100: 74eb adbc 85b7 993c 5fc3 48bd 67a6 053d
00000110: 651d 35bd 656b d13d 223c 69ba e752 74bd
00000120: b32d 813c f687 13bc a930 9a3d 3012 fa3d
00000130: a603 b3ba 5ec6 85bd 1734 fd3c 5376 43bd
00000140: 5233 4d3b 2282 69bd b830 763d 9c8f 21bd
00000150: 1767 b13c 15fa acbc c4e7 5a3d 7c89 7c3c
00000160: 6b51 a13d 4cfd db3a cc19 7ebd 5cb3 f63c
00000170: 1dd1 d13c 7560 c03c 025e 123d 10e6 5f3d
00000180: f1d5 52bd 797b 67bd 7b21 4bbc 4ab5 7a3d
00000190: 612b f4bc 5cf2 803d 343a 38bb 98f1 abbd
000001a0: 2ccb ee3c 2162 3fbd 164e 23bd dd30 d63c
000001b0: 9d46 3fbd 75a1 3fbc fff6 29bd f813 cd3d
000001c0: 3989 e93a 20b4 273d ddc3 743d 5730 bc3c
000001d0: 2e51 f03c 4dae a63c 14c4 5bbd da0a dd3c
000001e0: 01a2 243d 4150 683b 2fd5 b03d 9439 953c
000001f0: 43d2 733d cdaa 14bd a197 71bd 6f9e cb09
00000200: 0274 a73d 2c1e 2c3d 664a b83b 42ad 613d
00000210: 143c ae3d 39f6 aebc 94ad 0ebd 1b5f 523d
00000220: e77e 0e3d 4c16 943a bcbc 09bc 5b28 84bc
00000230: 1389 313d 859e f23c 3be5 8d3d d51a 533d
00000240: 2004 19bd c6e4 ceb9 e7bb e3bd 810a b83c
00000250: b4fa 983d 6643 9bbc 1f46 20bd 2734 f7bc
00000260: 02ad 6c3b 3f87 013d 8bb2 a03c 2cbe 27bd
00000270: 1667 76bd 96a9 a73c 3598 4ebd b806 b6ba
00000280: df74 2dbb b0b4 103c c9a5 08bd d1e7 4cbc
00000290: c158 c6bd 845e 4e3c 4ee5 8d3d c1f3 8abc
000002a0: f9da cfbc b1fe 843c 7010 013d 93d7 573a
000002b0: 700c 5a3d 76c1 a7bc fcf7 a5bc 030f 22bd
000002c0: c79f 39bd d90c d9bc 6d05 2b3c b243 113d
000002d0: 5462 b93d 522b 483d c367 9fbd bbf8 fe3c
000002e0: 2f57 253d c35b 853c bb32 76bd 7d17 b6bc
000002f0: 7b76 143d 54fc 883d 682b afbc ed3f 5ebc
00000300: d632 1f3d fe18 87bd 7b2d 8ebd 7955 68bd
00000310: ac0e 2e3d 15eb 8cbd ed5c 68bb cf87 873c
00000320: b03e 25bc 918e 97bd b99b 11bc 1120 4abd
00000330: 5928 933d ddca ccbc 99d6 ec3d 3309 76bd
00000340: 8510 db3c 0ef1 93bd 6649 38bc 3451 b2bd
00000350: cacf 363c d3b5 9fbc 182b dc3c 81b1 88bd
00000360: 0802 30bc 574d 9e3d ec02 5c3d a937 f9bc
00000370: a5a6 d3ba 1cea 003d 57aa 98bd 82aa 9689
00000380: 723e 93bd c3d3 333d 6dd5 b7bd 41d7 c53d
00000390: 3747 06bc 95f0 3fbd f49e 853d f51c 77bb
000003a0: 334e 96ba 2fa5 73bc f4bf 383c 0e5e e0ba
000003b0: 6ac1 1c3d 045e 3e3d d0f5 c03d eec8 d7bd
000003c0: 4b62 ea3c 44b3 54bb 3426 fc3c f944 5dbc
000003d0: cd30 9b3d ffaf 403d ddaf 91bd a5f8 da3c
000003e0: ceb6 bbbc fd70 81bc c23a 09bd f799 4abd
000003f0: d043 c33b 117e 01bd 9c68 aaba 5572 a63d
