database/vectordb/b733c11f696a7de89b89f234033ba941.npy (npy, 1664 bytes, 1 tensors)

array f4 [384]
0	0xbd73a940	-0.05948758
1	0x3d797c90	0.060909808
2	0xbd780bce	-0.060558133
3	0xbd1864f1	-0.03720564
4	0x3ceec7cb	0.029148003
5	0x3ccf091a	0.025272895
6	0xbc0c3f3c	-0.008559998
7	0x3dc68d58	0.09694928
8	0x3e1ad2ff	0.15119551
9	0x3dc6ac34	0.09700814
10	0xbda99ee8	-0.08282262
11	0x3bfeca03	0.0077755465
12	0x3d4b0931	0.049569312
13	0x3d264040	0.040588617
14	0xbd3809f3	-0.044931363
15	0xbc4e2399	-0.012581729
16	0xbcfcb8ec	-0.030849896
17	0x3d6556ea	0.05599109
18	0x39a5d9ac	0.0003163343
19	0x3db2edba	0.08736749
20	0xbde24109	-0.11047561
21	0xbb8cd443	-0.0042977645
22	0xbcd2795c	-0.025692634
23	0x3c0aed04	0.0084793605
24	0xbd5201c3	-0.05127121
25	0xbd287094	-0.041122988
26	0x3be9dac4	0.0071366746
27	0xbd935665	-0.07194213
28	0xbba028bd	-0.004887669
29	0x3a937663	0.0011250492
30	0xbcbccaac	-0.02304586
31	0x3da552d7	0.08072441
32	0xbbf3ccb2	-0.007440173
33	0x3cb1ee3a	0.02172004
34	0x3b84c673	0.0040519773
35	0x3d0d3edb	0.03448377
36	0x3d2114e6	0.03932657
37	0x3d6e5671	0.058187906
38	0xbc61a3a0	-0.013771921
39	0x3cbfb89d	0.02340346
40	0x3ceec7f7	0.029148085
41	0x3c1006dc	0.008790698
42	0xbdfeecdf	-0.12447523
43	0xbcf3e437	-0.029771907
44	0xbd2749e0	-0.040841937
45	0xbd9603f1	-0.073249705
46	0x3c1013ab	0.008793752
47	0xbc6e82f6	-0.014557591
48	0xbd8aef18	-0.06783885
49	0xbd253382	-0.040332325
50	0xbd22b0bc	-0.03971933
51	0xbbf8dbca	-0.0075945603
52	0x3d944a36	0.07240717
53	0xbc34e753	-0.01104148
54	0xbd4f3406	-0.050586723
55	0x3c85d7f3	0.016338324
56	0x3cb4ad93	0.022055423
57	0xbb9442eb	-0.004524579
58	0xbc85f30d	-0.016351247
59	0x3cb255a0	0.021769345
60	0x3bd40c40	0.006471187
61	0xbd7e8fc0	-0.06214881
62	0xbdcfde9f	-0.101498835
63	0x3ce26fde	0.027641233
64	0x3d12de6b	0.035856646
65	0x3d191558	0.03737387
66	0x3d1dce68	0.038526922
67	0xbc0bb1e7	-0.008526302
68	0xbdd1de35	-0.10247461
69	0x3d4f4aee	0.050608568
70	0x3d3c0738	0.04590532
71	0x3a51ed8c	0.00080081145
72	0xbaf9d0c5	-0.001905941
73	0xbdaea6a7	-0.0852788
74	0x3d6d060d	0.0578671
75	0x3c3839a4	0.011244211
76	0x3e06f31b	0.13178675
77	0x3d69bd32	0.057065196
78	0xbc19f190	-0.009395972
79	0xbddc82e8	-0.10767156
80	0x3d5d03b1	0.0539586
81	0xbbca3154	-0.006170431
82	0x3d9105a1	0.07081152
83	0xbd081b3b	-0.033229094
84	0x3d9e0644	0.07716039
85	0xbd6a13a6	-0.057147644
86	0xbc8457fd	-0.016155237
87	0xbd8325f3	-0.064037226
88	0x3dc6a92b	0.09700235
89	0x3d4a28ad	0.049355198
90	0x3cef6af0	0.029225796
91	0xbb47ea3f	-0.0030504612
92	0xbd63580d	-0.055503894
93	0xbd1ec4ce	-0.038761906
94	0x3df2e279	0.118596025
95	0x3d43a174	0.047761396
96	0xbd74ca82	-0.05976344
97	0x3c9c031f	0.019044457
98	0x3b9cf8a7	0.004790384
99	0x3d45feb3	0.048338603
100	0xbd524a8e	-0.051340632
101	0x3d15ecdf	0.03660285
102	0xbc89dae4	-0.016828008
103	0x3c3dccb7	0.011584452
104	0x3cf451f7	0.02982424
105	0xbde6b0b9	-0.11264176
106	0x3d0bce6d	0.03413241
107	0xbd307dce	-0.043088727
108	0x3dba92dd	0.09110043
109	0xbc407f5d	-0.011749116
110	0xbba1ec8c	-0.0049415287
111	0xbd2ab593	-0.04167707
112	0x3d6771eb	0.056505125
113	0x3c9a848b	0.01886203
114	0xb9f68f79	-0.00047027672
115	0xbcea3b6a	-0.028592784
116	0x3b407471	0.002936628
117	0xbb1ff242	-0.0024405872
118	0x3bbecdd5	0.005822877
119	0xbcadf9d8	-0.021237299
120	0x3cb75d09	0.02238323
121	0xba83f450	-0.0010067318
122	0x3d3bb690	0.045828402
123	0x3d7cef09	0.0617514
124	0x3ce68b88	0.028142706
125	0x3ce54b78	0.027990088
126	0xbdaed2a8	-0.08536273
127	0x0a104acb	6.947415e-33
128	0xbc51eee7	-0.012813306
129	0xbb0c0953	-0.0021367862
130	0x3d336c6f	0.043804582
131	0xbdfb4a57	-0.122700386
132	0xbd9978a7	-0.07493716
133	0xbd3bb5d6	-0.04582771
134	0xbd9b8acc	-0.07594833
135	0x3ceedb98	0.029157445
136	0x3c5e878f	0.013582124
137	0x3c71bd9e	0.014754681
138	0x3cd07266	0.025445174
139	0x3d9fadfe	0.07796858
140	0xbcaf1186	-0.02137066
141	0x3d9948cd	0.07484589
142	0x3dad7c14	0.08470932
143	0xbcf7bf9f	-0.03024274
144	0xbd39abd0	-0.04532987
145	0x3cfe73c1	0.031061055
146	0x3bfaa899	0.007649493
147	0xbd409205	-0.047014255
148	0xbd45e4d6	-0.048313938
149	0xbc99b601	-0.018763544
150	0x3d3ba3ec	0.045810625
151	0xbd7a1da2	-0.061063416
152	0xbd22c818	-0.039741606
153	0xbdbd31f9	-0.09238047
154	0x3d4b2c47	0.049602773
155	0x3d81dc3b	0.06340834
156	0xbd0c0656	-0.03418573
157	0x3b16bb53	0.0022999838
158	0xbd9089a7	-0.07057505
159	0x3d8cde4e	0.06878339
160	0xbca02539	-0.019549
161	0x3b64c0af	0.0034904887
162	0xbc954f6b	-0.018226346
163	0x3d01a176	0.03164812
164	0xbd7808ce	-0.06055527
165	0xbc22dc0c	-0.009940159
166	0xbbd3406a	-0.0064468877
167	0xbcf72522	-0.030169073
168	0xbca165a4	-0.019701786
169	0x3d52d19f	0.05146944
170	0x3d36a71e	0.04459297
171	0x3aea09d8	0.0017855717
172	0x3b6f4d21	0.0036514478
173	0xbd169b2e	-0.036769085
174	0x3d60e44c	0.05490522
175	0xbd049195	-0.0323654
176	0xbd9a0cce	-0.075219736
177	0x3cc347ce	0.02383795
178	0xbd46b2bf	-0.04851031
179	0x3dac25cc	0.08405647
180	0x3d18f799	0.037345503
181	0xbd6b72ec	-0.057482645
182	0xbda64f8b	-0.0812064
183	0xbd584a9e	-0.052805535
184	0xbd5328aa	-0.051552452
185	0xbd19db13	-0.03756244
186	0x3b9b3d3c	0.0047375243
187	0xbb11c92f	-0.002224516
188	0xbd8acb9f	-0.06777119
189	0xb9f9efb7	-0.00047671582
190	0x3c549b63	0.0129765
191	0xbd117e41	-0.035520796
192	0xbd9b1516	-0.07572381
193	0x3d4e0ea2	0.050306924
194	0xbd9e72ea	-0.07736762
195	0xbc8d0557	-0.01721446
196	0xbd803085	-0.06259254
197	0xbca32e84	-0.019919641
198	0xbd081cf3	-0.033230733
199	0x3d9b8c00	0.07595062
200	0x3cc4817a	0.02398752
201	0x3a32aac6	0.00068156084
202	0x3d4506c5	0.04810216
203	0x3c85bb0e	0.016324546
204	0x3a5cabf9	0.000841796
205	0x3da520db	0.08062907
206	0x3d0d4d93	0.03449781
207	0xbd1d4d35	-0.03840371
208	0x3cc040a2	0.02346832
209	0xbc8d9a27	-0.01728542
210	0x3d6436a8	0.055716187
211	0xbcaadcd4	-0.020857252
212	0x3d00ca14	0.031442717
213	0xbd0779cb	-0.033075135
214	0x3d3eba1f	0.046564218
215	0xbc858804	-0.016300209
216	0x3c6b1927	0.0143492585
217	0xbd4c1e74	-0.04983373
218	0xbcbd1a46	-0.023083817
219	0x3c01c90b	0.007921468
220	0xbd8e1df9	-0.069393106
221	0x3ca137d3	0.01967994
222	0x3d28c824	0.041206494
223	0x8a184328	-7.3311645e-33
224	0xbdc445f7	-0.09583657
225	0xbd5b1f0c	-0.053496405
226	0xbd8eb355	-0.069677986
227	0x3cb9f0c7	0.02269782
228	0x3c72c70b	0.014817963
229	0xbbc57b6c	-0.006026676
230	0xbc9a6ffa	-0.018852223
231	0xbdd1deb5	-0.10247556
232	0x3d4b668f	0.049658354
233	0xbd8820b7	-0.06646865
234	0xbc2eb368	-0.010662891
235	0x3d7b4d69	0.06135312
236	0x3c8b917e	0.01703715
237	0x3d03d761	0.032187823
238	0xbc34e931	-0.011041925
239	0xbd685250	-0.056719124
240	0xbd50671e	-0.05087959
241	0xbd244940	-0.04010892
242	0x3da97501	0.0827427
243	0xbdbc97d7	-0.09208649
244	0x3dadfa71	0.084950335
245	0x3d5d62c4	0.05404927
246	0xbdbee417	-0.093208484
247	0xbd1fe353	-0.039035153
248	0xbd68344d	-0.056690503
249	0x3d5bd2a9	0.053667698
250	0xbbd50a6a	-0.0065014856
251	0xbc0f54f6	-0.008748284
252	0x3b14648e	0.0022642943
253	0xbd74ae50	-0.05973655
254	0xbd2f99dc	-0.04287134
255	0x3d2df2c7	0.04246786
