database/vectordb/b7ce95b413a1bd79701711073874ef76.npy (npy, 1664 bytes, 1 tensors)

array f4 [384]
000000 e8 37 0f bc f5 fa 88 3d e9 47 4f ba 17 d9 47 39
       -0.008741356 0.06688491 -0.0007907139 0.00019058991
000010 f6 7c 78 3c a2 cd 09 bd 72 dd 92 3d a7 02 83 bd
       0.015166512 -0.033643372 0.071711436 -0.0639699
000020 92 ff 48 3d 5e fe 49 ba bf fc 38 bd 9b 61 6f bd
       0.049071856 -0.0007705445 -0.045162912 -0.058442693
000030 a7 86 38 bd 6f 6b 3a bd 67 85 cd 3c 67 10 22 bd
       -0.04505029 -0.045512613 0.025088025 -0.039566424
000040 cf bf c3 3c 98 2b 0d 3c 1c 0f 8d 3c 98 07 77 3d
       0.023895172 0.008616351 0.017219119 0.060309976
000050 5a 0f 0b 3e 3a 7c 85 bd 1a 94 c0 bb 32 9a b1 bd
       0.13580075 -0.06517835 -0.00587703 -0.086719885
000060 0f 81 2c bd c2 0b 16 3c 87 1f f2 3c 45 0e 70 bd
       -0.042115267 0.009158077 0.029556049 -0.05860736
000070 02 16 a1 3d 09 83 0c bd 55 27 9f 3d f1 a7 90 3c
       0.07865526 -0.034304652 0.07771174 0.017658206
000080 3d b8 38 bd 81 6b 4b 3d f3 a8 45 ba 19 7a 1d bb
       -0.04509758 0.04966307 -0.0007540129 -0.0024029075
000090 e8 d1 79 3c e5 07 f0 3c 8f 09 cf 3c f6 74 21 bd
       0.015247799 0.02930064 0.025273113 -0.039418183
0000a0 5c 7d 9c bc aa ba 10 bd 57 ac 8e bd 68 c9 1d 3c
       -0.019102745 -0.035334267 -0.06966465 0.0096305385
0000b0 76 35 ef bc 25 a0 04 3d 2a 90 80 3d 29 60 e4 3c
       -0.029200297 0.03237929 0.06277497 0.027877884
0000c0 53 94 17 3d 7c 9a a3 bd d9 41 01 be 46 92 5c bd
       0.037006687 -0.0798845 -0.12622775 -0.053850435
0000d0 d8 20 4a bd 21 04 9b bd 63 8c d8 bc fb 1e cc 3d
       -0.04934773 -0.07569147 -0.02643413 0.099668466
0000e0 5e b1 c6 3c ed 4a 16 3c 37 98 0a 3d 87 26 2c bd
       0.024254497 0.009173137 0.03383657 -0.04202893
0000f0 41 4d 9f 3d 4a 8d 2d 3d aa e6 98 3b 13 92 52 3d
       0.07778407 0.042371072 0.004666169 0.05140884
000100 2a 8e 32 3d ed 30 9f 3c 4c d7 50 bc 9c 50 81 bd
       0.04359261 0.01943251 -0.012746643 -0.06314203
000110 fe 53 9f bc 54 da f9 3c b1 ac aa 3d 0d ed 40 3d
       -0.01944923 0.030499615 0.083337195 0.04710107
000120 71 b4 59 ba c3 74 f9 bc 00 d3 a6 3c 33 b4 8d bd
       -0.0008304781 -0.030451184 0.020364285 -0.06919136
000130 74 ee 9f bc 05 69 8c bd 02 58 35 3d 21 66 bd bc
       -0.019522883 -0.068559684 0.044273384 -0.023119988
000140 f2 21 65 3d b6 58 a1 3d c8 ae c8 bc 11 56 82 3d
       0.055940576 0.078782484 -0.024497405 0.06364072
000150 87 97 20 bd 14 8a 18 3d d5 7a 84 bd 57 db 95 bd
       -0.039207008 0.037241057 -0.06468741 -0.073172264
000160 ca 85 52 bd 0f 92 d1 3c d9 55 5c bd db c0 1c be
       -0.051397122 0.025582341 -0.05379281 -0.15307944
000170 a9 18 03 be cb 74 12 bd 75 d7 8b 3a df 4f af bd
       -0.12802376 -0.035755914 0.001066907 -0.08560156
000180 52 77 8b bc a7 31 d0 3c be aa 46 bc 1b bf 53 3c
       -0.01702467 0.025414301 -0.012125669 0.012923981
000190 65 75 8f 3d 2e 1c 08 3b a0 35 53 3b f2 47 be bb
       0.07004813 0.002076875 0.0032228008 -0.0058069164
0001a0 4d 9f 32 bd 87 b8 51 bd 51 dc e4 bc 16 4b be bc
       -0.043608952 -0.05120137 -0.027937086 -0.023229163
0001b0 1a bd a5 3b 70 8e 3f 3d f4 28 14 3d 46 1b af bd
       0.005057943 0.0467667 0.03617187 -0.08550124
0001c0 55 f2 93 bc b4 fc 15 bd 5d 18 06 3c 1c bf e1 3d
       -0.018059889 -0.03661795 0.00818452 0.11022779
0001d0 47 ca a2 bd 9c c5 96 3d 2a 21 f7 bc 92 7c 11 bd
       -0.079487376 0.0736191 -0.030167181 -0.03551919
0001e0 29 3a 05 3d dd 4a 8d 3d 95 31 8c 3d 1f 19 20 3e
       0.03252617 0.06899045 0.068453945 0.15634583
0001f0 80 00 de 3c 85 64 af bd 70 1e dd bc 98 ca 53 08
       0.027099848 -0.085640945 -0.026992053 6.373365e-34
000200 ee e3 3f bc 88 9e 1c 3d 91 b3 44 3c 78 46 41 bc
       -0.0117120575 0.038237125 0.012005703 -0.011796586
000210 d6 57 85 bc 03 ed c4 3c c2 30 b3 3c 26 c7 72 3b
       -0.016277235 0.024038797 0.021873835 0.0037044971
000220 d1 2a 1c 3d 62 ba cf 3c 6a 74 23 3d a0 72 cd 3c
       0.03812677 0.025357429 0.039905943 0.025079072
000230 3e e6 79 3c aa 22 fa 3d 16 11 17 bc d2 d9 56 bb
       0.015252648 0.12213643 -0.009220382 -0.003278364
000240 48 71 8f 3c 35 97 3a 3d 31 76 80 bd ba f9 ac bc
       0.017510071 0.04555436 -0.06272543 -0.021115173
000250 aa a2 a6 bc e8 86 87 bc 79 06 28 3c 7d 93 6a bd
       -0.020341236 -0.01654382 0.010255449 -0.057269562
000260 45 cd 17 bd 79 0e 38 3d 3e 4f c1 bc cd e4 5e 3a
       -0.037060995 0.044935677 -0.023597356 0.0008502722
000270 69 31 2e bd 86 7c 00 3d 70 b0 15 bd 5b e7 fc 3d
       -0.04252759 0.031368755 -0.036545217 0.12348815
000280 c0 17 23 bd 2d df 56 3b 01 02 8f bc cb 17 c6 3c
       -0.03981757 0.0032786832 -0.01745701 0.024181267
000290 b4 b1 f1 ba f7 f0 65 bc 7c 33 e9 bc fc f2 a7 bc
       -0.00184398 -0.014034501 -0.028466932 -0.020501606
0002a0 a9 e1 34 3c 5c c2 1d 3c 58 53 8e bc 0c fc 95 3c
       0.01104013 0.009628858 -0.017373726 0.018308662
0002b0 08 b8 12 bd 31 d0 1c 3d c5 36 2c 3c 18 e9 1e 3d
       -0.035820037 0.038284484 0.010511105 0.038796514
0002c0 49 0f 84 bd 86 d7 d1 3d 6d 94 1e 3d 5e 06 15 bc
       -0.06448228 0.10246186 0.03871577 -0.009095756
0002d0 38 8b 6e 3c 4f b7 f3 bd 3b b5 a2 bb 82 14 da bc
       0.0145595595 -0.11900198 -0.004965452 -0.026621107
0002e0 ff c6 37 bd 2f ce 6c bd 06 60 41 3d 17 ab 58 bd
       -0.04486751 -0.05781382 0.047210716 -0.05289754
0002f0 9c ac 5d 3d 02 0c e8 bd 02 1e 31 bd ed 89 a3 3d
       0.05411969 -0.11330415 -0.04324151 0.07985292
000300 2c 03 6b bd ce f9 31 bb 63 46 30 bd c9 21 a7 bd
       -0.05737607 -0.0027156952 -0.043035876 -0.08160741
000310 18 36 2a bd 97 8a c6 3d ed a0 08 be 24 7a 89 bb
       -0.041555494 0.09694403 -0.13342638 -0.0041954685
000320 12 b2 96 bd ab 62 9c bd 47 87 b3 3b df c8 39 bd
       -0.07358183 -0.07636007 0.005478773 -0.04535758
000330 dd 12 06 bd 34 4d 95 3d 1b 0b 7c 3c a0 0c 99 3d
       -0.032732833 0.07290116 0.015383507 0.07473111
000340 1b 6e 8a 3c 6e 8d 11 bd b5 a8 c6 3a 47 51 94 bd
       0.016898206 -0.03553527 0.001515648 -0.07242065
000350 fa 68 06 be 51 9c 15 3c e0 5e b7 ba 13 33 9f bd
       -0.13125983 0.009131507 -0.0013990067 -0.077734135
000360 6f f3 1c bd 39 54 29 3c 91 6f b7 3c 4e 6f 4b bd
       -0.038318094 0.010335022 0.022392066 -0.049666695
000370 56 0d cd bc 9f 5a e5 bc 97 07 81 bd 12 52 b2 89
       -0.025030773 -0.027997313 -0.06300276 -4.292912e-33
000380 1e fd e4 bc 10 ab 7b bd 35 0f 42 bd 09 04 53 3d
       -0.027952727 -0.061442435 -0.047377784 0.05151752
000390 ba fa 4f 3c 44 15 81 bd 68 c6 bc bc 47 63 92 bb
       0.012694055 -0.06302884 -0.023043826 -0.004467401
0003a0 62 3e 03 bd 51 36 21 bb 6c 3d 2e bd cb 08 38 3c
       -0.032041915 -0.0024599025 -0.042539045 0.011232565
0003b0 4b d5 8c bc f5 ea f8 b9 19 9d 64 bd 9e 15 47 bc
       -0.01719155 -0.00047477303 -0.055813882 -0.01215115
0003c0 cc 8f c7 3d 01 e6 67 3c 13 97 89 bd 26 05 8b 39
       0.09744224 0.014153958 -0.06718268 0.00026515982
0003d0 2d 5c 26 3d 1c a5 00 3d 6e 82 91 bb eb 9a 98 bd
       0.04061525 0.03140746 -0.0044405973 -0.07451423
0003e0 f5 b7 83 3c ef f4 b0 3d 61 d7 62 3d 62 fc 87 bd
       0.016078928 0.086404674 0.055381183 -0.06639935
0003f0 53 15 8e bd d3 54 94 3b a7 b5 91 bc cb 1c 25 bd
       -0.06937661 0.0045267134 -0.017786814 -0.040310662
