database/vectordb/b7ce95b413a1bd79701711073874ef76.npy (npy, 1664 bytes, 1 tensors)

array f4 [384]
-0.0087413555 0.066884905 -0.0007907138 0.0001905899 0.01516651 -0.03364337 0.07171143 -0.063969895
0.049071852 -0.0007705444 -0.045162905 -0.05844269 -0.045050282 -0.04551261 0.025088023 -0.03956642
0.02389517 0.00861635 0.017219117 0.060309973 0.13580073 -0.06517834 -0.005877029 -0.08671987
-0.042115264 0.009158076 0.029556047 -0.058607355 0.07865525 -0.03430465 0.07771173 0.017658204
-0.045097575 0.049663067 -0.00075401284 -0.0024029072 0.015247798 0.029300638 0.02527311 -0.039418176
-0.019102743 -0.035334263 -0.06966465 0.009630538 -0.029200293 0.032379285 0.06277496 0.02787788
0.037006684 -0.07988449 -0.12622774 -0.05385043 -0.04934772 -0.07569146 -0.026434125 0.09966845
0.024254495 0.009173136 0.033836566 -0.042028926 0.07778406 0.04237107 0.0046661687 0.051408835
0.043592606 0.019432507 -0.012746642 -0.063142024 -0.019449227 0.030499611 0.08333719 0.047101066
-0.000830478 -0.03045118 0.020364283 -0.06919135 -0.019522881 -0.068559684 0.04427338 -0.023119986
0.05594057 0.07878248 -0.024497401 0.06364071 -0.039207004 0.037241053 -0.06468741 -0.07317226
-0.05139712 0.02558234 -0.0537928 -0.15307942 -0.12802374 -0.03575591 0.0010669068 -0.085601546
-0.017024668 0.0254143 -0.012125668 0.01292398 0.07004812 0.002076875 0.0032228006 -0.0058069155
-0.043608945 -0.051201366 -0.027937084 -0.023229161 0.0050579426 0.046766695 0.036171865 -0.085501224
-0.018059887 -0.036617946 0.008184519 0.11022778 -0.07948737 0.07361909 -0.03016718 -0.035519186
0.032526165 0.06899044 0.06845394 0.15634581 0.027099844 -0.08564094 -0.02699205 6.3733646e-34
-0.011712057 0.03823712 0.012005702 -0.011796585 -0.016277233 0.024038795 0.021873832 0.003704497
0.038126767 0.025357427 0.03990594 0.025079068 0.015252647 0.12213642 -0.009220381 -0.0032783637
0.01751007 0.045554355 -0.062725425 -0.02111517 -0.020341234 -0.016543819 0.0102554485 -0.057269555
-0.03706099 0.044935673 -0.023597354 0.0008502721 -0.042527586 0.03136875 -0.036545213 0.12348814
-0.039817568 0.003278683 -0.017457008 0.024181265 -0.0018439798 -0.014034499 -0.02846693 -0.020501604
0.011040129 0.0096288575 -0.017373724 0.01830866 -0.035820033 0.03828448 0.010511104 0.03879651
-0.06448227 0.10246185 0.038715765 -0.009095755 0.014559558 -0.11900196 -0.0049654515 -0.026621105
-0.044867504 -0.057813816 0.047210712 -0.052897535 0.054119688 -0.11330414 -0.043241505 0.0798529
-0.057376068 -0.002715695 -0.043035872 -0.0816074 -0.04155549 0.09694402 -0.13342637 -0.004195468
-0.07358182 -0.07636006 0.0054787723 -0.045357578 -0.032732833 0.07290115 0.015383505 0.074731104
0.016898204 -0.035535265 0.0015156479 -0.07242064 -0.13125981 0.009131506 -0.0013990066 -0.07773413
-0.03831809 0.010335021 0.022392064 -0.04966669 -0.025030771 -0.02799731 -0.06300275 -4.2929116e-33
-0.027952723 -0.061442427 -0.047377776 0.051517513 0.012694054 -0.063028835 -0.023043824 -0.0044674007
-0.03204191 -0.0024599023 -0.04253904 0.011232564 -0.017191548 -0.00047477297 -0.05581388 -0.012151149
0.09744223 0.014153956 -0.067182675 0.0002651598 0.040615246 0.031407457 -0.004440597 -0.074514225
0.016078927 0.08640467 0.055381175 -0.06639934 -0.0693766 0.004526713 -0.017786812 -0.04031066
00000000: e737 0fbc f4fa 883d e847 4fba 16d9 4739
00000010: f47c 783c a1cd 09bd 71dd 923d a602 83bd
00000020: 91ff 483d 5cfe 49ba bdfc 38bd 9a61 6fbd
00000030: a586 38bd 6e6b 3abd 6685 cd3c 6610 22bd
00000040: cebf c33c 972b 0d3c 1b0f 8d3c 9707 773d
00000050: 590f 0b3e 397c 85bd 1894 c0bb 309a b1bd
00000060: 0e81 2cbd c10b 163c 861f f23c 440e 70bd
00000070: 0116 a13d 0883 0cbd 5427 9f3d f0a7 903c
00000080: 3cb8 38bd 806b 4b3d f2a8 45ba 187a 1dbb
00000090: e6d1 793c e407 f03c 8e09 cf3c f474 21bd
000000a0: 5b7d 9cbc a9ba 10bd 57ac 8ebd 67c9 1d3c
000000b0: 7435 efbc 24a0 043d 2990 803d 2760 e43c
000000c0: 5294 173d 7b9a a3bd d841 01be 4592 5cbd
000000d0: d620 4abd 2004 9bbd 618c d8bc f91e cc3d
000000e0: 5db1 c63c ec4a 163c 3698 0a3d 8626 2cbd
000000f0: 404d 9f3d 498d 2d3d a9e6 983b 1292 523d
00000100: 298e 323d ec30 9f3c 4bd7 50bc 9b50 81bd
00000110: fc53 9fbc 52da f93c b0ac aa3d 0ced 403d
00000120: 6fb4 59ba c174 f9bc ffd2 a63c 32b4 8dbd
00000130: 73ee 9fbc 0569 8cbd 0158 353d 2066 bdbc
00000140: f021 653d b558 a13d c6ae c8bc 1056 823d
00000150: 8697 20bd 138a 183d d57a 84bd 56db 95bd
00000160: c985 52bd 0e92 d13c d755 5cbd dac0 1cbe
00000170: a818 03be ca74 12bd 74d7 8b3a dd4f afbd
00000180: 5177 8bbc a631 d03c bdaa 46bc 1abf 533c
00000190: 6475 8f3d 2e1c 083b 9f35 533b f047 bebb
000001a0: 4b9f 32bd 86b8 51bd 50dc e4bc 154b bebc
000001b0: 19bd a53b 6f8e 3f3d f328 143d 441b afbd
000001c0: 54f2 93bc b3fc 15bd 5c18 063c 1abf e13d
000001d0: 46ca a2bd 9bc5 963d 2921 f7bc 917c 11bd
000001e0: 283a 053d dc4a 8d3d 9431 8c3d 1e19 203e
000001f0: 7e00 de3c 8464 afbd 6f1e ddbc 97ca 5308
00000200: ede3 3fbc 879e 1c3d 90b3 443c 7746 41bc
00000210: d557 85bc 02ed c43c c030 b33c 25c7 723b
00000220: d02a 1c3d 61ba cf3c 6974 233d 9e72 cd3c
00000230: 3de6 793c a922 fa3d 1511 17bc d1d9 56bb
00000240: 4771 8f3c 3497 3a3d 3076 80bd b9f9 acbc
00000250: a9a2 a6bc e786 87bc 7806 283c 7b93 6abd
00000260: 44cd 17bd 780e 383d 3d4f c1bc cbe4 5e3a
00000270: 6831 2ebd 857c 003d 6fb0 15bd 5ae7 fc3d
00000280: bf17 23bd 2cdf 563b 0002 8fbc ca17 c63c
00000290: b2b1 f1ba f5f0 65bc 7b33 e9bc fbf2 a7bc
000002a0: a8e1 343c 5bc2 1d3c 5753 8ebc 0bfc 953c
000002b0: 07b8 12bd 30d0 1c3d c436 2c3c 17e9 1e3d
000002c0: 480f 84bd 85d7 d13d 6c94 1e3d 5d06 15bc
000002d0: 368b 6e3c 4db7 f3bd 3ab5 a2bb 8114 dabc
000002e0: fdc6 37bd 2ece 6cbd 0560 413d 16ab 58bd
000002f0: 9bac 5d3d 000c e8bd 011e 31bd eb89 a33d
00000300: 2b03 6bbd cdf9 31bb 6246 30bd c821 a7bd
00000310: 1736 2abd 968a c63d eca0 08be 237a 89bb
00000320: 11b2 96bd aa62 9cbd 4687 b33b dec8 39bd
00000330: dd12 06bd 334d 953d 190b 7c3c 9f0c 993d
00000340: 1a6e 8a3c 6d8d 11bd b4a8 c63a 4651 94bd
00000350: f968 06be 509c 153c df5e b7ba 1233 9fbd
00000360: 6ef3 1cbd 3854 293c 906f b73c 4d6f 4bbd
00000370: 550d cdbc 9d5a e5bc 9607 81bd 1152 b289
00000380: 1cfd e4bc 0eab 7bbd 330f 42bd 0704 533d
00000390: b9fa 4f3c 4315 81bd 67c6 bcbc 4663 92bb
000003a0: 613e 03bd 5036 21bb 6b3d 2ebd ca08 383c
000003b0: 4ad5 8cbc f3ea f8b9 189d 64bd 9d15 47bc
000003c0: cb8f c73d ffe5 673c 1297 89bd 2505 8b39
000003d0: 2c5c 263d 1ba5 003d 6d82 91bb ea9a 98bd
000003e0: f4b7 833c eef4 b03d 5fd7 623d 61fc 87bd
000003f0: 5215 8ebd d254 943b a6b5 91bc ca1c 25bd
