database/vectordb/b833a4071ee6757e10def48949fc6207.npy (npy, 1664 bytes, 1 tensors)

array f4 [384]
00000000: b76a 113c 466c ad3d 1d23 37bd 7d42 293c
00000010: 6715 983b 30c2 51bc a24f 003d f7b7 d1bc
00000020: fd57 093e db13 493c 0f44 6a3d 5c1e 08be
00000030: 0948 e43c b9f9 373d e40a 0abd 3285 a5bd
00000040: e19d 5bbc f14e 21bb 2804 5ebd bf12 203d
00000050: 1876 a5bd c172 19bd 0080 c9bc bdad 503d
00000060: 05da 62bb 1e8c be3c 2638 8e3d 86b0 46bd
00000070: 482b 4e3d 20a8 093d 1c67 9b3d 0673 3b3e
00000080: 67c0 99bc 2361 15bc 0269 57bd 6cd2 923d
00000090: 904b 16bc dee8 c2bb 9ebe 353d f982 2c3d
000000a0: bcb5 49bc c02b 58bc 3c9c 563c 6acc 81bc
000000b0: 34ea 673c f71c bc3c 3e25 d53b b985 e53c
000000c0: aa91 85bd e01b 423d 2e70 0cbe 72ff 7c3b
000000d0: e106 183c e11a 55bd 7461 a13d fdc2 133a
000000e0: 7f7d 153d b4ab d4bc 3501 86bb d76a ffbc
000000f0: bce7 e33c 86ba 51bd 957b 45bd 22cb 8e3a
00000100: d851 163d 6a90 2e3d 4e5c 14bd 85e7 8f3c
00000110: 08da 24bb 5eb5 81bc 5c96 403d 2415 2e3d
00000120: da43 1d3d ccde 0e3d 5db7 003c d856 a13d
00000130: f693 b33c 549f d93c fe7d f1bc ba79 35bd
00000140: dd24 aa3d f006 283d 2395 3fbd af22 cebd
00000150: 814c 28bc 0dd4 b7bc bf41 6cbc 1ef7 6c3d
00000160: 2635 973c e203 a23d 7afd e6bc ac64 a9bd
00000170: 595f d1bc 069e 42b9 b556 903d 1c64 713d
00000180: 5ab7 b53c e553 4ebd caec c83d 3e74 ac3b
00000190: a036 513d 0536 3a3d 6dc0 c53a e92c b13d
000001a0: 0197 efbb b498 dbbd f308 43bd 81ff 37bd
000001b0: 48ac bfbc 1305 a4bc f4e1 98bd de2c 08bd
000001c0: 9d49 01bd 426f 02bd 7ef2 b43c 0872 a73b
000001d0: bdf6 db3c 4bbc 203c 699c 863a 6cbc f2bd
000001e0: 8656 313c d996 e13c a85c 463c 3f4c a1bc
000001f0: 61da b73c 583d babd 866d 15bb 3737 050a
00000200: c72e 84bc e6fd a1bd a271 15bd 120d 173c
00000210: ce38 0cbb 0be3 ad3b 81fa 9fbd 316d c73b
00000220: cafa 4b3d 1b69 4fbd e986 fa3c 2bdf 093e
00000230: 12c1 8c3c b732 9d3d a7a2 efbc 6237 1a3d
00000240: 2521 a8bd fa00 2dbc 4fdd 1e3d 25fe 243d
00000250: 61ce d2bc 2666 6f3d 7472 2a3d ccab eebd
00000260: d58b 5bbc f0ae 7bbb a122 4f3a bf61 333c
00000270: 25ee e1bd fc34 f1bb 05a8 b33c a355 1f3d
00000280: a4b7 de3a d529 b7bd ce3e e6bc 55e3 0fbc
00000290: de26 14bc 422f 01bd 7519 e73c 09c6 79bd
000002a0: fec5 97bc 2f99 823c fc9b dfbd 5e24 d53b
000002b0: c297 993c 8ee2 283d f637 173e ee64 d0bc
000002c0: 405f 5bbd eb8b 47bb 7f32 4ebc 8d57 4dbd
000002d0: a593 153b e010 e6bd 31b6 09bd 2d21 333d
000002e0: 0125 6a3a 0a4d 033c aa23 b2bd a95d 4abd
000002f0: ac6b 3bbd 939d 383c 9965 783c f65f 9e3d
00000300: a105 80bc 9db0 c23c fff8 97bc 8e90 b0bc
00000310: 0b8b 9d3d de31 ecbb 8464 a8bb 41a8 69bc
00000320: 3df0 fbbc 350f 093d 9bef 50bc 609e 303d
00000330: c933 863d 8399 98bc a243 613b effb 233d
00000340: 4e72 dcbd 7c99 78ba 152c 8cbd 971b a5bc
00000350: b343 3d3d f557 6a3d 4edc 303d 2f7e 49bc
00000360: 747d 863c 6975 e4bc af0d 13bd 2639 05bd
00000370: 0b8c 2b3d 001c 6f3d f9cb 9c3c 4e8b 398a
00000380: a6fd 8c3c 6f96 59bd 3678 f0bd 6ab2 183d
00000390: 3138 e43c 5c1f 20bd 1c62 85bd 2e3b 38bc
000003a0: 67bf 91bd 930b 38bd aa46 f4bc c434 49bd
000003b0: 1462 a23b 46fb d53c 545f 8abd 00fb a6bd
000003c0: f67c 433d ea20 b63b f0e1 8abc a083 64bc
000003d0: 120f 23bd 99f1 1f3e 685b 06be 85e4 5bbd
000003e0: 2ae6 4bbd 242b f73c 3f4e b33c 41ce 0bbd
000003f0: bb18 d3bd e17a cb3c d7be 62bc 41b3 88bc
0.00887554 0.08467917 -0.04471122 0.010330793 0.0046412232 -0.012802646 0.031325944 -0.025600417
0.13412471 0.0122728 0.057193812 -0.13292831 0.02786638 0.04491589 -0.033701792 -0.080820456
-0.0134043405 -0.0024613703 -0.054203182 0.039080378 -0.08079165 -0.037462953 -0.024597168 0.05094694
-0.0034614813 0.023260172 0.06944303 -0.04850819 0.050334245 0.033607602 0.07588026 0.18305597
-0.018768502 -0.0091173975 -0.052590378 0.07169041 -0.009173289 -0.00594817 0.04437124 0.042117093
-0.012311395 -0.013194025 0.013098773 -0.015844543 0.0141549595 0.02296303 0.0065046838 0.028017865
-0.06521924 0.047389865 -0.13714668 0.0038604406 0.009278984 -0.052027587 0.07879916 0.00056366605
0.036496636 -0.02596078 -0.0040894994 -0.031178875 0.02782046 -0.051203273 -0.04821356 0.0010894279
0.036699146 0.042618193 -0.03622084 0.017566452 -0.002515437 -0.015833553 0.047018394 0.04250063
0.038394786 0.034880444 0.007856217 0.07877892 0.02192114 0.026565231 -0.029479023 -0.04430554
0.08307812 0.04102224 -0.046773087 -0.10065209 -0.010272146 -0.02243998 -0.014419972 0.057852857
0.01845796 0.07910897 -0.028197039 -0.08271155 -0.02555816 -0.0001856015 0.07047788 0.058933362
0.022182155 -0.050372977 0.09810789 0.0052628806 0.051077485 0.045461673 0.0015087255 0.08651144
-0.0073117022 -0.10722485 -0.047615957 -0.044921402 -0.02339758 -0.02002195 -0.07464972 -0.033245914
-0.031564344 -0.031844385 0.022088286 0.005110029 0.026851052 0.009810518 0.0010270003 -0.11852345
0.010823851 0.02753775 0.012107052 -0.019689677 0.022442998 -0.09093732 -0.0022800877 6.414102e-33
-0.016135586 -0.079097554 -0.03648532 0.009219425 -0.0021396163 0.0053066066 -0.07811452 0.0060860147
0.049799718 -0.050637346 0.030581908 0.13464038 0.017181907 0.07675689 -0.029252363 0.037650473
-0.08209447 -0.010559315 0.038785275 0.040281434 -0.025733175 0.058447026 0.041613057 -0.116538614
-0.013400038 -0.0038403831 0.00079015834 0.010948597 -0.110317506 -0.0073610526 0.021930704 0.03890003
0.0016991985 -0.08943526 -0.02810612 -0.0087822275 -0.00904247 -0.03153921 0.028210381 -0.060979877
-0.018527027 0.015942184 -0.109184235 0.0065045794 0.018749122 0.041231684 0.14767441 -0.025438752
-0.053557634 -0.0030448388 -0.012585281 -0.050132323 0.0022823599 -0.112336874 -0.033621017 0.04373281
0.00089319056 0.008013973 -0.08698209 -0.049405728 -0.04575698 0.011268037 0.0151609415 0.07733147
-0.015627684 0.023765856 -0.018551348 -0.021553304 0.07692536 -0.007208093 -0.0051389355 -0.014261306
-0.030754203 0.03346177 -0.012752439 0.04311979 0.06552846 -0.018627888 0.0034372588 0.040035184
-0.107639894 -0.000948332 -0.068443455 -0.020154757 0.04620714 0.05721279 0.04317885 -0.012298151
0.016417243 -0.027888017 -0.03590172 -0.032525204 0.041881602 0.058376312 0.01914023 -8.933626e-33
0.017210793 -0.05312198 -0.117416784 0.037279524 0.027858825 -0.039092407 -0.065128535 -0.011244578
-0.07116585 -0.044932913 -0.029818852 -0.049122587 0.0049555395 0.026120793 -0.06756464 -0.08153343
0.047726594 0.005558123 -0.016953439 -0.0139473975 -0.039809294 0.15619506 -0.13120806 -0.05368473
-0.04978005 0.030171938 0.021887897 -0.034132246 -0.10307451 0.024838867 -0.013839445 -0.016687037
