database/vectordb/b8ae90be83833a861c6caec1fad7b3ed.npy (npy, 1664 bytes, 1 tensors)

array f4 [384]
0	0xbd80e0cc	-0.062928766
1	0x39b61211	0.00034727206
2	0x3cad4d98	0.021155164
3	0xbd3cf27a	-0.04612968
4	0xbd97c6c3	-0.07410958
5	0xbd4776f9	-0.048697446
6	0x3d067b57	0.03283247
7	0x3a8882fe	0.0010415015
8	0xbd469b76	-0.048488103
9	0x3d679075	0.05653425
10	0x3c01e36c	0.007927757
11	0x3c1ecef1	0.009692893
12	0x3cf73665	0.030177305
13	0xbd946fa1	-0.07247854
14	0xbd623f14	-0.055235937
15	0xbbfd5b33	-0.007731819
16	0xbceba2d6	-0.02876417
17	0x3c80d517	0.01572661
18	0xbda8633b	-0.08222052
19	0x3e06c5ae	0.13161346
20	0x3e068b66	0.13139114
21	0xbc818608	-0.015810981
22	0xbbbec83d	-0.00582221
23	0xbc31d965	-0.010855054
24	0x3d987500	0.07444191
25	0xbd6c950d	-0.057759333
26	0xbdbaf3fc	-0.091285676
27	0xbd4fa055	-0.050690014
28	0x3d6b355d	0.057423938
29	0xbd58a21e	-0.052888982
30	0x3d4d4b1f	0.05012047
31	0x3ce7bb1a	0.02828746
32	0xbd4e1d2a	-0.05032078
33	0x3d3c1bfa	0.045925118
34	0xbb914712	-0.004433521
35	0xbc0a4cef	-0.008441194
36	0x3dd62e9d	0.104581095
37	0x3c4194c3	0.011815253
38	0x3d8081dc	0.06274769
39	0xbd99a9d5	-0.07503096
40	0x3d5036a5	0.050833363
41	0x3d2450fa	0.040116288
42	0x3ba43bf3	0.0050120293
43	0x3aed9e71	0.0018128884
44	0xbda5d9ce	-0.080981836
45	0x3c0c6102	0.00856805
46	0x3d838a39	0.06422848
47	0xbc18c780	-0.009324908
48	0xbb6d7640	-0.0036233813
49	0x3ba8cf9d	0.0051517026
50	0x3d82649f	0.06366848
51	0x3c920b54	0.017827667
52	0x3d2c722c	0.04210107
53	0xbd440bc1	-0.047862772
54	0xbc50ecab	-0.012751739
55	0xbd83f92c	-0.0644401
56	0xbd547e3d	-0.051878203
57	0xbd6adc06	-0.057338737
58	0x3c2893b2	0.01028912
59	0x3aac916d	0.0013165899
60	0xbd609984	-0.054833904
61	0x3c43dab1	0.011953996
62	0x3d1c942a	0.038227238
63	0xbd1cfdc8	-0.038327962
64	0xbcda7c0c	-0.026670478
65	0xbcdd4614	-0.027010955
66	0x3d8ae6fc	0.06782338
67	0xbd6c67ac	-0.057716057
68	0xbd416534	-0.047215655
69	0xbd3484d1	-0.044071976
70	0xbd3f972b	-0.046775024
71	0x3c3ee585	0.011651401
72	0x3cfc3396	0.030786317
73	0xbd2c9ac4	-0.042139784
74	0xbce88680	-0.028384447
75	0xbd3ad537	-0.045613494
76	0xbd42b5a7	-0.04753652
77	0x3d8c84cd	0.06861267
78	0xbddabe22	-0.10680796
79	0xbe1ddd01	-0.15416338
80	0xbd6d8f4d	-0.05799799
81	0x3d1c5690	0.03816849
82	0x3da85f75	0.08221332
83	0x3db51c74	0.08843318
84	0x3c66f58d	0.01409663
85	0xbd5152b0	-0.051104248
86	0xbd266d16	-0.040631376
87	0x3b64ab0e	0.0034891996
88	0x3d9cff8a	0.07665928
89	0xbc8e5090	-0.0173724
90	0x3d5809db	0.052743774
91	0xbb04545a	-0.002019188
92	0x3d30f05f	0.043197986
93	0x3caf41b6	0.021393638
94	0x3d72f937	0.0593197
95	0xbc782ff4	-0.015148152
96	0x3d8c75c6	0.06858401
97	0xbcb71c90	-0.022352487
98	0x3d7b14f9	0.061299298
99	0x3dc80da7	0.09768229
100	0xbd3394c9	-0.043843064
101	0x3d22d918	0.039757818
102	0xbb403c75	-0.002933291
103	0x3d054e84	0.03254558
104	0xbdc71a30	-0.09721792
105	0xbcb2c81e	-0.021823939
106	0xbd74d5fc	-0.059774384
107	0x3c89dbf3	0.016828513
108	0xbd8484f1	-0.06470669
109	0xbd8629e9	-0.065509625
110	0xbdc04b37	-0.09389346
111	0xbd0bec6e	-0.034161024
112	0x3d1e6890	0.038673937
113	0xbcd2cf3f	-0.025733588
114	0x3b8bc105	0.004264953
115	0x3da228e9	0.07917959
116	0xbc73ccf4	-0.014880408
117	0xbcf942db	-0.030427387
118	0x3c4c45ba	0.012467796
119	0xbdab977e	-0.08378504
120	0x3ba2d2ba	0.004968968
121	0x3bc5bd67	0.0060345414
122	0xbc16f758	-0.009214245
123	0xbcd9278d	-0.026508117
124	0x3d29cc08	0.041454345
125	0x3cf751d5	0.030190388
126	0x3da306af	0.07960259
127	0x098eed5b	3.4408465e-33
128	0xba2da411	-0.0006623874
129	0x3d164707	0.03668883
130	0xbc3a73d0	-0.011380151
131	0x3d9e408f	0.07727157
132	0xbd43a415	-0.047763903
133	0x3d35cda8	0.044385582
134	0x3c91c0fb	0.017792216
135	0x3d8acd12	0.06777395
136	0xbbbb774c	-0.0057210084
137	0xbbaf2d30	-0.005345963
138	0x3c4e91d6	0.012608012
139	0xbd9353e9	-0.07193739
140	0x3d03344f	0.032032307
141	0xbd406215	-0.04696854
142	0x3d49943c	0.049213633
143	0xbd228f25	-0.039687295
144	0xbcbc373c	-0.022975557
145	0x3b079ded	0.0020693496
146	0x3d33ae57	0.043867435
147	0xbd03d2dc	-0.032183513
148	0xbc0bf2d3	-0.0085417805
149	0x3d23acba	0.039959647
150	0x3da925a9	0.08259136
151	0x3d844391	0.064582
152	0xbd37fc20	-0.04491818
153	0x3d9400bd	0.07226703
154	0x3c679c0d	0.0141363265
155	0xbd710358	-0.05884108
156	0xbd280cff	-0.04102802
157	0x3cc9dd5d	0.024641687
158	0x3d790e2d	0.060804535
159	0xbcbe2eac	-0.023215614
160	0x3cc4e1bc	0.02403342
161	0x3c47b2fa	0.012188667
162	0x3c8c4382	0.017122034
163	0x3daea2ed	0.085271694
164	0x3d6b0b80	0.057384014
165	0xbd20353d	-0.039113272
166	0x3c1cd66a	0.009572605
167	0xbc6e4a85	-0.014544134
168	0x3d3e59f6	0.046472512
169	0xbc13fbe3	-0.009032222
170	0x3db3ec08	0.08785254
171	0xbdc8e31a	-0.09808941
172	0xbd776d2d	-0.060406853
173	0x3d62b054	0.05534394
174	0xbd184fc3	-0.03718544
175	0x3caa25fe	0.02077007
176	0x3d140075	0.03613325
177	0x3d5930c2	0.053025015
178	0x3cc4009b	0.02392607
179	0xbba38cc9	-0.004991148
180	0x3d91fcb3	0.07128277
181	0xbd061151	-0.032731358
182	0x3b01a5a8	0.0019782577
183	0xb9d33f57	-0.00040292248
184	0xbd8cbb9f	-0.068717234
185	0x3d90631d	0.07050154
186	0xbd06af7f	-0.03288221
187	0xbb8782ad	-0.004135451
188	0x3d73c7be	0.05951666
189	0xbd0e5332	-0.03474731
190	0xbcfac275	-0.030610302
191	0x3e0a1d2c	0.1348769
192	0xbdd12488	-0.10212046
193	0xbc14956c	-0.009068828
194	0xbd7847b5	-0.06061526
195	0xbd5f2a1e	-0.054483525
196	0x3ca8d30f	0.020608453
197	0xbd3baf25	-0.045821328
198	0xbd4a5735	-0.049399573
199	0x3d0780d7	0.033081856
200	0xbc8cc14d	-0.017182017
201	0x3cf1b479	0.029505001
202	0x3d159ba8	0.0365254
203	0x3d9c4d13	0.07631888
204	0xbd0051a7	-0.03132787
205	0xbbcfb251	-0.0063383956
206	0xbd065ffe	-0.03280639
207	0xbcfaa8f4	-0.030598141
208	0xbb2bc3d0	-0.0026209243
209	0xbc4845bd	-0.012223658
210	0xbcc5b8c1	-0.02413595
211	0xbd12732b	-0.035754364
212	0x3dd8e807	0.10591131
213	0xbd42d9a9	-0.04757086
214	0x3d10780d	0.03527074
215	0x3cc4ff70	0.024047583
216	0x3c30e809	0.010797509
217	0xbce69e2a	-0.02815159
218	0xbd37d7cb	-0.04488353
219	0xbcdce6d7	-0.026965542
220	0x3cae264a	0.021258492
221	0xbd47e273	-0.048799943
222	0x3c8a9f60	0.016921699
223	0x89dc6696	-5.3059545e-33
224	0x3bf2b887	0.0074072513
225	0x3d57c53b	0.052678328
226	0xbd39dee6	-0.04537859
227	0x38e4a4b1	0.000109025634
228	0x3dbe248a	0.09284313
229	0x3ccae9b9	0.02476965
230	0x3c9b50be	0.0189594
231	0xbdae4a8f	-0.08510315
232	0xbd55fb2b	-0.052241486
233	0xbd0f99c1	-0.03505874
234	0xbc376185	-0.011192684
235	0xbc6eeb41	-0.014582456
236	0x3d40273a	0.04691241
237	0x3da23c37	0.07921641
238	0xbcedec63	-0.029043382
239	0xbc859d9d	-0.016310507
240	0x3cab4c8d	0.020910526
241	0xbdc4126d	-0.09573827
242	0x3d783faa	0.06060759
243	0x3c547ca3	0.012969169
244	0xbd6a3c19	-0.05718622
245	0x3d99736a	0.074927166
246	0xbc4f78ba	-0.012663061
247	0x3d0cfba1	0.03441966
248	0xbd8af32d	-0.06784663
249	0x3d2703e9	0.040775213
250	0xbc3568dc	-0.011072364
251	0x3c6fd7af	0.014638825
252	0x3d0b3a68	0.033991247
253	0x3b1ff126	0.002440521
254	0xbc909cba	-0.017652858
255	0x3c703a82	0.014662387
