database/vectordb/b8e47f0647922994d9c45c7f20b10051.npy (npy, 1664 bytes, 1 tensors)

array f4 [384]
0.04367048 0.028867252 -0.0026115042 0.018849012 0.049103998 0.06883595 0.007486226 0.004203312
-0.023251824 0.08609609 0.0014143897 -0.102861755 0.028687127 -0.011820525 -0.004284149 -0.00066623447
-0.0033982208 -0.029961057 -0.07660631 -0.0196963 0.019565217 -0.07693418 -0.059385784 0.017463839
-0.028085599 0.00817678 0.06136033 -0.046957426 -0.062351584 0.015961664 0.047387693 0.01974575
0.0156654 -0.0061386162 0.06326794 0.057083476 -0.008779389 0.07019165 0.014846497 0.010150129
0.03391996 -0.05911162 -0.05608753 -0.06439256 -0.045032013 -0.0019793722 0.038044248 0.03810436
-0.09940463 -0.03347756 -0.0343014 0.06924301 -0.014973224 -0.08320247 -0.027461587 -0.022984425
-0.018198013 0.010993866 -0.013652529 -0.09512828 -0.032231957 -0.030428814 -0.042751335 0.026621854
0.09331151 0.017257126 0.01596334 -0.026479973 -0.01875945 0.08646743 0.116727754 -0.009717548
-0.054938342 0.035120163 0.09989533 0.045386292 0.052550316 0.013162585 -0.0093716495 -0.116408065
0.047255456 0.049078707 0.030278007 -0.054032054 0.031445116 0.041537434 -0.050671097 -0.11130812
-0.00216632 0.003851035 0.063120715 -0.065662935 -0.010699977 -0.04049827 0.104939386 -0.02496074
-0.053004693 0.045302197 0.0437092 0.024495728 -0.005872954 -0.017292999 0.066371836 -0.04188014
0.054027554 -0.06606147 -0.029299248 -0.06509807 0.005678081 0.019817898 -0.007726729 -0.04836567
0.008815033 0.020590825 0.03991166 -0.035196114 0.019070765 -0.01651027 0.017877739 -0.15811622
0.044055887 -0.04393847 -0.059478164 0.034276366 0.07965285 -0.02104998 -0.059075177 5.358108e-33
0.0026397277 -0.013415134 0.05825688 -0.008186233 0.034831263 -0.088051766 -0.040491946 0.028569782
0.03976105 0.03398329 -0.016913932 0.0033490001 0.019262377 0.017070107 0.05848407 0.073238686
-0.038415264 -0.035266805 -0.086385824 0.060587194 0.06984439 0.016803479 -0.011991969 -0.050681695
-0.100378044 -0.034793433 0.04365036 0.011497934 -0.05303753 0.009302319 -0.009512493 0.014911662
0.0077410955 0.111854434 -0.070154764 0.04766867 -0.009704258 -0.05769539 0.010783635 0.008425914
-0.031019745 0.0106761195 -0.031585634 0.011576291 0.066545986 0.0050514103 -0.059811827 -0.046933193
-0.06735763 0.053066894 0.08913059 0.03274818 0.050498128 -0.0404736 0.09740544 0.047038436
-0.032475613 0.006014908 0.15356798 0.07414771 -0.015986204 -0.011771797 -0.034352697 0.048151046
0.029430678 0.001455646 -0.07220297 0.045821555 0.02627308 -0.025443204 0.02256612 0.0949565
-0.046868283 -0.022166766 0.0028777006 -0.025342278 0.0052894885 -0.0018596556 0.022649316 -0.020965738
0.01285255 -0.005249572 -0.07675864 -0.027677653 -0.04882846 -0.007333582 -0.003961199 0.008187909
0.00716373 -0.028704371 0.01246172 -0.059757665 -0.07552768 -0.017889217 -0.04367636 -7.9008965e-33
-0.03618125 -0.031789374 -0.07593482 0.033302005 -0.10870881 0.042604033 0.047429197 -0.007520625
-0.081725456 -0.06533345 -0.044258624 0.0098070055 0.10098215 -0.011836111 0.057664223 -0.035377577
0.055661026 -0.015999535 -0.028889203 0.02963841 0.072433196 0.055193197 -0.11524251 -0.066098616
-0.09168502 -0.039264392 -0.089415036 0.030190393 -0.016947972 0.05099951 -0.05760082 0.011693028
00000000: d1df 323d 047b ec3c c525 2bbb 3e69 9a3c
00000010: 4621 493d ddf9 8c3d 044f f53b f0bb 893b
00000020: 9c7a bebc 2653 b03d 0b63 b93a 2fa9 d2bd
00000030: 4401 eb3c e0aa 41bc 0c62 8cbb 3da6 2eba
00000040: afb4 5ebb e470 f5bc c5e3 9cbd 235a a1bc
00000050: 3c47 a03c ab8f 9dbd 823e 73bd 5310 8f3c
00000060: c513 e6bc e7f7 053c f854 7b3d 6e56 40bd
00000070: 6064 7fbd 09c2 823c 9919 423d d7c1 a13c
00000080: ba54 803c 7226 c9bb 9f92 813d 5dd0 693d
00000090: 6dd7 0fbc a4c0 8f3d b93e 733c ba4c 263c
000000a0: a8ef 0a3d 071f 72bd 0abc 65bd 3fe0 83bd
000000b0: 7d73 38bd 5bb8 01bb 49d4 1b3d 5113 1c3d
000000c0: a894 cbbd c41f 09bd a07f 0cbd 47cf 8d3d
000000d0: 4152 75bc 0e66 aabd 1ff7 e0bc d549 bcbc
000000e0: 0014 95bc 9e1f 343c dbae 5fbc 9ed2 c2bd
000000f0: a805 04bd d945 f9bc 061c 2fbd 1316 da3c
00000100: 1b1a bf3d d15e 8d3c 8dc5 823c 87ec d8bc
00000110: 6bad 99bc d615 b13d f60e ef3d 5a36 1fbc
00000120: 0707 61bd 29da 0f3d ec95 cc3d fae6 393d
00000130: 003f 573d e2a7 573c 8c8b 19bc 5a67 eebd
00000140: f08e 413d c106 493d 9509 f83c b750 5dbd
00000150: 98cc 003d 2823 2a3d 7f8c 4fbd 83f5 e3bd
00000160: d2f8 0dbb a561 7c3b 6f45 813d 4a7a 86bd
00000170: f54e 2fbc 84e1 25bd 76ea d63d 777a ccbc
00000180: 731b 59bd cc8e 393d 6b08 333d 44ab c83c
00000190: e971 c0bb 0caa 8dbc f5ed 873d 828a 2bbd
000001a0: ff4b 5d3d 3c4b 87bd fa04 f0bc 2352 85bd
000001b0: 320f ba3b 2559 a23c 8030 fdbb 151b 46bd
000001c0: ee6c 103c 17ae a83c 697a 233d cd29 10bd
000001d0: 4b3a 9c3c 8c40 87bc 5674 923c 38e9 21be
000001e0: f273 343d d3f8 33bd 609f 73bd 6065 0c3d
000001f0: 0921 a33d 0271 acbc d0f8 71bd 2d91 de09
00000200: 48ff 2c3b 26cb 5bbc c49e 6e3d 8d1f 06bc
00000210: 3aab 0e3d 7c54 b4bd e2da 25bd 2d0b ea3c
00000220: 7cdc 223d 1032 0b3d 168f 8abc e67a 5b3b
00000230: 22cc 9d3c 9cd6 8b3c fe8c 6f3d 2afe 953d
00000240: 5359 1dbd ed73 10bd 0deb b0bd 472a 783d
00000250: 930a 8f3d 73a7 893c f779 44bc 9c97 4fbd
00000260: 0193 cdbd 8f83 0ebd b8ca 323d d561 3c3c
00000270: e23d 59bd c168 183c 4ada 1bbc 0b50 743c
00000280: 04a9 fd3b f013 e53d 4dad 8fbd 3940 433d
00000290: 9cfe 1ebc 0052 6cbd d8ad 303c d80c 0a3c
000002a0: 1f1d febc e4ea 2e3c f05f 01bd 7caa 3d3c
000002b0: 4349 883d 4d86 a53b 3ffd 74bd 053d 40bd
000002c0: ccf2 89bd ac5c 593d 198a b63d f522 063d
000002d0: 20d7 4e3d a5c7 25bd 817c c73d 60ab 403d
000002e0: 2605 05bd b518 c53b ed40 1d3e c1da 973d
000002f0: 80f5 82bc 7fde 40bc 6ab5 0cbd 083a 453d
00000300: 9b18 f13c 60cb be3a 27df 93bd 62af 3b3d
00000310: a43a d73c 446e d0bc 95dc b83c 8e78 c23d
00000320: f5f8 3fbd 1497 b5bc ce97 3c3b 9c9a cfbc
00000330: 7253 ad3b b0bf f3ba 0f8b b93c 57c0 abbc
00000340: 8093 523c 9a04 acbb a233 9dbd 3fbc e2bc
00000350: 5a00 48bd 8b4e f0bb f2cc 81bb 9426 063c
00000360: b9bd ea3b 6e25 ebbc 3e2c 4c3c 74c4 74bd
00000370: 42ae 9abd 688c 92bc fce5 32bd 5f18 248a
00000380: ca32 14bd 9335 02bd b783 9bbd af67 083d
00000390: b9a2 debd 9181 2e3d 1e45 423d 936f f6bb
000003a0: ad5f a7bd 8bcd 85bd 8848 35bd 90ad 203c
000003b0: bbcf ce3d 3fec 41bc 5231 6c3d 14e8 10bd
000003c0: d1fc 633d 7511 83bc 0da9 ecbc 40cc f23c
000003d0: db57 943d 4312 623d 4404 ecbd b65e 87bd
000003e0: 5bc5 bbbd b3d3 20bd 3b1f b7bd d851 f73c
000003f0: 79d6 8abc dde4 503d d6ee 6bbd 1d94 3f3c
