database/vectordb/b8e71d7f193bf1415274cb23106c9a83.npy (npy, 1664 bytes, 1 tensors)

array f4 [384]
00000000: a682 083d 13ff 943c 45dc aebd 437a 7dbd
00000010: 668c a73d 9082 223e 7f61 fe3c 1362 193d
00000020: 9711 71bd 325e bb3d 8790 e63c c793 8c3b
00000030: 129c c3bb be22 a63c feb2 8e3c 37fb 333d
00000040: 6c10 7d3d 6d1d 1b3c 50b0 10be 0f04 c13d
00000050: 70ca db3b a5f5 e53d 993a 4fbc 5e14 bbbc
00000060: ca98 90bd e273 ae3b 0588 ff3b 7c1e 47bc
00000070: 8285 213b b6dc c8bc b009 bb3c a06f ec3c
00000080: ef79 a53d a55e 4f3d e8fb 023c 7f98 83bd
00000090: a21d adb9 4508 57bd f802 bdba 545e f1bc
000000a0: bc00 debc a1b0 edbc 9a9a 7d3c a5ec 9ebb
000000b0: ea9e fdba 3a7b 67bc 0c29 eabc 03ec 643d
000000c0: cfc8 93ba fa3e 123c 5a48 02bd c6d1 ad3d
000000d0: e9c6 d83c 08fe d7bb 8107 bdbb 29f0 cabd
000000e0: 2ffc 91bd 0ff0 fdbc 831e 36bd 1b74 4fbd
000000f0: a4ea 80bc bc4d 0a3c bd52 29bd 2a89 773c
00000100: d78d 493d 4f25 2b3d cc21 8cbd bbf4 6cbd
00000110: b748 a23b 0134 70bc f4e0 45bd d6c9 d33b
00000120: 1149 193d 2138 8c3c 59d1 48ba 6ae0 083d
00000130: e2a5 ba3d 7009 4b3d 7734 393d 243f f9bd
00000140: 89db c93c a624 213d fa45 803c 3f09 033d
00000150: 0354 333d 6c0a b1bd 13a0 21bd d2cd c7bb
00000160: 62ba 3a3d 7dca 943d f444 8f3a e746 443d
00000170: cdb2 cf3d 8243 ffbc 39f5 e03c 6e72 e23c
00000180: cc4d 34bd 9b4e 8fbd 2b7c a5bd 74ad 8e3d
00000190: 618e c8bc e496 073d 8d06 6ebd b355 07bd
000001a0: b202 cdbc 12e1 44bd 3b54 76bc b771 88bc
000001b0: d18d b9bc bbce ef3c 6bf6 25bd db54 113b
000001c0: 3164 96bc fba8 d0bb fcbd bf3d 1bb4 193d
000001d0: f78f 6fbc 35b2 913d bfbd f03d 960c 18bb
000001e0: 843a 283d bc6c e1bb 5cc5 ac3c e87c 353d
000001f0: e9de 1d3d cf3f febc 7d4f f3bd a415 060a
00000200: c4c1 87bd 9683 e23c fbfd 023c d423 cf3c
00000210: 84c9 eabc eb61 e4bc 7f68 28bd 0423 74bd
00000220: 0e91 0bbd bdb9 553d f842 2bbd 608d 883d
00000230: 3fc6 a83c ac33 533d 7b52 273d cb9e 7dbc
00000240: 2fec 71bd 7318 143c 493a eebc 692e db3c
00000250: 71c5 293d da22 81bc bf15 163d a9a0 07bd
00000260: 10e6 09bd 1b45 6abd 28ac 0d3d a180 ccbb
00000270: 01f1 30bd e844 9ebb 6253 60bd 3268 ea3c
00000280: 19ba e8bc 7785 68bd 3d6a 9f3d 93a2 ea3c
00000290: 2400 273c 25cd 93bc 1e60 92bc 64af 7b3d
000002a0: b8e5 05bd 420f 263d a11d 623d 78fb 5a3d
000002b0: 3c68 a43d ed1e 08bd 3101 8e3b 96ac 6ebd
000002c0: 301c 4ebc 6e96 2d3d e133 11bc c5c1 723c
000002d0: 6d7c 4a3c 3efb 3bbd 9216 84bd 6677 85bc
000002e0: 05a7 a8bd 7a08 a43d c9d0 54bd b3f7 e0bd
000002f0: 1353 51bc d484 f5bc 52dc 88bd 021c 14bd
00000300: 104f dabb 2f24 453d 1c33 a5bd bc90 fdbb
00000310: 15e0 f83d ffda 0bbd 13ee d6bc 25a4 ca3c
00000320: b8b2 a03d 926d 86ba d135 99bd 8770 493d
00000330: ffdb a13c 6aa8 75bd fb86 d63c 1018 aabd
00000340: 1545 2dbd 5d6a a83d 2a1f 03bd a6d8 8c3d
00000350: 4b69 653c 10b3 d4bd 9f5e 2e3d 0fd9 13bd
00000360: 0e5b 683c f5d0 85bc c992 303d 9894 12bd
00000370: eb40 9f3c c4ab 9b3a 5ee9 76bd 34bb 048a
00000380: 009c 9dbd 9c22 adbd b1ad 7cbd 2b42 8a3d
00000390: bf12 c23c f638 22bb 464f 78bc 5ed5 a0bd
000003a0: df56 3a3d 53c3 b6bd d0a1 753d 101c 06bd
000003b0: 0f89 6e3d 6395 a23d cdb0 fd3c 6b6f 3d3a
000003c0: 94ad fcbc 000a 8c3c 62e1 a13c d3a1 0a3c
000003d0: 173b b73d dbb7 c43d 91f4 76bd bd79 343d
000003e0: 9159 7bbd c506 d53c e7fe 7ebd 8400 84bd
000003f0: 76e4 fd3c 6182 8fbc 0963 0cbd 84a8 3b3d
0.03332772 0.018188035 -0.08538107 -0.061884176 0.08181076 0.15870118 0.03105235 0.037447046
-0.058854666 0.09148826 0.028145088 0.0042900774 -0.0059695328 0.020280238 0.017419335 0.04394075
0.06178324 0.009467465 -0.14129758 0.09424602 0.006707482 0.112284936 -0.012648248 -0.02283686
-0.07060392 0.005323873 0.007798197 -0.012153264 0.0024646227 -0.024519306 0.022831768 0.02886182
0.080798976 0.05062737 0.007994629 -0.06425571 -0.0003301921 -0.05249812 -0.001442044 -0.029463924
-0.02709996 -0.029014887 0.015478754 -0.0048499876 -0.0019349728 -0.014128501 -0.028584026 0.05588914
-0.0011275056 0.008926148 -0.03180728 0.08487277 0.026462035 -0.006591562 -0.005768717 -0.09909088
-0.07128178 -0.030998258 -0.044462692 -0.050647836 -0.015736885 0.008441385 -0.04133867 0.015108386
0.049207535 0.041783627 -0.06842384 -0.05785058 0.004952516 -0.014660836 -0.048310235 0.0064632697
0.037423197 0.017116608 -0.000766059 0.033417143 0.09113671 0.049569547 0.04521605 -0.12170246
0.024640815 0.03934159 0.015658367 0.03199124 0.04378129 -0.08644566 -0.0394593 -0.0060975337
0.045587905 0.07265184 0.0010930584 0.04791918 0.101415254 -0.03116012 0.027460681 0.027642455
-0.044019505 -0.06997415 -0.08080324 0.06966677 -0.024481954 0.033102885 -0.058111716 -0.033040714
-0.0250257 -0.048066206 -0.015034731 -0.016655786 -0.022650631 0.029273381 -0.040518206 0.0022175822
-0.018358322 -0.0063678003 0.093624085 0.037525278 -0.014621726 0.071140684 0.11754941 -0.0023200861
0.04107143 -0.006879417 0.021090202 0.044308573 0.03854266 -0.031036286 -0.118803956 6.4559355e-33
-0.06628755 0.027650636 0.007995124 0.025285639 -0.028660543 -0.027878722 -0.04111528 -0.059603706
-0.03407388 0.052179087 -0.041811913 0.0666759 0.020602344 0.05156295 0.040850144 -0.015479754
-0.059063133 0.009039032 -0.029080527 0.026755529 0.04144806 -0.015763689 0.036641832 -0.0331122
-0.03366667 -0.05719481 0.03458801 -0.0062409197 -0.04319859 -0.0048299916 -0.05476702 0.028614137
-0.02840905 -0.056767907 0.07783935 0.028641975 0.010192905 -0.018042156 -0.017868098 0.061446562
-0.03268978 0.040541895 0.055204038 0.053462476 0.08027694 -0.033232618 0.004333638 -0.05827006
-0.012579963 0.04237979 -0.008862467 0.014816706 0.012358767 -0.0458939 -0.064496174 -0.016292285
-0.082349814 0.08009429 -0.051956926 -0.10984745 -0.012776154 -0.029970564 -0.06682648 -0.036159523
-0.006662257 0.04813021 -0.08066389 -0.007738201 0.12152115 -0.034144398 -0.02623657 0.024736473
0.07846588 -0.0010256043 -0.07480968 0.04917958 0.019758223 -0.059975065 0.02618741 -0.08305371
-0.04230221 0.08223412 -0.032012142 0.0687726 0.014002155 -0.10385716 0.042570706 -0.036095675
0.014181865 -0.01633499 0.043108735 -0.03578624 0.019440135 0.0011876752 -0.06028115 -6.390778e-33
-0.0769577 -0.08453867 -0.061689083 0.06750902 0.02369058 -0.002475319 -0.015155619 -0.078531966
0.045493003 -0.08923974 0.05996877 -0.032741606 0.058236178 0.079386495 0.030968094 0.00072263804
-0.030844487 0.017094612 0.019760791 0.008461433 0.08946817 0.0960538 -0.06029183 0.04406141
-0.061364714 0.026004205 -0.062254813 -0.06445411 0.030992728 -0.017518224 -0.034274135 0.045815006
