database/vectordb/b9a5785cd58b0f732e14253654d03383.npy (npy, 1664 bytes, 1 tensors)

array f4 [384]
000000 47 8e 94 3d e6 39 5f bd 30 9d 54 3c cb 66 1f 3d
       0.072537 -0.054498576 0.01297693 0.03891639
000010 bf cf 7a 3d ae 07 05 3d d3 95 94 bc 88 97 d4 bc
       0.06123328 0.032478027 -0.018137848 -0.025951162
000020 86 fc b8 3d a0 ab f3 3b 7d 50 9b bd 00 49 1a 3d
       0.0903254 0.007436231 -0.07583711 0.037667274
000030 cc 3c 4f bd 79 f6 5b 3d 67 45 9a 3c 28 0e e9 bc
       -0.05059509 0.05370185 0.018831922 -0.028449133
000040 10 85 50 3c 35 9e a2 bc 08 69 fe ba 5b aa 04 3d
       0.012727037 -0.01985083 -0.0019409964 0.032389026
000050 1c 3e b0 3d 72 3b 96 bd 47 17 b8 3d ad 59 65 3d
       0.086055964 -0.07335557 0.08988815 0.055993725
000060 95 4f 5b bb 90 17 85 3d a6 24 2c 3d c0 c5 81 bd
       -0.0033464183 0.06498635 0.04202714 -0.06336546
000070 3e e2 49 3d 76 88 5d bd db 46 5d bc e6 68 01 3d
       0.049288027 -0.054085217 -0.013505663 0.03159418
000080 91 c8 50 3c ff 3d 47 3b a8 a0 bd bb fc 3a 68 bc
       0.012743131 0.0030401943 -0.005786974 -0.014174219
000090 c0 9c 8d 3b 5e cc 0c 3c 75 54 3c bc da 1c 3b 3d
       0.0043216646 0.008593647 -0.0114947455 0.045681812
0000a0 76 22 77 3d 59 12 50 3c f9 66 81 3d 82 74 37 3d
       0.0603356 0.012699687 0.063184686 0.044788845
0000b0 2c 2a 0f bd f3 5a ef bc 18 0a 92 3b 89 30 d2 bd
       -0.034952328 -0.029218173 0.0044567697 -0.102631636
0000c0 df 49 bf 3c d6 03 b1 bb e6 7e bc b7 74 0f 9b 3c
       0.023350654 -0.0054020686 -2.2470438e-05 0.018928267
0000d0 ed 01 9b bd fa 23 bf bd df f8 a4 3b 1f a9 05 3e
       -0.07568727 -0.09333034 0.0050345506 0.13052796
0000e0 3e 65 81 3b 54 7c 26 3d 2a 40 fc 3c 3d 13 d1 3c
       0.0039488366 0.040645912 0.030792315 0.025521869
0000f0 78 ff 8a bd da 41 e3 3c a3 c4 ad 3a 64 2c 73 bd
       -0.06787008 0.027741361 0.0013257455 -0.059368506
000100 f6 33 f6 3b a7 5d 85 3c 15 bd 2d bd 7f 50 8a 3d
       0.0075135184 0.016280008 -0.04241665 0.06753635
000110 01 77 74 3c 7a 29 62 3d fd 31 b0 bc c4 94 88 3b
       0.014920951 0.055215336 -0.021508211 0.004168125
000120 43 65 89 bc 25 95 01 bd a3 f7 88 3d 41 12 06 3d
       -0.016771918 -0.031636376 0.06687858 0.032732252
000130 8b ef 1e 3d fc 35 fc bc 06 49 d8 3c 48 67 39 bd
       0.038802665 -0.03078746 0.026402008 -0.045264512
000140 7a 79 a5 3d 0c f8 ad 3c 38 e8 5f 3c 56 6c 02 bd
       0.080798104 0.021236442 0.013666205 -0.0318416
000150 73 1b 01 3d 6b df 2f bd a8 2b 1d 3d 21 67 07 3e
       0.03152032 -0.042937677 0.038371712 0.13222934
000160 50 53 51 3c b9 fb 79 bc 18 82 d2 3d f7 a2 64 bd
       0.012776211 -0.015257769 0.1027872 -0.055819478
000170 65 61 80 bd 9f 4f ed 3c b9 d5 c9 3d aa 52 7c 3c
       -0.062685765 0.02896863 0.098552175 0.015400568
000180 c6 ff 3e bc a2 7d 04 3d 9d 4b eb 3d fd a1 40 3c
       -0.011657661 0.032346375 0.114890315 0.011757371
000190 0b bf 0c 3d 08 f4 04 3d bc 66 81 bd 41 3b 5e 3d
       0.03436188 0.03245929 -0.06318423 0.054255728
0001a0 b4 cf 54 bd e4 39 c0 bc 81 0a 21 3d 61 f8 49 ba
       -0.051955894 -0.023465104 0.039316658 -0.0007704553
0001b0 8f 74 52 3c 56 d0 e3 39 9f 5b 8a 3d 47 9b 52 3c
       0.012845173 0.00043452036 0.067557566 0.012854404
0001c0 c8 99 90 3c b7 d6 c9 3c 71 77 ff 3c 5e c0 c1 3d
       0.017651454 0.024638517 0.031184884 0.09460519
0001d0 1c ef ae bc 11 03 8e 3c 36 56 d4 3d 52 2a 94 3d
       -0.02135425 0.017335447 0.10368006 0.072346345
0001e0 c4 27 4a bd c6 f6 ea bb f7 07 46 3d da 7a 35 be
       -0.04935433 -0.007170531 0.04834744 -0.17722645
0001f0 b9 90 6c 3c 1d 4d 5f bd a4 3f a5 bc 04 f8 8a 09
       0.014438801 -0.0545169 -0.020171948 3.3455524e-33
000200 f4 1c 92 3b ff 44 3c bd ce 33 a7 bd 14 f4 e2 bc
       0.004459018 -0.045964237 -0.08164178 -0.027704276
000210 87 a2 ca bc 64 f2 86 bd e3 6a 03 bd 89 1f 7d 3d
       -0.024735702 -0.06589201 -0.032084357 0.061797652
000220 1e 71 83 3d 6d c3 f7 3c 73 2c 26 3c ac 64 7b bd
       0.0641806 0.030244553 0.010142433 -0.061375305
000230 b8 e8 d1 bc be f9 b9 bb d1 4d 5d bc 99 a3 33 bd
       -0.025623664 -0.0056755235 -0.013507322 -0.04385719
000240 63 d1 84 bc ac ed 64 3d ee 71 1d 3c 10 b8 39 bc
       -0.016213125 0.055890724 0.0096096825 -0.011335388
000250 93 fd c2 ba 90 f4 e6 bd d7 de 9e 3c f6 41 0b bc
       -0.0014876596 -0.11277115 0.019393368 -0.008499613
000260 2f 48 12 bc a0 03 f0 bc 9e f7 ef bb 63 58 88 3c
       -0.008928343 -0.029298604 -0.0073232194 0.016643709
000270 f0 f0 71 3d 43 fd c8 3a 83 33 52 3d 20 b9 e0 3a
       0.059067667 0.0015334267 0.051318657 0.0017145015
000280 0e 65 33 be b3 e2 e1 bb c2 eb a1 3d fd fb 73 3c
       -0.17519018 -0.0068934797 0.07906295 0.014891622
000290 3d be 54 3d e7 2a a7 3c f6 f1 74 3c 33 a6 e2 bc
       0.051939238 0.0204062 0.014950266 -0.02766714
0002a0 82 d5 34 bd b4 4b 2c 3d f6 53 92 3d a0 26 1c bd
       -0.04414893 0.042064384 0.071449205 -0.038122773
0002b0 41 39 1f 3c 92 65 8a 3b 67 49 a0 3c 86 45 2b bd
       0.00971824 0.004223534 0.019566251 -0.04181435
0002c0 0a ed 20 bd 8c d6 28 3b 11 0c 1d bd e2 47 eb bc
       -0.039288558 0.0025762646 -0.038341586 -0.0287208
0002d0 9b c6 86 3c 6a 35 30 be 2e 2f 18 bd b1 5b 1b 3c
       0.016452124 -0.17207876 -0.03715437 0.00948231
0002e0 2a 67 c1 3c 1f 68 60 3b 34 43 77 bd 01 1b a5 3d
       0.023608763 0.0034241749 -0.060366824 0.08061791
0002f0 22 eb a3 3c 82 18 af bc 89 90 13 bd a4 d1 d1 3a
       0.020009581 -0.02137399 -0.03602651 0.0016007912
000300 e3 65 30 bc e8 ad 72 3d f2 bd bb bd 82 aa 4f 3c
       -0.010766479 0.05924788 -0.091670886 0.01267493
000310 17 72 90 3d b4 ba c3 bc 55 a6 e9 3c 5c 11 5b bd
       0.07053011 -0.023892738 0.028521696 -0.053483352
000320 6d a3 c8 bc a8 c8 15 bd 79 5a 52 3d 72 0b 05 3c
       -0.02449199 -0.036568314 0.051355813 0.008120405
000330 f3 74 a1 3d 2a 7e 58 bc b8 ac bc bd b9 98 31 3b
       0.078836344 -0.013213674 -0.09212631 0.0027099086
000340 14 31 f9 3d 8d 7e c0 3b 01 be 2e bc 88 2e 2c bd
       0.12167564 0.005874461 -0.010665418 -0.042036563
000350 3a cf 82 bd 5c a5 10 3d 06 03 67 3d 8e 3f cc bc
       -0.063871816 0.03531395 0.056399368 -0.024932649
000360 72 3c d2 bb 7a ef ab 3c d4 f9 f9 3b 10 5a 00 bc
       -0.006415897 0.020988215 0.007628659 -0.007833973
000370 83 9f 7b 3d 5e 3c 85 3d d1 ea 3f bd a5 cb 61 89
       0.06143142 0.06505655 -0.046854798 -2.7179143e-33
000380 60 a0 a5 3d c5 45 30 bd 3e 3d 15 3d 31 2e e6 bc
       0.0808723 -0.043035287 0.03643536 -0.028098198
000390 77 e3 20 3d 73 71 33 bc b3 68 7a 3b 6f 8b e2 bb
       0.039279427 -0.010952341 0.0038209378 -0.0069135944
0003a0 37 d0 98 bd af de 36 bc c2 98 0c 3d 90 ac bc bc
       -0.07461589 -0.01116149 0.03432537 -0.023031503
0003b0 fe 1f 01 bd 98 a1 99 bd 90 c7 12 3d 53 5e 04 be
       -0.03152465 -0.07501525 0.03583485 -0.12926607
0003c0 9d 71 5e 3b 86 62 95 3c d1 d2 f2 bc b3 6c 27 3d
       0.003394223 0.018235456 -0.02964154 0.040875148
0003d0 5c b6 dd bb e8 b5 b0 bc 68 a5 4d bd 54 47 ca bd
       -0.0067661237 -0.021571115 -0.05020657 -0.09876886
0003e0 fc 0e a5 3c b1 cf 05 3d 2b fc 57 bd d0 a2 8c 3d
       0.020148747 0.032668773 -0.05273072 0.068669915
0003f0 c5 29 71 bc 36 a9 04 3c ef c3 67 bd 90 e5 06 3c
       -0.014719431 0.008096984 -0.05658334 0.008233443
