database/vectordb/b9b975a8a696b3bb8b2b352062f4d8e2.npy (npy, 1664 bytes, 1 tensors)

array f4 [384]
-0.027301123 -0.060716398 -0.037517227 0.005207812 -0.0022957348 0.05295288 0.08105582 0.030144278
0.036692157 0.06318847 0.008152397 -0.014597237 0.0024441385 0.01727389 0.023262331 -0.026999429
0.048979882 0.07141989 -0.10494484 -9.656432e-05 0.0010951386 -0.11747496 -0.06314886 -0.030214928
-0.042361867 -0.11632093 0.0021417555 -0.011850686 -0.036823206 0.008601237 0.0073617334 0.0059988652
0.10096833 -0.008798382 -0.0067769354 0.039607957 -0.0016404869 -0.03371727 0.021351676 0.029607272
-0.058981564 -0.11112994 0.004544127 -0.075272344 -0.008928291 0.0037907443 0.085522175 0.003073803
-0.13670027 -0.09793428 -0.01095805 0.017407494 0.017866656 0.023133043 0.013516737 -0.03200285
0.052131064 -0.06201344 -0.0023410555 -0.03593439 -0.030192208 -0.03353499 -0.04695191 0.015264943
0.10815871 -0.02138256 -0.059402652 0.046371248 -0.08938746 0.040589094 0.06465778 -0.06009767
-0.08375624 -0.044925407 0.041134693 -0.01943883 0.052978523 0.0066983784 0.018458758 -0.00023171901
0.011761722 -0.017742189 0.03330573 -0.00019849313 -0.10224735 -0.08903817 -0.009957378 -0.029224502
0.048412625 0.03930112 -0.029660188 0.011359664 0.007090841 -0.0011963814 0.07962266 0.006627978
-0.0153541695 0.06268231 -0.014781115 0.08406015 0.0073528253 0.05193477 -0.04790626 0.03052017
0.019757101 -0.032648608 -0.010841364 0.044129845 -0.070224226 0.012661827 -0.15735643 -0.06690115
-0.04758902 -0.008253596 0.07321299 -0.03690312 0.010267441 0.030000178 0.016152116 -0.071308024
0.04085218 -0.033113074 -0.023226101 0.008999445 0.021967392 -0.020317743 -0.055665206 1.10525004e-32
-0.017553758 -0.010588918 0.025081698 0.012401116 0.033361807 -0.004700599 0.0069934814 0.0186796
0.044262398 -0.0022288507 -0.04627185 0.081356466 -0.012738231 0.04289665 -0.060771655 -0.03274445
-0.03363042 0.015935482 0.03377722 0.052757494 0.09898041 0.029801875 -0.03543907 -0.03183792
-0.044235464 -0.02168397 -0.031778034 -0.056984354 0.003822461 0.035756353 0.02745299 0.057766523
-0.018778834 -0.02024949 -0.11049894 0.0057067205 -0.08629362 -0.006341997 0.006557799 -0.06572431
-0.04712717 -0.036177993 0.09167187 -0.050421406 -0.023569105 0.04420762 0.032323685 -0.043848403
-6.276131e-05 0.077930816 0.037426163 0.045695823 0.0667181 -0.065754265 -0.022986613 0.01969705
-0.019740645 0.030859124 -0.039826907 -0.055949457 -0.015608355 0.0021663916 0.02107164 -0.09438071
0.023337629 0.021514773 -0.003956198 -0.06559514 -0.01899306 -0.00589524 -0.015622716 0.121027455
0.008336314 0.006270737 -0.014787535 0.074534945 -0.037675794 0.011896469 -0.003981381 -0.08853327
-0.07178534 -0.0058941203 -0.004754783 -0.10184921 0.014425253 -0.012841645 -0.020295404 0.0017745417
0.16606385 0.08505228 0.020980414 -0.052934803 0.0070838486 0.06761067 -0.00096450915 -1.3064669e-32
-0.019449666 -0.05902978 -0.12385839 0.041478537 0.09008041 -0.0019006549 0.032921627 -0.0026608398
0.01354944 0.037355002 0.019735148 -0.06082719 0.11944987 0.07310152 0.009867821 -0.104105525
0.08741503 -0.09250033 0.0019443872 -0.039272957 0.03661768 0.07112272 -0.025809601 0.012889179
0.05463919 0.00031065548 -0.014790084 -0.032716967 -0.005042362 0.07572311 -0.039293576 0.055138044
00000000: 9ba6 dfbc c2b1 78bd aaab 19bd 4ba6 aa3b
00000010: 0a74 16bb 1ee5 583d 9800 a63d 22f1 f63c
00000020: 844a 163d f568 813d a291 053c 4029 6fbc
00000030: d72d 203b f981 8d3c a590 be3c e82d ddbc
00000040: 219f 483d 9744 923d 52ed d6bd 9382 cab8
00000050: c18a 8f3a b696 f0bd 3154 81bd 4c85 f7bc
00000060: a383 2dbd ab39 eebd b25c 0c3b 6129 42bc
00000070: eed3 16bd 34ec 0c3c b23a f13b 2192 c43b
00000080: 7cc8 ce3d 1727 10bc 0e11 debb f43b 223d
00000090: 9b05 d7ba 1f1b 0abd b6e9 ae3c f38a f23c
000000a0: a796 71bd 1898 e3bd e6e6 943b 6328 9abd
000000b0: f747 12bc 236e 783b 4026 af3d db71 493b
000000c0: 28fb 0bbe c591 c8bd 6589 33bc 299a 8e3c
000000d0: 185d 923c 8281 bd3c 4e75 5d3c 6c15 03bd
000000e0: 6287 553d ce01 7ebd 656c 19bb f02f 13bd
000000f0: a655 f7bc fc5b 09bd a550 40bd d019 7a3c
00000100: 5082 dd3d 7a2a afbc 3250 73bd c7ef 3d3d
00000110: c610 b7bd c040 263d 4c6b 843d f928 76bd
00000120: 6488 abbd b403 38bd da7c 283d 2e3e 9fbc
00000130: 0200 593d 127e db3b d236 973c 99f9 72b9
00000140: 3db4 403c 1158 91bc 976b 083d 9822 50b9
00000150: 0f67 d1bd a559 b6bd 4524 23bc 3968 efbc
00000160: 514c 463d 36fa 203d ecf9 f2bc e21d 3a3c
00000170: 495a e83b e6cf 9cba 3511 a33d 822f d93b
00000180: 0e90 7bbc 955f 803d 7d2c 72bc ba27 ac3d
00000190: f8ef f03b 8eb9 543d 5b39 44bd 7005 fa3c
000001a0: a5d9 a13c 8cba 05bd fa9f 31bc 7fc1 343d
000001b0: b8d1 8fbd 8d73 4f3c 0b22 21be 7803 89bd
000001c0: b4ec 42bd 173a 07bc b1f0 953d ba27 17bd
000001d0: c538 283c efc2 f53c 7151 843c f109 92bd
000001e0: 9e54 273d 93a1 07bd aa44 bebc 6872 133c
000001f0: f6f4 b33c 6571 a6bc 3301 64bd 2c8d 650a
00000200: e6cc 8fbc 247d 2dbc 2278 cd3c 0d2e 4b3c
00000210: 64a6 083d 7b07 9abb 9329 e53b f605 993c
00000220: 7d4c 353d e911 12bb 8d87 3dbd 389e a63d
00000230: 03b4 50bc 66b4 2f3d b3eb 78bd 0b1f 06bd
00000240: 0dc0 09bd 218b 823c fb59 0a3d 3e18 583d
00000250: 3eb6 ca3d 1023 f43c 8f28 11bd 7b68 02bd
00000260: 3f30 35bd 95a2 b1bc af29 02bd 6d68 69bd
00000270: 4182 7a3b 4175 123d 18e5 e03c 979c 6c3d
00000280: 12d6 99bc 42e2 a5bc 454d e2bd 71ff ba3b
00000290: b6ba b0bd 87d0 cfbb cee2 d63b 789a 86bd
000002a0: 6b08 41bd 602f 14bd 76be bb3d ad86 4ebd
000002b0: ff13 c1bc 0d13 353d d765 043d 629a 33bd
000002c0: b99e 83b8 319a 9f3d 2d4c 193d 8b2b 3b3d
000002d0: 80a3 883d 2caa 86bd 6c4e bcbc b55b a13c
000002e0: 22b7 a1bc 46cc fc3c 8a21 23bd 422b 65bd
000002f0: 30ba 7fbc 05fa 0d3b 6f9e ac3c ac4a c1bd
00000300: 8e2e bf3c c03f b03c ffa2 81bb bf56 86bd
00000310: 5597 9bbc dc2c c1bb 6cf6 7fbc 3edd f73d
00000320: 0995 083c c17a cd3b 6b47 72bc c7a5 983d
00000330: ef51 1abd 68e9 423c 3f76 82bb ee50 b5bd
00000340: 3104 93bd 7723 c1bb 03ce 9bbb 5296 d0bd
00000350: e557 6c3c c365 52bc 8c42 a6bc bd97 e83a
00000360: a40c 2a3e e42f ae3d 1edf ab3c 2ad2 58bd
00000370: a11f e83b 7777 8a3d 1dd7 7cba d9ab 878a
00000380: e854 9fbc 36c9 71bd 78a9 fdbd 66e5 293d
00000390: 147c b83d 651f f9ba d4d8 063d 7c61 2ebb
000003a0: 78fe 5d3c 8f01 193d 9bab a13c ee25 79bd
000003b0: 22a2 f43d 40b6 953d a4ac 213c 4735 d5bd
000003c0: a706 b33d d070 bdbd cfda fe3a aedc 20bd
000003d0: 6cfc 153d caa8 913d a86e d3bc 232d 533c
000003e0: 58cd 5f3d 79df a239 1c52 72bc 3a02 06bd
000003f0: 663a a5bb b814 9b3d 4df2 20bd 6ed8 613d
