database/vectordb/b9de6a5715a02529b9037a9f37be55ea.npy (npy, 1664 bytes, 1 tensors)

array f4 [384]
0	0xbd4d78ad	-0.050163914
1	0x3d1991d2	0.03749258
2	0xbd33e257	-0.043917026
3	0xbba08187	-0.0048982534
4	0x3d4d10b2	0.05006475
5	0x3d936ae2	0.07198121
6	0x3dd8ed28	0.10592109
7	0x3d48b613	0.049001765
8	0x3ce4e87a	0.027942885
9	0x3dab8837	0.0837559
10	0xbcb861a5	-0.022507498
11	0xbc03ff13	-0.00805642
12	0x3d128cb6	0.035778724
13	0x3d77c954	0.060494736
14	0xbd3d9cd5	-0.046292145
15	0x3bc576aa	0.0060261087
16	0x3da3cef8	0.079984605
17	0x3d08acb0	0.033367813
18	0xbddf4022	-0.10900904
19	0x3d97d92d	0.0741447
20	0x3ca25f0d	0.019820714
21	0xbc59b0ea	-0.0132868085
22	0xbc8c3be9	-0.017118411
23	0x3d404429	0.046940003
24	0xbd4a657e	-0.049413197
25	0xbd599c23	-0.05312742
26	0x3c0bfe9a	0.008544588
27	0xbd6d028a	-0.05786375
28	0x3cdf2851	0.027240904
29	0xbcac22b7	-0.021012647
30	0xbd54910a	-0.051896133
31	0x3d8480f0	0.064699054
32	0x3d0dc243	0.03460909
33	0x3b05b9ea	0.0020405003
34	0x3d70bc59	0.058773372
35	0x3d6b73b7	0.0574834
36	0x3b31c7d6	0.0027127168
37	0xbcb6111e	-0.022224959
38	0xbc863e2c	-0.016387068
39	0x3a076834	0.0005165369
40	0x3be37f39	0.0069426564
41	0xbd0a5561	-0.03377283
42	0xbd83b4c3	-0.06430962
43	0xbd311485	-0.04323246
44	0xbcb557d3	-0.022136604
45	0xbd3f2b5b	-0.046672206
46	0x3cb74c71	0.022375317
47	0xbd86be68	-0.06579286
48	0xbd7d2812	-0.061805792
49	0xbd3e670c	-0.046484992
50	0xbd10b4a6	-0.03532853
51	0x3d02fcac	0.031979248
52	0x3c13fc91	0.0090323845
53	0xbcc09167	-0.023506833
54	0x3c8d236a	0.0172288
55	0xbc9b623f	-0.018967746
56	0x3c63908a	0.013889441
57	0xbc9ada6c	-0.01890298
58	0xbb8d65a9	-0.0043150974
59	0xbd292024	-0.041290417
60	0x3d1e04a1	0.038578633
61	0xbd05df6b	-0.03268377
62	0xbdd1ed62	-0.10250355
63	0x3b9a242d	0.0047040195
64	0x3dbc16e9	0.09184057
65	0x3d3a8bc1	0.045543436
66	0xbca7ec97	-0.020498557
67	0xbbaffd48	-0.0053707696
68	0xbdaa6bbf	-0.08321332
69	0x3d93ceed	0.07217202
70	0x3bf5317c	0.0074827056
71	0xbc966f20	-0.018363535
72	0xbb21353f	-0.0024598388
73	0xbd365085	-0.044510383
74	0x3d0b5159	0.034013126
75	0x3d24c9e4	0.0402316
76	0x3e0f35c2	0.1398535
77	0x3d803087	0.06259256
78	0xbd24baba	-0.04021714
79	0xbe1083b2	-0.14112738
80	0x3cc8be1a	0.02450471
81	0xbcd2c45a	-0.025728393
82	0x3cf2b6bc	0.02962815
83	0x3c710bdb	0.014712299
84	0x3d87d73c	0.066328496
85	0xbd2ff53f	-0.042958494
86	0xbd0d4dc8	-0.034498006
87	0xbd7c9017	-0.061660852
88	0x3dc0ecbb	0.09420153
89	0x3cd665ce	0.026171591
90	0x3d731d91	0.05935437
91	0xbc3779ae	-0.011198444
92	0x3d946e0a	0.07247551
93	0xbc4f847f	-0.012665867
94	0x3dd78f68	0.105253994
95	0x3c23a15a	0.0099872
96	0xbd781174	-0.06056352
97	0xbcac15f4	-0.021006562
98	0xbd1e9886	-0.038719676
99	0x3d6e5e30	0.058195293
100	0xbc164574	-0.009171832
101	0x3da758ea	0.08171256
102	0xbd3866bd	-0.045019854
103	0x3b1b9b45	0.002374367
104	0x3d5705a9	0.052495632
105	0xbdab2beb	-0.08357986
106	0x3c88ba6b	0.016690454
107	0xbc98cffe	-0.018653866
108	0x3d094f59	0.033522937
109	0x3cfc4743	0.030795699
110	0x3b5244da	0.0032084496
111	0x3b43cb84	0.0029875943
112	0x3cf19953	0.029492056
113	0xbccf1f1e	-0.025283393
114	0x3cdaf1c1	0.026726605
115	0x3b6f7820	0.0036540106
116	0xbce5b843	-0.028041964
117	0xbbca359a	-0.0061709406
118	0x3df89f77	0.121397905
119	0xbd365e9a	-0.044523813
120	0x3c63f287	0.0139128035
121	0xbcb0ecab	-0.021597227
122	0xbc01fbfe	-0.007933615
123	0xbcef762f	-0.029231159
124	0x3cdc6057	0.026901407
125	0xbdb58a23	-0.08864238
126	0xbd3863c4	-0.04501702
127	0x0a5e547c	1.0704801e-32
128	0xbd5fb7fc	-0.05461882
129	0xbb6c72da	-0.00360792
130	0x3cdbf5cf	0.02685061
131	0xbda8e4e9	-0.08246786
132	0xbd1446e3	-0.036200415
133	0xbd8b0b1e	-0.0678923
134	0xbdaf88ff	-0.08571052
135	0x3d592929	0.05301777
136	0x3d35f548	0.04442337
137	0x3d59ab0e	0.053141646
138	0x3d332f34	0.04374619
139	0x3d82e5fc	0.06391522
140	0x3a1feef1	0.00061009737
141	0x3daea4e3	0.085275434
142	0x3d590c7f	0.052990433
143	0xbd4468e6	-0.0479516
144	0xbd25d2d9	-0.040484283
145	0xbcbe1809	-0.02320482
146	0x3c229eef	0.009925588
147	0xbc02b724	-0.007978234
148	0x3bed272b	0.007237335
149	0x3cdf329f	0.027245818
150	0x3c14ab54	0.009074051
151	0xbd003a8d	-0.03130584
152	0xbd2df183	-0.04246665
153	0xbe02af2c	-0.12762135
154	0x3c4b86e5	0.012422298
155	0x3c06b9d9	0.0082230205
156	0xbd20b576	-0.039235555
157	0x3d345327	0.044024613
158	0xb9f616c2	-0.00046937732
159	0x3d6914b0	0.056904495
160	0xbc0a8f92	-0.008457081
161	0x3c9641d9	0.018341945
162	0xbdbab5f8	-0.09116739
163	0x3d09ed81	0.033673767
164	0xbd4e9719	-0.050437067
165	0xbd10bdaf	-0.035337146
166	0xbd7edf26	-0.06222453
167	0xbd913d81	-0.07091809
168	0xbdaea6d2	-0.08527912
169	0x3ca93890	0.020656854
170	0x395460a2	0.00020253894
171	0x3b1e5ff6	0.0024166084
172	0x3d8036cd	0.062604524
173	0xbd613bdd	-0.05498873
174	0x3dafeeb5	0.08590452
175	0xbd9f8106	-0.07788281
176	0xbdca4e40	-0.09878206
177	0x3b6f03f8	0.0036470871
178	0xbceefa01	-0.029171946
179	0x3d953756	0.07285945
180	0x3d37da14	0.04488571
181	0xbd47e4c3	-0.04880215
182	0xbdd29ae5	-0.1028345
183	0xbd8de881	-0.06929112
184	0x3cf0aa5c	0.029378109
185	0xbd70af36	-0.058760844
186	0x3bb3a57c	0.0054823738
187	0xbd0a3ac4	-0.03374745
188	0xbc4d03a0	-0.012513071
189	0xbcb52002	-0.02210999
190	0x3be0a380	0.006855428
191	0xbd85c697	-0.06532019
192	0xbd436a7f	-0.047708984
193	0x3d1aa21b	0.037752252
194	0xbd67ba0b	-0.05657391
195	0xbc10ace9	-0.0088302875
196	0xbd196d35	-0.037457664
197	0xbc0dba72	-0.008650409
198	0xbd155c2c	-0.036464855
199	0x3d1bd734	0.03804703
200	0x3a4623b4	0.0007558421
201	0xbd6f638f	-0.058444556
202	0x3c827163	0.015923208
203	0xbb5857d3	-0.0033011332
204	0xbd245434	-0.040119365
205	0xb8f23236	-0.00011548812
206	0xbc3271fd	-0.010891435
207	0xbd193d74	-0.037412122
208	0xbc4180f9	-0.011810535
209	0x3c196a8e	0.0093637835
210	0x3d9cf868	0.07664567
211	0xbc963895	-0.018337527
212	0x3c835e04	0.016036041
213	0xbcc78f41	-0.024360301
214	0x3d1db28c	0.038500354
215	0xbbb3960c	-0.0054805335
216	0x3d653450	0.055958092
217	0x3d2baa29	0.041910324
218	0xbc06a942	-0.008219065
219	0x3cc2b8bd	0.02376973
220	0xbd038d02	-0.032116897
221	0x3d4be09c	0.04977475
222	0x3d3a4a7b	0.045481186
223	0x8a67f018	-1.1167402e-32
224	0xbd48eafc	-0.049052224
225	0xbc705c6d	-0.0146704735
226	0xbd9104ae	-0.07080971
227	0x3c104af4	0.008806933
228	0x3c97876d	0.018497193
229	0xbc61f324	-0.013790879
230	0xbdacb93f	-0.084337704
231	0xbdf8ea2d	-0.121540405
232	0x3a8c06ef	0.0010683219
233	0xbda43043	-0.08017018
234	0xbda170ac	-0.078828186
235	0x3beed130	0.0072881207
236	0x3d445ed9	0.047942016
237	0x3bd37187	0.0064527425
238	0xbc1739d7	-0.009230099
239	0xbdaaee42	-0.08346225
240	0xbd4c635e	-0.04989945
241	0xbd83f8b0	-0.06443918
242	0x3b6fcbad	0.0036589906
243	0xbd36783f	-0.04454827
244	0x3d906ce4	0.07052019
245	0x3e0f187f	0.13974188
246	0xbd8b50a2	-0.06802489
247	0xbcff1bc7	-0.031141175
248	0xbd2c08f4	-0.042000726
249	0x3cfdb61b	0.030970624
250	0xbd4f21ee	-0.050569467
251	0xbcff2768	-0.03114672
252	0x3d160300	0.036623955
253	0x3ca90469	0.020631986
254	0xbd72ca0c	-0.05927472
255	0x3d0e5a95	0.034754355
